// -----// IR Dump After CheckVHLOStableHloMixUsage (iree-check-vhlostablehlo-mix-usage) //----- //
module {
  func.func @main(%arg0: tensor<28x28xf32>, %arg1: tensor<784x10xf32>, %arg2: tensor<1x10xf32>) -> tensor<1x10xf32> {
    %0 = stablehlo.reshape %arg0 : (tensor<28x28xf32>) -> tensor<1x784xf32>
    %1 = stablehlo.dot %0, %arg1 : (tensor<1x784xf32>, tensor<784x10xf32>) -> tensor<1x10xf32>
    %2 = stablehlo.add %1, %arg2 : tensor<1x10xf32>
    %cst = stablehlo.constant dense<0.000000e+00> : tensor<1x10xf32>
    %3 = stablehlo.maximum %2, %cst : tensor<1x10xf32>
    return %3 : tensor<1x10xf32>
  }
}


// -----// IR Dump After VhloToVersionPass (vhlo-to-version) //----- //
module {
  func.func @main(%arg0: tensor<28x28xf32>, %arg1: tensor<784x10xf32>, %arg2: tensor<1x10xf32>) -> tensor<1x10xf32> {
    %0 = stablehlo.reshape %arg0 : (tensor<28x28xf32>) -> tensor<1x784xf32>
    %1 = stablehlo.dot %0, %arg1 : (tensor<1x784xf32>, tensor<784x10xf32>) -> tensor<1x10xf32>
    %2 = stablehlo.add %1, %arg2 : tensor<1x10xf32>
    %cst = stablehlo.constant dense<0.000000e+00> : tensor<1x10xf32>
    %3 = stablehlo.maximum %2, %cst : tensor<1x10xf32>
    return %3 : tensor<1x10xf32>
  }
}


// -----// IR Dump After VhloLegalizeToStablehloPass (vhlo-legalize-to-stablehlo) //----- //
module {
  func.func @main(%arg0: tensor<28x28xf32>, %arg1: tensor<784x10xf32>, %arg2: tensor<1x10xf32>) -> tensor<1x10xf32> {
    %0 = stablehlo.reshape %arg0 : (tensor<28x28xf32>) -> tensor<1x784xf32>
    %1 = stablehlo.dot %0, %arg1 : (tensor<1x784xf32>, tensor<784x10xf32>) -> tensor<1x10xf32>
    %2 = stablehlo.add %1, %arg2 : tensor<1x10xf32>
    %cst = stablehlo.constant dense<0.000000e+00> : tensor<1x10xf32>
    %3 = stablehlo.maximum %2, %cst : tensor<1x10xf32>
    return %3 : tensor<1x10xf32>
  }
}


// -----// IR Dump After Canonicalizer (canonicalize) //----- //
func.func @main(%arg0: tensor<28x28xf32>, %arg1: tensor<784x10xf32>, %arg2: tensor<1x10xf32>) -> tensor<1x10xf32> {
  %cst = stablehlo.constant dense<0.000000e+00> : tensor<1x10xf32>
  %0 = stablehlo.reshape %arg0 : (tensor<28x28xf32>) -> tensor<1x784xf32>
  %1 = stablehlo.dot %0, %arg1 : (tensor<1x784xf32>, tensor<784x10xf32>) -> tensor<1x10xf32>
  %2 = stablehlo.add %1, %arg2 : tensor<1x10xf32>
  %3 = stablehlo.maximum %2, %cst : tensor<1x10xf32>
  return %3 : tensor<1x10xf32>
}

// -----// IR Dump After StableHLOCanonicalize (iree-stablehlo-canonicalize) //----- //
func.func @main(%arg0: tensor<28x28xf32>, %arg1: tensor<784x10xf32>, %arg2: tensor<1x10xf32>) -> tensor<1x10xf32> {
  %cst = stablehlo.constant dense<0.000000e+00> : tensor<1x10xf32>
  %0 = stablehlo.reshape %arg0 : (tensor<28x28xf32>) -> tensor<1x784xf32>
  %1 = stablehlo.dot %0, %arg1 : (tensor<1x784xf32>, tensor<784x10xf32>) -> tensor<1x10xf32>
  %2 = stablehlo.add %1, %arg2 : tensor<1x10xf32>
  %3 = stablehlo.maximum %2, %cst : tensor<1x10xf32>
  return %3 : tensor<1x10xf32>
}

// -----// IR Dump After CSE (cse) //----- //
func.func @main(%arg0: tensor<28x28xf32>, %arg1: tensor<784x10xf32>, %arg2: tensor<1x10xf32>) -> tensor<1x10xf32> {
  %cst = stablehlo.constant dense<0.000000e+00> : tensor<1x10xf32>
  %0 = stablehlo.reshape %arg0 : (tensor<28x28xf32>) -> tensor<1x784xf32>
  %1 = stablehlo.dot %0, %arg1 : (tensor<1x784xf32>, tensor<784x10xf32>) -> tensor<1x10xf32>
  %2 = stablehlo.add %1, %arg2 : tensor<1x10xf32>
  %3 = stablehlo.maximum %2, %cst : tensor<1x10xf32>
  return %3 : tensor<1x10xf32>
}

// -----// IR Dump After LegalizeStableHLOCustomCalls (iree-stablehlo-legalize-custom-calls) //----- //
func.func @main(%arg0: tensor<28x28xf32>, %arg1: tensor<784x10xf32>, %arg2: tensor<1x10xf32>) -> tensor<1x10xf32> {
  %cst = stablehlo.constant dense<0.000000e+00> : tensor<1x10xf32>
  %0 = stablehlo.reshape %arg0 : (tensor<28x28xf32>) -> tensor<1x784xf32>
  %1 = stablehlo.dot %0, %arg1 : (tensor<1x784xf32>, tensor<784x10xf32>) -> tensor<1x10xf32>
  %2 = stablehlo.add %1, %arg2 : tensor<1x10xf32>
  %3 = stablehlo.maximum %2, %cst : tensor<1x10xf32>
  return %3 : tensor<1x10xf32>
}

// -----// IR Dump After LegalizeControlFlow (iree-stablehlo-legalize-control-flow) //----- //
func.func @main(%arg0: tensor<28x28xf32>, %arg1: tensor<784x10xf32>, %arg2: tensor<1x10xf32>) -> tensor<1x10xf32> {
  %cst = stablehlo.constant dense<0.000000e+00> : tensor<1x10xf32>
  %0 = stablehlo.reshape %arg0 : (tensor<28x28xf32>) -> tensor<1x784xf32>
  %1 = stablehlo.dot %0, %arg1 : (tensor<1x784xf32>, tensor<784x10xf32>) -> tensor<1x10xf32>
  %2 = stablehlo.add %1, %arg2 : tensor<1x10xf32>
  %3 = stablehlo.maximum %2, %cst : tensor<1x10xf32>
  return %3 : tensor<1x10xf32>
}

// -----// IR Dump After FlattenTuplesInSCF (iree-stablehlo-preprocessing-flatten-scf-tuples) //----- //
module {
  func.func @main(%arg0: tensor<28x28xf32>, %arg1: tensor<784x10xf32>, %arg2: tensor<1x10xf32>) -> tensor<1x10xf32> {
    %cst = stablehlo.constant dense<0.000000e+00> : tensor<1x10xf32>
    %0 = stablehlo.reshape %arg0 : (tensor<28x28xf32>) -> tensor<1x784xf32>
    %1 = stablehlo.dot %0, %arg1 : (tensor<1x784xf32>, tensor<784x10xf32>) -> tensor<1x10xf32>
    %2 = stablehlo.add %1, %arg2 : tensor<1x10xf32>
    %3 = stablehlo.maximum %2, %cst : tensor<1x10xf32>
    return %3 : tensor<1x10xf32>
  }
}

=======================================================================================================
// -----// IR Dump After StableHLOToStableHLOPreprocessing (iree-stablehlo-to-stablehlo-preprocessing) //----- //
module {
  func.func @main(%arg0: tensor<28x28xf32>, %arg1: tensor<784x10xf32>, %arg2: tensor<1x10xf32>) -> tensor<1x10xf32> {
    %cst = stablehlo.constant dense<0.000000e+00> : tensor<1x10xf32>
    %0 = stablehlo.reshape %arg0 : (tensor<28x28xf32>) -> tensor<784xf32>
    %1 = stablehlo.dot %0, %arg1 : (tensor<784xf32>, tensor<784x10xf32>) -> tensor<10xf32>
    %2 = stablehlo.reshape %1 : (tensor<10xf32>) -> tensor<1x10xf32>
    %3 = stablehlo.add %2, %arg2 : tensor<1x10xf32>
    %4 = stablehlo.maximum %3, %cst : tensor<1x10xf32>
    return %4 : tensor<1x10xf32>
  }
}


// -----// IR Dump After StableHLOCanonicalize (iree-stablehlo-canonicalize) //----- //
func.func @main(%arg0: tensor<28x28xf32>, %arg1: tensor<784x10xf32>, %arg2: tensor<1x10xf32>) -> tensor<1x10xf32> {
  %cst = stablehlo.constant dense<0.000000e+00> : tensor<1x10xf32>
  %0 = stablehlo.reshape %arg0 : (tensor<28x28xf32>) -> tensor<784xf32>
  %1 = stablehlo.dot %0, %arg1 : (tensor<784xf32>, tensor<784x10xf32>) -> tensor<10xf32>
  %2 = stablehlo.reshape %1 : (tensor<10xf32>) -> tensor<1x10xf32>
  %3 = stablehlo.add %2, %arg2 : tensor<1x10xf32>
  %4 = stablehlo.maximum %3, %cst : tensor<1x10xf32>
  return %4 : tensor<1x10xf32>
}

// -----// IR Dump After ShapeToShapeLowering (shape-to-shape-lowering) //----- //
func.func @main(%arg0: tensor<28x28xf32>, %arg1: tensor<784x10xf32>, %arg2: tensor<1x10xf32>) -> tensor<1x10xf32> {
  %cst = stablehlo.constant dense<0.000000e+00> : tensor<1x10xf32>
  %0 = stablehlo.reshape %arg0 : (tensor<28x28xf32>) -> tensor<784xf32>
  %1 = stablehlo.dot %0, %arg1 : (tensor<784xf32>, tensor<784x10xf32>) -> tensor<10xf32>
  %2 = stablehlo.reshape %1 : (tensor<10xf32>) -> tensor<1x10xf32>
  %3 = stablehlo.add %2, %arg2 : tensor<1x10xf32>
  %4 = stablehlo.maximum %3, %cst : tensor<1x10xf32>
  return %4 : tensor<1x10xf32>
}

=======================================================================================================
// -----// IR Dump After ConvertShapeToStandard (convert-shape-to-std) //----- //
module {
  func.func @main(%arg0: tensor<28x28xf32>, %arg1: tensor<784x10xf32>, %arg2: tensor<1x10xf32>) -> tensor<1x10xf32> {
    %cst = stablehlo.constant dense<0.000000e+00> : tensor<1x10xf32>
    %0 = stablehlo.reshape %arg0 : (tensor<28x28xf32>) -> tensor<784xf32>
    %1 = stablehlo.dot %0, %arg1 : (tensor<784xf32>, tensor<784x10xf32>) -> tensor<10xf32>
    %2 = stablehlo.reshape %1 : (tensor<10xf32>) -> tensor<1x10xf32>
    %3 = stablehlo.add %2, %arg2 : tensor<1x10xf32>
    %4 = stablehlo.maximum %3, %cst : tensor<1x10xf32>
    return %4 : tensor<1x10xf32>
  }
}


// -----// IR Dump After Canonicalizer (canonicalize) //----- //
func.func @main(%arg0: tensor<28x28xf32>, %arg1: tensor<784x10xf32>, %arg2: tensor<1x10xf32>) -> tensor<1x10xf32> {
  %cst = stablehlo.constant dense<0.000000e+00> : tensor<1x10xf32>
  %0 = stablehlo.reshape %arg0 : (tensor<28x28xf32>) -> tensor<784xf32>
  %1 = stablehlo.dot %0, %arg1 : (tensor<784xf32>, tensor<784x10xf32>) -> tensor<10xf32>
  %2 = stablehlo.reshape %1 : (tensor<10xf32>) -> tensor<1x10xf32>
  %3 = stablehlo.add %2, %arg2 : tensor<1x10xf32>
  %4 = stablehlo.maximum %3, %cst : tensor<1x10xf32>
  return %4 : tensor<1x10xf32>
}

// -----// IR Dump After StableHLOCanonicalize (iree-stablehlo-canonicalize) //----- //
func.func @main(%arg0: tensor<28x28xf32>, %arg1: tensor<784x10xf32>, %arg2: tensor<1x10xf32>) -> tensor<1x10xf32> {
  %cst = stablehlo.constant dense<0.000000e+00> : tensor<1x10xf32>
  %0 = stablehlo.reshape %arg0 : (tensor<28x28xf32>) -> tensor<784xf32>
  %1 = stablehlo.dot %0, %arg1 : (tensor<784xf32>, tensor<784x10xf32>) -> tensor<10xf32>
  %2 = stablehlo.reshape %1 : (tensor<10xf32>) -> tensor<1x10xf32>
  %3 = stablehlo.add %2, %arg2 : tensor<1x10xf32>
  %4 = stablehlo.maximum %3, %cst : tensor<1x10xf32>
  return %4 : tensor<1x10xf32>
}

// -----// IR Dump After Canonicalizer (canonicalize) //----- //
func.func @main(%arg0: tensor<28x28xf32>, %arg1: tensor<784x10xf32>, %arg2: tensor<1x10xf32>) -> tensor<1x10xf32> {
  %cst = stablehlo.constant dense<0.000000e+00> : tensor<1x10xf32>
  %0 = stablehlo.reshape %arg0 : (tensor<28x28xf32>) -> tensor<784xf32>
  %1 = stablehlo.dot %0, %arg1 : (tensor<784xf32>, tensor<784x10xf32>) -> tensor<10xf32>
  %2 = stablehlo.reshape %1 : (tensor<10xf32>) -> tensor<1x10xf32>
  %3 = stablehlo.add %2, %arg2 : tensor<1x10xf32>
  %4 = stablehlo.maximum %3, %cst : tensor<1x10xf32>
  return %4 : tensor<1x10xf32>
}

// -----// IR Dump After Inliner (inline) //----- //
module {
  func.func @main(%arg0: tensor<28x28xf32>, %arg1: tensor<784x10xf32>, %arg2: tensor<1x10xf32>) -> tensor<1x10xf32> {
    %cst = stablehlo.constant dense<0.000000e+00> : tensor<1x10xf32>
    %0 = stablehlo.reshape %arg0 : (tensor<28x28xf32>) -> tensor<784xf32>
    %1 = stablehlo.dot %0, %arg1 : (tensor<784xf32>, tensor<784x10xf32>) -> tensor<10xf32>
    %2 = stablehlo.reshape %1 : (tensor<10xf32>) -> tensor<1x10xf32>
    %3 = stablehlo.add %2, %arg2 : tensor<1x10xf32>
    %4 = stablehlo.maximum %3, %cst : tensor<1x10xf32>
    return %4 : tensor<1x10xf32>
  }
}


// -----// IR Dump After Canonicalizer (canonicalize) //----- //
func.func @main(%arg0: tensor<28x28xf32>, %arg1: tensor<784x10xf32>, %arg2: tensor<1x10xf32>) -> tensor<1x10xf32> {
  %cst = stablehlo.constant dense<0.000000e+00> : tensor<1x10xf32>
  %0 = stablehlo.reshape %arg0 : (tensor<28x28xf32>) -> tensor<784xf32>
  %1 = stablehlo.dot %0, %arg1 : (tensor<784xf32>, tensor<784x10xf32>) -> tensor<10xf32>
  %2 = stablehlo.reshape %1 : (tensor<10xf32>) -> tensor<1x10xf32>
  %3 = stablehlo.add %2, %arg2 : tensor<1x10xf32>
  %4 = stablehlo.maximum %3, %cst : tensor<1x10xf32>
  return %4 : tensor<1x10xf32>
}

// -----// IR Dump After StableHLOCanonicalize (iree-stablehlo-canonicalize) //----- //
func.func @main(%arg0: tensor<28x28xf32>, %arg1: tensor<784x10xf32>, %arg2: tensor<1x10xf32>) -> tensor<1x10xf32> {
  %cst = stablehlo.constant dense<0.000000e+00> : tensor<1x10xf32>
  %0 = stablehlo.reshape %arg0 : (tensor<28x28xf32>) -> tensor<784xf32>
  %1 = stablehlo.dot %0, %arg1 : (tensor<784xf32>, tensor<784x10xf32>) -> tensor<10xf32>
  %2 = stablehlo.reshape %1 : (tensor<10xf32>) -> tensor<1x10xf32>
  %3 = stablehlo.add %2, %arg2 : tensor<1x10xf32>
  %4 = stablehlo.maximum %3, %cst : tensor<1x10xf32>
  return %4 : tensor<1x10xf32>
}

// -----// IR Dump After CSE (cse) //----- //
func.func @main(%arg0: tensor<28x28xf32>, %arg1: tensor<784x10xf32>, %arg2: tensor<1x10xf32>) -> tensor<1x10xf32> {
  %cst = stablehlo.constant dense<0.000000e+00> : tensor<1x10xf32>
  %0 = stablehlo.reshape %arg0 : (tensor<28x28xf32>) -> tensor<784xf32>
  %1 = stablehlo.dot %0, %arg1 : (tensor<784xf32>, tensor<784x10xf32>) -> tensor<10xf32>
  %2 = stablehlo.reshape %1 : (tensor<10xf32>) -> tensor<1x10xf32>
  %3 = stablehlo.add %2, %arg2 : tensor<1x10xf32>
  %4 = stablehlo.maximum %3, %cst : tensor<1x10xf32>
  return %4 : tensor<1x10xf32>
}

// -----// IR Dump After LegalizeShapeComputations (iree-stablehlo-legalize-shape-computations) //----- //
func.func @main(%arg0: tensor<28x28xf32>, %arg1: tensor<784x10xf32>, %arg2: tensor<1x10xf32>) -> tensor<1x10xf32> {
  %cst = stablehlo.constant dense<0.000000e+00> : tensor<1x10xf32>
  %0 = stablehlo.reshape %arg0 : (tensor<28x28xf32>) -> tensor<784xf32>
  %1 = stablehlo.dot %0, %arg1 : (tensor<784xf32>, tensor<784x10xf32>) -> tensor<10xf32>
  %2 = stablehlo.reshape %1 : (tensor<10xf32>) -> tensor<1x10xf32>
  %3 = stablehlo.add %2, %arg2 : tensor<1x10xf32>
  %4 = stablehlo.maximum %3, %cst : tensor<1x10xf32>
  return %4 : tensor<1x10xf32>
}

=======================================================================================================
// -----// IR Dump After ConvertStableHloToLinalgExt (iree-stablehlo-to-linalg-ext) //----- //
func.func @main(%arg0: tensor<28x28xf32>, %arg1: tensor<784x10xf32>, %arg2: tensor<1x10xf32>) -> tensor<1x10xf32> {
  %cst = stablehlo.constant dense<0.000000e+00> : tensor<1x10xf32>
  %0 = stablehlo.reshape %arg0 : (tensor<28x28xf32>) -> tensor<784xf32>
  %1 = stablehlo.dot %0, %arg1 : (tensor<784xf32>, tensor<784x10xf32>) -> tensor<10xf32>
  %2 = stablehlo.reshape %1 : (tensor<10xf32>) -> tensor<1x10xf32>
  %3 = stablehlo.add %2, %arg2 : tensor<1x10xf32>
  %4 = stablehlo.maximum %3, %cst : tensor<1x10xf32>
  return %4 : tensor<1x10xf32>
}

// -----// IR Dump After LegalizeChlo (iree-stablehlo-legalize-chlo) //----- //
func.func @main(%arg0: tensor<28x28xf32>, %arg1: tensor<784x10xf32>, %arg2: tensor<1x10xf32>) -> tensor<1x10xf32> {
  %cst = stablehlo.constant dense<0.000000e+00> : tensor<1x10xf32>
  %0 = stablehlo.reshape %arg0 : (tensor<28x28xf32>) -> tensor<784xf32>
  %1 = stablehlo.dot %0, %arg1 : (tensor<784xf32>, tensor<784x10xf32>) -> tensor<10xf32>
  %2 = stablehlo.reshape %1 : (tensor<10xf32>) -> tensor<1x10xf32>
  %3 = stablehlo.add %2, %arg2 : tensor<1x10xf32>
  %4 = stablehlo.maximum %3, %cst : tensor<1x10xf32>
  return %4 : tensor<1x10xf32>
}

=======================================================================================================
=================================== 将StableHLO转到Linalg On Tensor ===================================
// -----// IR Dump After ConvertStableHloToIreeInputDialects (iree-stablehlo-to-iree-input) //----- //
#map = affine_map<(d0, d1) -> (d0, d1)>
module {
  func.func @main(%arg0: tensor<28x28xf32>, %arg1: tensor<784x10xf32>, %arg2: tensor<1x10xf32>) -> tensor<1x10xf32> {
    %cst = arith.constant 0.000000e+00 : f32
    %cst_0 = arith.constant dense<0.000000e+00> : tensor<1x10xf32>
    %collapsed = tensor.collapse_shape %arg0 [[0, 1]] : tensor<28x28xf32> into tensor<784xf32>
    %0 = tensor.empty() : tensor<10xf32>
    %1 = linalg.fill ins(%cst : f32) outs(%0 : tensor<10xf32>) -> tensor<10xf32>
    %2 = linalg.vecmat ins(%collapsed, %arg1 : tensor<784xf32>, tensor<784x10xf32>) outs(%1 : tensor<10xf32>) -> tensor<10xf32>
    %expanded = tensor.expand_shape %2 [[0, 1]] output_shape [1, 10] : tensor<10xf32> into tensor<1x10xf32>
    %3 = tensor.empty() : tensor<1x10xf32>
    %4 = linalg.generic {indexing_maps = [#map, #map, #map], iterator_types = ["parallel", "parallel"]} ins(%expanded, %arg2 : tensor<1x10xf32>, tensor<1x10xf32>) outs(%3 : tensor<1x10xf32>) {
    ^bb0(%in: f32, %in_1: f32, %out: f32):
      %7 = arith.addf %in, %in_1 : f32
      linalg.yield %7 : f32
    } -> tensor<1x10xf32>
    %5 = tensor.empty() : tensor<1x10xf32>
    %6 = linalg.generic {indexing_maps = [#map, #map, #map], iterator_types = ["parallel", "parallel"]} ins(%4, %cst_0 : tensor<1x10xf32>, tensor<1x10xf32>) outs(%5 : tensor<1x10xf32>) {
    ^bb0(%in: f32, %in_1: f32, %out: f32):
      %7 = arith.maximumf %in, %in_1 : f32
      linalg.yield %7 : f32
    } -> tensor<1x10xf32>
    return %6 : tensor<1x10xf32>
  }
}

=======================================================================================================
// -----// IR Dump After ReconcileUnrealizedCasts (reconcile-unrealized-casts) //----- //
#map = affine_map<(d0, d1) -> (d0, d1)>
module {
  func.func @main(%arg0: tensor<28x28xf32>, %arg1: tensor<784x10xf32>, %arg2: tensor<1x10xf32>) -> tensor<1x10xf32> {
    %cst = arith.constant 0.000000e+00 : f32
    %cst_0 = arith.constant dense<0.000000e+00> : tensor<1x10xf32>
    %collapsed = tensor.collapse_shape %arg0 [[0, 1]] : tensor<28x28xf32> into tensor<784xf32>
    %0 = tensor.empty() : tensor<10xf32>
    %1 = linalg.fill ins(%cst : f32) outs(%0 : tensor<10xf32>) -> tensor<10xf32>
    %2 = linalg.vecmat ins(%collapsed, %arg1 : tensor<784xf32>, tensor<784x10xf32>) outs(%1 : tensor<10xf32>) -> tensor<10xf32>
    %expanded = tensor.expand_shape %2 [[0, 1]] output_shape [1, 10] : tensor<10xf32> into tensor<1x10xf32>
    %3 = tensor.empty() : tensor<1x10xf32>
    %4 = linalg.generic {indexing_maps = [#map, #map, #map], iterator_types = ["parallel", "parallel"]} ins(%expanded, %arg2 : tensor<1x10xf32>, tensor<1x10xf32>) outs(%3 : tensor<1x10xf32>) {
    ^bb0(%in: f32, %in_1: f32, %out: f32):
      %7 = arith.addf %in, %in_1 : f32
      linalg.yield %7 : f32
    } -> tensor<1x10xf32>
    %5 = tensor.empty() : tensor<1x10xf32>
    %6 = linalg.generic {indexing_maps = [#map, #map, #map], iterator_types = ["parallel", "parallel"]} ins(%4, %cst_0 : tensor<1x10xf32>, tensor<1x10xf32>) outs(%5 : tensor<1x10xf32>) {
    ^bb0(%in: f32, %in_1: f32, %out: f32):
      %7 = arith.maximumf %in, %in_1 : f32
      linalg.yield %7 : f32
    } -> tensor<1x10xf32>
    return %6 : tensor<1x10xf32>
  }
}


// -----// IR Dump After Canonicalizer (canonicalize) //----- //
func.func @main(%arg0: tensor<28x28xf32>, %arg1: tensor<784x10xf32>, %arg2: tensor<1x10xf32>) -> tensor<1x10xf32> {
  %cst = arith.constant 0.000000e+00 : f32
  %cst_0 = arith.constant dense<0.000000e+00> : tensor<1x10xf32>
  %collapsed = tensor.collapse_shape %arg0 [[0, 1]] : tensor<28x28xf32> into tensor<784xf32>
  %0 = tensor.empty() : tensor<10xf32>
  %1 = linalg.fill ins(%cst : f32) outs(%0 : tensor<10xf32>) -> tensor<10xf32>
  %2 = linalg.vecmat ins(%collapsed, %arg1 : tensor<784xf32>, tensor<784x10xf32>) outs(%1 : tensor<10xf32>) -> tensor<10xf32>
  %expanded = tensor.expand_shape %2 [[0, 1]] output_shape [1, 10] : tensor<10xf32> into tensor<1x10xf32>
  %3 = tensor.empty() : tensor<1x10xf32>
  %4 = linalg.generic {indexing_maps = [affine_map<(d0, d1) -> (d0, d1)>, affine_map<(d0, d1) -> (d0, d1)>, affine_map<(d0, d1) -> (d0, d1)>], iterator_types = ["parallel", "parallel"]} ins(%expanded, %arg2 : tensor<1x10xf32>, tensor<1x10xf32>) outs(%3 : tensor<1x10xf32>) {
  ^bb0(%in: f32, %in_1: f32, %out: f32):
    %7 = arith.addf %in, %in_1 : f32
    linalg.yield %7 : f32
  } -> tensor<1x10xf32>
  %5 = tensor.empty() : tensor<1x10xf32>
  %6 = linalg.generic {indexing_maps = [affine_map<(d0, d1) -> (d0, d1)>, affine_map<(d0, d1) -> (d0, d1)>, affine_map<(d0, d1) -> (d0, d1)>], iterator_types = ["parallel", "parallel"]} ins(%4, %cst_0 : tensor<1x10xf32>, tensor<1x10xf32>) outs(%5 : tensor<1x10xf32>) {
  ^bb0(%in: f32, %in_1: f32, %out: f32):
    %7 = arith.maximumf %in, %in_1 : f32
    linalg.yield %7 : f32
  } -> tensor<1x10xf32>
  return %6 : tensor<1x10xf32>
}

// -----// IR Dump After StableHLOCanonicalize (iree-stablehlo-canonicalize) //----- //
func.func @main(%arg0: tensor<28x28xf32>, %arg1: tensor<784x10xf32>, %arg2: tensor<1x10xf32>) -> tensor<1x10xf32> {
  %cst = arith.constant 0.000000e+00 : f32
  %cst_0 = arith.constant dense<0.000000e+00> : tensor<1x10xf32>
  %collapsed = tensor.collapse_shape %arg0 [[0, 1]] : tensor<28x28xf32> into tensor<784xf32>
  %0 = tensor.empty() : tensor<10xf32>
  %1 = linalg.fill ins(%cst : f32) outs(%0 : tensor<10xf32>) -> tensor<10xf32>
  %2 = linalg.vecmat ins(%collapsed, %arg1 : tensor<784xf32>, tensor<784x10xf32>) outs(%1 : tensor<10xf32>) -> tensor<10xf32>
  %expanded = tensor.expand_shape %2 [[0, 1]] output_shape [1, 10] : tensor<10xf32> into tensor<1x10xf32>
  %3 = tensor.empty() : tensor<1x10xf32>
  %4 = linalg.generic {indexing_maps = [affine_map<(d0, d1) -> (d0, d1)>, affine_map<(d0, d1) -> (d0, d1)>, affine_map<(d0, d1) -> (d0, d1)>], iterator_types = ["parallel", "parallel"]} ins(%expanded, %arg2 : tensor<1x10xf32>, tensor<1x10xf32>) outs(%3 : tensor<1x10xf32>) {
  ^bb0(%in: f32, %in_1: f32, %out: f32):
    %7 = arith.addf %in, %in_1 : f32
    linalg.yield %7 : f32
  } -> tensor<1x10xf32>
  %5 = tensor.empty() : tensor<1x10xf32>
  %6 = linalg.generic {indexing_maps = [affine_map<(d0, d1) -> (d0, d1)>, affine_map<(d0, d1) -> (d0, d1)>, affine_map<(d0, d1) -> (d0, d1)>], iterator_types = ["parallel", "parallel"]} ins(%4, %cst_0 : tensor<1x10xf32>, tensor<1x10xf32>) outs(%5 : tensor<1x10xf32>) {
  ^bb0(%in: f32, %in_1: f32, %out: f32):
    %7 = arith.maximumf %in, %in_1 : f32
    linalg.yield %7 : f32
  } -> tensor<1x10xf32>
  return %6 : tensor<1x10xf32>
}

// -----// IR Dump After VerifyCompilerStableHloInputLegality (iree-stablehlo-verify-compiler-input-legality) //----- //
#map = affine_map<(d0, d1) -> (d0, d1)>
module {
  func.func @main(%arg0: tensor<28x28xf32>, %arg1: tensor<784x10xf32>, %arg2: tensor<1x10xf32>) -> tensor<1x10xf32> {
    %cst = arith.constant 0.000000e+00 : f32
    %cst_0 = arith.constant dense<0.000000e+00> : tensor<1x10xf32>
    %collapsed = tensor.collapse_shape %arg0 [[0, 1]] : tensor<28x28xf32> into tensor<784xf32>
    %0 = tensor.empty() : tensor<10xf32>
    %1 = linalg.fill ins(%cst : f32) outs(%0 : tensor<10xf32>) -> tensor<10xf32>
    %2 = linalg.vecmat ins(%collapsed, %arg1 : tensor<784xf32>, tensor<784x10xf32>) outs(%1 : tensor<10xf32>) -> tensor<10xf32>
    %expanded = tensor.expand_shape %2 [[0, 1]] output_shape [1, 10] : tensor<10xf32> into tensor<1x10xf32>
    %3 = tensor.empty() : tensor<1x10xf32>
    %4 = linalg.generic {indexing_maps = [#map, #map, #map], iterator_types = ["parallel", "parallel"]} ins(%expanded, %arg2 : tensor<1x10xf32>, tensor<1x10xf32>) outs(%3 : tensor<1x10xf32>) {
    ^bb0(%in: f32, %in_1: f32, %out: f32):
      %7 = arith.addf %in, %in_1 : f32
      linalg.yield %7 : f32
    } -> tensor<1x10xf32>
    %5 = tensor.empty() : tensor<1x10xf32>
    %6 = linalg.generic {indexing_maps = [#map, #map, #map], iterator_types = ["parallel", "parallel"]} ins(%4, %cst_0 : tensor<1x10xf32>, tensor<1x10xf32>) outs(%5 : tensor<1x10xf32>) {
    ^bb0(%in: f32, %in_1: f32, %out: f32):
      %7 = arith.maximumf %in, %in_1 : f32
      linalg.yield %7 : f32
    } -> tensor<1x10xf32>
    return %6 : tensor<1x10xf32>
  }
}

=======================================================================================================
// -----// IR Dump After IREEImportPublicPass (iree-import-public) //----- //
#map = affine_map<(d0, d1) -> (d0, d1)>
module {
  util.func public @main(%arg0: tensor<28x28xf32>, %arg1: tensor<784x10xf32>, %arg2: tensor<1x10xf32>) -> tensor<1x10xf32> {
    %cst = arith.constant 0.000000e+00 : f32
    %cst_0 = arith.constant dense<0.000000e+00> : tensor<1x10xf32>
    %collapsed = tensor.collapse_shape %arg0 [[0, 1]] : tensor<28x28xf32> into tensor<784xf32>
    %0 = tensor.empty() : tensor<10xf32>
    %1 = linalg.fill ins(%cst : f32) outs(%0 : tensor<10xf32>) -> tensor<10xf32>
    %2 = linalg.vecmat ins(%collapsed, %arg1 : tensor<784xf32>, tensor<784x10xf32>) outs(%1 : tensor<10xf32>) -> tensor<10xf32>
    %expanded = tensor.expand_shape %2 [[0, 1]] output_shape [1, 10] : tensor<10xf32> into tensor<1x10xf32>
    %3 = tensor.empty() : tensor<1x10xf32>
    %4 = linalg.generic {indexing_maps = [#map, #map, #map], iterator_types = ["parallel", "parallel"]} ins(%expanded, %arg2 : tensor<1x10xf32>, tensor<1x10xf32>) outs(%3 : tensor<1x10xf32>) {
    ^bb0(%in: f32, %in_1: f32, %out: f32):
      %7 = arith.addf %in, %in_1 : f32
      linalg.yield %7 : f32
    } -> tensor<1x10xf32>
    %5 = tensor.empty() : tensor<1x10xf32>
    %6 = linalg.generic {indexing_maps = [#map, #map, #map], iterator_types = ["parallel", "parallel"]} ins(%4, %cst_0 : tensor<1x10xf32>, tensor<1x10xf32>) outs(%5 : tensor<1x10xf32>) {
    ^bb0(%in: f32, %in_1: f32, %out: f32):
      %7 = arith.maximumf %in, %in_1 : f32
      linalg.yield %7 : f32
    } -> tensor<1x10xf32>
    util.return %6 : tensor<1x10xf32>
  }
}

=======================================================================================================
// -----// IR Dump After ImportMLProgramPass (iree-import-ml-program) //----- //
#map = affine_map<(d0, d1) -> (d0, d1)>
module {
  util.func public @main(%arg0: tensor<28x28xf32>, %arg1: tensor<784x10xf32>, %arg2: tensor<1x10xf32>) -> tensor<1x10xf32> {
    %cst = arith.constant 0.000000e+00 : f32
    %cst_0 = arith.constant dense<0.000000e+00> : tensor<1x10xf32>
    %collapsed = tensor.collapse_shape %arg0 [[0, 1]] : tensor<28x28xf32> into tensor<784xf32>
    %0 = tensor.empty() : tensor<10xf32>
    %1 = linalg.fill ins(%cst : f32) outs(%0 : tensor<10xf32>) -> tensor<10xf32>
    %2 = linalg.vecmat ins(%collapsed, %arg1 : tensor<784xf32>, tensor<784x10xf32>) outs(%1 : tensor<10xf32>) -> tensor<10xf32>
    %expanded = tensor.expand_shape %2 [[0, 1]] output_shape [1, 10] : tensor<10xf32> into tensor<1x10xf32>
    %3 = tensor.empty() : tensor<1x10xf32>
    %4 = linalg.generic {indexing_maps = [#map, #map, #map], iterator_types = ["parallel", "parallel"]} ins(%expanded, %arg2 : tensor<1x10xf32>, tensor<1x10xf32>) outs(%3 : tensor<1x10xf32>) {
    ^bb0(%in: f32, %in_1: f32, %out: f32):
      %7 = arith.addf %in, %in_1 : f32
      linalg.yield %7 : f32
    } -> tensor<1x10xf32>
    %5 = tensor.empty() : tensor<1x10xf32>
    %6 = linalg.generic {indexing_maps = [#map, #map, #map], iterator_types = ["parallel", "parallel"]} ins(%4, %cst_0 : tensor<1x10xf32>, tensor<1x10xf32>) outs(%5 : tensor<1x10xf32>) {
    ^bb0(%in: f32, %in_1: f32, %out: f32):
      %7 = arith.maximumf %in, %in_1 : f32
      linalg.yield %7 : f32
    } -> tensor<1x10xf32>
    util.return %6 : tensor<1x10xf32>
  }
}


// -----// IR Dump After SanitizeModuleNamesPass (iree-sanitize-module-names) //----- //
#map = affine_map<(d0, d1) -> (d0, d1)>
module {
  util.func public @main(%arg0: tensor<28x28xf32>, %arg1: tensor<784x10xf32>, %arg2: tensor<1x10xf32>) -> tensor<1x10xf32> {
    %cst = arith.constant 0.000000e+00 : f32
    %cst_0 = arith.constant dense<0.000000e+00> : tensor<1x10xf32>
    %collapsed = tensor.collapse_shape %arg0 [[0, 1]] : tensor<28x28xf32> into tensor<784xf32>
    %0 = tensor.empty() : tensor<10xf32>
    %1 = linalg.fill ins(%cst : f32) outs(%0 : tensor<10xf32>) -> tensor<10xf32>
    %2 = linalg.vecmat ins(%collapsed, %arg1 : tensor<784xf32>, tensor<784x10xf32>) outs(%1 : tensor<10xf32>) -> tensor<10xf32>
    %expanded = tensor.expand_shape %2 [[0, 1]] output_shape [1, 10] : tensor<10xf32> into tensor<1x10xf32>
    %3 = tensor.empty() : tensor<1x10xf32>
    %4 = linalg.generic {indexing_maps = [#map, #map, #map], iterator_types = ["parallel", "parallel"]} ins(%expanded, %arg2 : tensor<1x10xf32>, tensor<1x10xf32>) outs(%3 : tensor<1x10xf32>) {
    ^bb0(%in: f32, %in_1: f32, %out: f32):
      %7 = arith.addf %in, %in_1 : f32
      linalg.yield %7 : f32
    } -> tensor<1x10xf32>
    %5 = tensor.empty() : tensor<1x10xf32>
    %6 = linalg.generic {indexing_maps = [#map, #map, #map], iterator_types = ["parallel", "parallel"]} ins(%4, %cst_0 : tensor<1x10xf32>, tensor<1x10xf32>) outs(%5 : tensor<1x10xf32>) {
    ^bb0(%in: f32, %in_1: f32, %out: f32):
      %7 = arith.maximumf %in, %in_1 : f32
      linalg.yield %7 : f32
    } -> tensor<1x10xf32>
    util.return %6 : tensor<1x10xf32>
  }
}


// -----// IR Dump After ConvertMeshToFlowPass (iree-convert-mesh-to-flow) //----- //
#map = affine_map<(d0, d1) -> (d0, d1)>
module {
  util.func public @main(%arg0: tensor<28x28xf32>, %arg1: tensor<784x10xf32>, %arg2: tensor<1x10xf32>) -> tensor<1x10xf32> {
    %cst = arith.constant 0.000000e+00 : f32
    %cst_0 = arith.constant dense<0.000000e+00> : tensor<1x10xf32>
    %collapsed = tensor.collapse_shape %arg0 [[0, 1]] : tensor<28x28xf32> into tensor<784xf32>
    %0 = tensor.empty() : tensor<10xf32>
    %1 = linalg.fill ins(%cst : f32) outs(%0 : tensor<10xf32>) -> tensor<10xf32>
    %2 = linalg.vecmat ins(%collapsed, %arg1 : tensor<784xf32>, tensor<784x10xf32>) outs(%1 : tensor<10xf32>) -> tensor<10xf32>
    %expanded = tensor.expand_shape %2 [[0, 1]] output_shape [1, 10] : tensor<10xf32> into tensor<1x10xf32>
    %3 = tensor.empty() : tensor<1x10xf32>
    %4 = linalg.generic {indexing_maps = [#map, #map, #map], iterator_types = ["parallel", "parallel"]} ins(%expanded, %arg2 : tensor<1x10xf32>, tensor<1x10xf32>) outs(%3 : tensor<1x10xf32>) {
    ^bb0(%in: f32, %in_1: f32, %out: f32):
      %7 = arith.addf %in, %in_1 : f32
      linalg.yield %7 : f32
    } -> tensor<1x10xf32>
    %5 = tensor.empty() : tensor<1x10xf32>
    %6 = linalg.generic {indexing_maps = [#map, #map, #map], iterator_types = ["parallel", "parallel"]} ins(%4, %cst_0 : tensor<1x10xf32>, tensor<1x10xf32>) outs(%5 : tensor<1x10xf32>) {
    ^bb0(%in: f32, %in_1: f32, %out: f32):
      %7 = arith.maximumf %in, %in_1 : f32
      linalg.yield %7 : f32
    } -> tensor<1x10xf32>
    util.return %6 : tensor<1x10xf32>
  }
}

==============================================================================================================
// -----// IR Dump After DemoteF64ToF32Pass (iree-input-conversion-demote-f64-to-f32) //----- //
#map = affine_map<(d0, d1) -> (d0, d1)>
module {
  util.func public @main(%arg0: tensor<28x28xf32>, %arg1: tensor<784x10xf32>, %arg2: tensor<1x10xf32>) -> tensor<1x10xf32> {
    %cst = arith.constant 0.000000e+00 : f32
    %cst_0 = arith.constant dense<0.000000e+00> : tensor<1x10xf32>
    %collapsed = tensor.collapse_shape %arg0 [[0, 1]] : tensor<28x28xf32> into tensor<784xf32>
    %0 = tensor.empty() : tensor<10xf32>
    %1 = linalg.fill ins(%cst : f32) outs(%0 : tensor<10xf32>) -> tensor<10xf32>
    %2 = linalg.vecmat ins(%collapsed, %arg1 : tensor<784xf32>, tensor<784x10xf32>) outs(%1 : tensor<10xf32>) -> tensor<10xf32>
    %expanded = tensor.expand_shape %2 [[0, 1]] output_shape [1, 10] : tensor<10xf32> into tensor<1x10xf32>
    %3 = tensor.empty() : tensor<1x10xf32>
    %4 = linalg.generic {indexing_maps = [#map, #map, #map], iterator_types = ["parallel", "parallel"]} ins(%expanded, %arg2 : tensor<1x10xf32>, tensor<1x10xf32>) outs(%3 : tensor<1x10xf32>) {
    ^bb0(%in: f32, %in_1: f32, %out: f32):
      %7 = arith.addf %in, %in_1 : f32
      linalg.yield %7 : f32
    } -> tensor<1x10xf32>
    %5 = tensor.empty() : tensor<1x10xf32>
    %6 = linalg.generic {indexing_maps = [#map, #map, #map], iterator_types = ["parallel", "parallel"]} ins(%4, %cst_0 : tensor<1x10xf32>, tensor<1x10xf32>) outs(%5 : tensor<1x10xf32>) {
    ^bb0(%in: f32, %in_1: f32, %out: f32):
      %7 = arith.maximumf %in, %in_1 : f32
      linalg.yield %7 : f32
    } -> tensor<1x10xf32>
    util.return %6 : tensor<1x10xf32>
  }
}


// -----// IR Dump After mlir::iree_compiler::IREE::ABI::ConvertStreamableOpsPass (iree-abi-convert-streamable-ops) //----- //
#map = affine_map<(d0, d1) -> (d0, d1)>
module {
  util.func public @main(%arg0: tensor<28x28xf32>, %arg1: tensor<784x10xf32>, %arg2: tensor<1x10xf32>) -> tensor<1x10xf32> {
    %cst = arith.constant 0.000000e+00 : f32
    %cst_0 = arith.constant dense<0.000000e+00> : tensor<1x10xf32>
    %collapsed = tensor.collapse_shape %arg0 [[0, 1]] : tensor<28x28xf32> into tensor<784xf32>
    %0 = tensor.empty() : tensor<10xf32>
    %1 = linalg.fill ins(%cst : f32) outs(%0 : tensor<10xf32>) -> tensor<10xf32>
    %2 = linalg.vecmat ins(%collapsed, %arg1 : tensor<784xf32>, tensor<784x10xf32>) outs(%1 : tensor<10xf32>) -> tensor<10xf32>
    %expanded = tensor.expand_shape %2 [[0, 1]] output_shape [1, 10] : tensor<10xf32> into tensor<1x10xf32>
    %3 = tensor.empty() : tensor<1x10xf32>
    %4 = linalg.generic {indexing_maps = [#map, #map, #map], iterator_types = ["parallel", "parallel"]} ins(%expanded, %arg2 : tensor<1x10xf32>, tensor<1x10xf32>) outs(%3 : tensor<1x10xf32>) {
    ^bb0(%in: f32, %in_1: f32, %out: f32):
      %7 = arith.addf %in, %in_1 : f32
      linalg.yield %7 : f32
    } -> tensor<1x10xf32>
    %5 = tensor.empty() : tensor<1x10xf32>
    %6 = linalg.generic {indexing_maps = [#map, #map, #map], iterator_types = ["parallel", "parallel"]} ins(%4, %cst_0 : tensor<1x10xf32>, tensor<1x10xf32>) outs(%5 : tensor<1x10xf32>) {
    ^bb0(%in: f32, %in_1: f32, %out: f32):
      %7 = arith.maximumf %in, %in_1 : f32
      linalg.yield %7 : f32
    } -> tensor<1x10xf32>
    util.return %6 : tensor<1x10xf32>
  }
}

=======================================================================================================
// -----// IR Dump After mlir::iree_compiler::IREE::ABI::WrapEntryPointsPass (iree-abi-wrap-entry-points) //----- //
#map = affine_map<(d0, d1) -> (d0, d1)>
module {
  util.func public @main(%arg0: !hal.buffer_view, %arg1: !hal.buffer_view, %arg2: !hal.buffer_view) -> !hal.buffer_view attributes {iree.abi.stub, iree.reflection = {iree.abi.declaration = "sync func @main(%input0: tensor<28x28xf32>, %input1: tensor<784x10xf32>, %input2: tensor<1x10xf32>) -> (%output0: tensor<1x10xf32>)"}} {
    %0 = hal.tensor.import %arg0 "input0" : !hal.buffer_view -> tensor<28x28xf32>
    %1 = hal.tensor.import %arg1 "input1" : !hal.buffer_view -> tensor<784x10xf32>
    %2 = hal.tensor.import %arg2 "input2" : !hal.buffer_view -> tensor<1x10xf32>
    %3 = util.call @_main(%0, %1, %2) : (tensor<28x28xf32>, tensor<784x10xf32>, tensor<1x10xf32>) -> tensor<1x10xf32>
    %4 = hal.tensor.export %3 "output0" : tensor<1x10xf32> -> !hal.buffer_view
    util.return %4 : !hal.buffer_view
  }
  util.func private @_main(%arg0: tensor<28x28xf32>, %arg1: tensor<784x10xf32>, %arg2: tensor<1x10xf32>) -> tensor<1x10xf32> {
    %cst = arith.constant 0.000000e+00 : f32
    %cst_0 = arith.constant dense<0.000000e+00> : tensor<1x10xf32>
    %collapsed = tensor.collapse_shape %arg0 [[0, 1]] : tensor<28x28xf32> into tensor<784xf32>
    %0 = tensor.empty() : tensor<10xf32>
    %1 = linalg.fill ins(%cst : f32) outs(%0 : tensor<10xf32>) -> tensor<10xf32>
    %2 = linalg.vecmat ins(%collapsed, %arg1 : tensor<784xf32>, tensor<784x10xf32>) outs(%1 : tensor<10xf32>) -> tensor<10xf32>
    %expanded = tensor.expand_shape %2 [[0, 1]] output_shape [1, 10] : tensor<10xf32> into tensor<1x10xf32>
    %3 = tensor.empty() : tensor<1x10xf32>
    %4 = linalg.generic {indexing_maps = [#map, #map, #map], iterator_types = ["parallel", "parallel"]} ins(%expanded, %arg2 : tensor<1x10xf32>, tensor<1x10xf32>) outs(%3 : tensor<1x10xf32>) {
    ^bb0(%in: f32, %in_1: f32, %out: f32):
      %7 = arith.addf %in, %in_1 : f32
      linalg.yield %7 : f32
    } -> tensor<1x10xf32>
    %5 = tensor.empty() : tensor<1x10xf32>
    %6 = linalg.generic {indexing_maps = [#map, #map, #map], iterator_types = ["parallel", "parallel"]} ins(%4, %cst_0 : tensor<1x10xf32>, tensor<1x10xf32>) outs(%5 : tensor<1x10xf32>) {
    ^bb0(%in: f32, %in_1: f32, %out: f32):
      %7 = arith.maximumf %in, %in_1 : f32
      linalg.yield %7 : f32
    } -> tensor<1x10xf32>
    util.return %6 : tensor<1x10xf32>
  }
}


// -----// IR Dump After Canonicalizer (canonicalize) //----- //
util.func private @_main(%arg0: tensor<28x28xf32>, %arg1: tensor<784x10xf32>, %arg2: tensor<1x10xf32>) -> tensor<1x10xf32> {
  %cst = arith.constant 0.000000e+00 : f32
  %cst_0 = arith.constant dense<0.000000e+00> : tensor<1x10xf32>
  %collapsed = tensor.collapse_shape %arg0 [[0, 1]] : tensor<28x28xf32> into tensor<784xf32>
  %0 = tensor.empty() : tensor<10xf32>
  %1 = linalg.fill ins(%cst : f32) outs(%0 : tensor<10xf32>) -> tensor<10xf32>
  %2 = linalg.vecmat ins(%collapsed, %arg1 : tensor<784xf32>, tensor<784x10xf32>) outs(%1 : tensor<10xf32>) -> tensor<10xf32>
  %expanded = tensor.expand_shape %2 [[0, 1]] output_shape [1, 10] : tensor<10xf32> into tensor<1x10xf32>
  %3 = tensor.empty() : tensor<1x10xf32>
  %4 = linalg.generic {indexing_maps = [affine_map<(d0, d1) -> (d0, d1)>, affine_map<(d0, d1) -> (d0, d1)>, affine_map<(d0, d1) -> (d0, d1)>], iterator_types = ["parallel", "parallel"]} ins(%expanded, %arg2 : tensor<1x10xf32>, tensor<1x10xf32>) outs(%3 : tensor<1x10xf32>) {
  ^bb0(%in: f32, %in_1: f32, %out: f32):
    %7 = arith.addf %in, %in_1 : f32
    linalg.yield %7 : f32
  } -> tensor<1x10xf32>
  %5 = tensor.empty() : tensor<1x10xf32>
  %6 = linalg.generic {indexing_maps = [affine_map<(d0, d1) -> (d0, d1)>, affine_map<(d0, d1) -> (d0, d1)>, affine_map<(d0, d1) -> (d0, d1)>], iterator_types = ["parallel", "parallel"]} ins(%4, %cst_0 : tensor<1x10xf32>, tensor<1x10xf32>) outs(%5 : tensor<1x10xf32>) {
  ^bb0(%in: f32, %in_1: f32, %out: f32):
    %7 = arith.maximumf %in, %in_1 : f32
    linalg.yield %7 : f32
  } -> tensor<1x10xf32>
  util.return %6 : tensor<1x10xf32>
}

// -----// IR Dump After Canonicalizer (canonicalize) //----- //
util.func public @main(%arg0: !hal.buffer_view, %arg1: !hal.buffer_view, %arg2: !hal.buffer_view) -> !hal.buffer_view attributes {iree.abi.stub, iree.reflection = {iree.abi.declaration = "sync func @main(%input0: tensor<28x28xf32>, %input1: tensor<784x10xf32>, %input2: tensor<1x10xf32>) -> (%output0: tensor<1x10xf32>)"}} {
  %0 = hal.tensor.import %arg0 "input0" : !hal.buffer_view -> tensor<28x28xf32>
  %1 = hal.tensor.import %arg1 "input1" : !hal.buffer_view -> tensor<784x10xf32>
  %2 = hal.tensor.import %arg2 "input2" : !hal.buffer_view -> tensor<1x10xf32>
  %3 = util.call @_main(%0, %1, %2) : (tensor<28x28xf32>, tensor<784x10xf32>, tensor<1x10xf32>) -> tensor<1x10xf32>
  %4 = hal.tensor.export %3 "output0" : tensor<1x10xf32> -> !hal.buffer_view
  util.return %4 : !hal.buffer_view
}

// -----// IR Dump After Canonicalizer (canonicalize) //----- //
util.func public @main(%arg0: !hal.buffer_view, %arg1: !hal.buffer_view, %arg2: !hal.buffer_view) -> !hal.buffer_view attributes {iree.abi.stub, iree.reflection = {iree.abi.declaration = "sync func @main(%input0: tensor<28x28xf32>, %input1: tensor<784x10xf32>, %input2: tensor<1x10xf32>) -> (%output0: tensor<1x10xf32>)"}} {
  %cst = arith.constant dense<0.000000e+00> : tensor<1x10xf32>
  %cst_0 = arith.constant 0.000000e+00 : f32
  %0 = hal.tensor.import %arg0 "input0" : !hal.buffer_view -> tensor<28x28xf32>
  %1 = hal.tensor.import %arg1 "input1" : !hal.buffer_view -> tensor<784x10xf32>
  %2 = hal.tensor.import %arg2 "input2" : !hal.buffer_view -> tensor<1x10xf32>
  %collapsed = tensor.collapse_shape %0 [[0, 1]] : tensor<28x28xf32> into tensor<784xf32>
  %3 = tensor.empty() : tensor<10xf32>
  %4 = linalg.fill ins(%cst_0 : f32) outs(%3 : tensor<10xf32>) -> tensor<10xf32>
  %5 = linalg.vecmat ins(%collapsed, %1 : tensor<784xf32>, tensor<784x10xf32>) outs(%4 : tensor<10xf32>) -> tensor<10xf32>
  %expanded = tensor.expand_shape %5 [[0, 1]] output_shape [1, 10] : tensor<10xf32> into tensor<1x10xf32>
  %6 = tensor.empty() : tensor<1x10xf32>
  %7 = linalg.generic {indexing_maps = [affine_map<(d0, d1) -> (d0, d1)>, affine_map<(d0, d1) -> (d0, d1)>, affine_map<(d0, d1) -> (d0, d1)>], iterator_types = ["parallel", "parallel"]} ins(%expanded, %2 : tensor<1x10xf32>, tensor<1x10xf32>) outs(%6 : tensor<1x10xf32>) {
  ^bb0(%in: f32, %in_1: f32, %out: f32):
    %11 = arith.addf %in, %in_1 : f32
    linalg.yield %11 : f32
  } -> tensor<1x10xf32>
  %8 = tensor.empty() : tensor<1x10xf32>
  %9 = linalg.generic {indexing_maps = [affine_map<(d0, d1) -> (d0, d1)>, affine_map<(d0, d1) -> (d0, d1)>, affine_map<(d0, d1) -> (d0, d1)>], iterator_types = ["parallel", "parallel"]} ins(%7, %cst : tensor<1x10xf32>, tensor<1x10xf32>) outs(%8 : tensor<1x10xf32>) {
  ^bb0(%in: f32, %in_1: f32, %out: f32):
    %11 = arith.maximumf %in, %in_1 : f32
    linalg.yield %11 : f32
  } -> tensor<1x10xf32>
  %10 = hal.tensor.export %9 "output0" : tensor<1x10xf32> -> !hal.buffer_view
  util.return %10 : !hal.buffer_view
}

// -----// IR Dump After Inliner (inline) //----- //
#map = affine_map<(d0, d1) -> (d0, d1)>
module {
  util.func public @main(%arg0: !hal.buffer_view, %arg1: !hal.buffer_view, %arg2: !hal.buffer_view) -> !hal.buffer_view attributes {iree.abi.stub, iree.reflection = {iree.abi.declaration = "sync func @main(%input0: tensor<28x28xf32>, %input1: tensor<784x10xf32>, %input2: tensor<1x10xf32>) -> (%output0: tensor<1x10xf32>)"}} {
    %cst = arith.constant dense<0.000000e+00> : tensor<1x10xf32>
    %cst_0 = arith.constant 0.000000e+00 : f32
    %0 = hal.tensor.import %arg0 "input0" : !hal.buffer_view -> tensor<28x28xf32>
    %1 = hal.tensor.import %arg1 "input1" : !hal.buffer_view -> tensor<784x10xf32>
    %2 = hal.tensor.import %arg2 "input2" : !hal.buffer_view -> tensor<1x10xf32>
    %collapsed = tensor.collapse_shape %0 [[0, 1]] : tensor<28x28xf32> into tensor<784xf32>
    %3 = tensor.empty() : tensor<10xf32>
    %4 = linalg.fill ins(%cst_0 : f32) outs(%3 : tensor<10xf32>) -> tensor<10xf32>
    %5 = linalg.vecmat ins(%collapsed, %1 : tensor<784xf32>, tensor<784x10xf32>) outs(%4 : tensor<10xf32>) -> tensor<10xf32>
    %expanded = tensor.expand_shape %5 [[0, 1]] output_shape [1, 10] : tensor<10xf32> into tensor<1x10xf32>
    %6 = tensor.empty() : tensor<1x10xf32>
    %7 = linalg.generic {indexing_maps = [#map, #map, #map], iterator_types = ["parallel", "parallel"]} ins(%expanded, %2 : tensor<1x10xf32>, tensor<1x10xf32>) outs(%6 : tensor<1x10xf32>) {
    ^bb0(%in: f32, %in_1: f32, %out: f32):
      %11 = arith.addf %in, %in_1 : f32
      linalg.yield %11 : f32
    } -> tensor<1x10xf32>
    %8 = tensor.empty() : tensor<1x10xf32>
    %9 = linalg.generic {indexing_maps = [#map, #map, #map], iterator_types = ["parallel", "parallel"]} ins(%7, %cst : tensor<1x10xf32>, tensor<1x10xf32>) outs(%8 : tensor<1x10xf32>) {
    ^bb0(%in: f32, %in_1: f32, %out: f32):
      %11 = arith.maximumf %in, %in_1 : f32
      linalg.yield %11 : f32
    } -> tensor<1x10xf32>
    %10 = hal.tensor.export %9 "output0" : tensor<1x10xf32> -> !hal.buffer_view
    util.return %10 : !hal.buffer_view
  }
}


// -----// IR Dump After Canonicalizer (canonicalize) //----- //
util.func public @main(%arg0: !hal.buffer_view, %arg1: !hal.buffer_view, %arg2: !hal.buffer_view) -> !hal.buffer_view attributes {iree.abi.stub, iree.reflection = {iree.abi.declaration = "sync func @main(%input0: tensor<28x28xf32>, %input1: tensor<784x10xf32>, %input2: tensor<1x10xf32>) -> (%output0: tensor<1x10xf32>)"}} {
  %cst = arith.constant dense<0.000000e+00> : tensor<1x10xf32>
  %cst_0 = arith.constant 0.000000e+00 : f32
  %0 = hal.tensor.import %arg0 "input0" : !hal.buffer_view -> tensor<28x28xf32>
  %1 = hal.tensor.import %arg1 "input1" : !hal.buffer_view -> tensor<784x10xf32>
  %2 = hal.tensor.import %arg2 "input2" : !hal.buffer_view -> tensor<1x10xf32>
  %collapsed = tensor.collapse_shape %0 [[0, 1]] : tensor<28x28xf32> into tensor<784xf32>
  %3 = tensor.empty() : tensor<10xf32>
  %4 = linalg.fill ins(%cst_0 : f32) outs(%3 : tensor<10xf32>) -> tensor<10xf32>
  %5 = linalg.vecmat ins(%collapsed, %1 : tensor<784xf32>, tensor<784x10xf32>) outs(%4 : tensor<10xf32>) -> tensor<10xf32>
  %expanded = tensor.expand_shape %5 [[0, 1]] output_shape [1, 10] : tensor<10xf32> into tensor<1x10xf32>
  %6 = tensor.empty() : tensor<1x10xf32>
  %7 = linalg.generic {indexing_maps = [affine_map<(d0, d1) -> (d0, d1)>, affine_map<(d0, d1) -> (d0, d1)>, affine_map<(d0, d1) -> (d0, d1)>], iterator_types = ["parallel", "parallel"]} ins(%expanded, %2 : tensor<1x10xf32>, tensor<1x10xf32>) outs(%6 : tensor<1x10xf32>) {
  ^bb0(%in: f32, %in_1: f32, %out: f32):
    %11 = arith.addf %in, %in_1 : f32
    linalg.yield %11 : f32
  } -> tensor<1x10xf32>
  %8 = tensor.empty() : tensor<1x10xf32>
  %9 = linalg.generic {indexing_maps = [affine_map<(d0, d1) -> (d0, d1)>, affine_map<(d0, d1) -> (d0, d1)>, affine_map<(d0, d1) -> (d0, d1)>], iterator_types = ["parallel", "parallel"]} ins(%7, %cst : tensor<1x10xf32>, tensor<1x10xf32>) outs(%8 : tensor<1x10xf32>) {
  ^bb0(%in: f32, %in_1: f32, %out: f32):
    %11 = arith.maximumf %in, %in_1 : f32
    linalg.yield %11 : f32
  } -> tensor<1x10xf32>
  %10 = hal.tensor.export %9 "output0" : tensor<1x10xf32> -> !hal.buffer_view
  util.return %10 : !hal.buffer_view
}

// -----// IR Dump After CSE (cse) //----- //
util.func public @main(%arg0: !hal.buffer_view, %arg1: !hal.buffer_view, %arg2: !hal.buffer_view) -> !hal.buffer_view attributes {iree.abi.stub, iree.reflection = {iree.abi.declaration = "sync func @main(%input0: tensor<28x28xf32>, %input1: tensor<784x10xf32>, %input2: tensor<1x10xf32>) -> (%output0: tensor<1x10xf32>)"}} {
  %cst = arith.constant dense<0.000000e+00> : tensor<1x10xf32>
  %cst_0 = arith.constant 0.000000e+00 : f32
  %0 = hal.tensor.import %arg0 "input0" : !hal.buffer_view -> tensor<28x28xf32>
  %1 = hal.tensor.import %arg1 "input1" : !hal.buffer_view -> tensor<784x10xf32>
  %2 = hal.tensor.import %arg2 "input2" : !hal.buffer_view -> tensor<1x10xf32>
  %collapsed = tensor.collapse_shape %0 [[0, 1]] : tensor<28x28xf32> into tensor<784xf32>
  %3 = tensor.empty() : tensor<10xf32>
  %4 = linalg.fill ins(%cst_0 : f32) outs(%3 : tensor<10xf32>) -> tensor<10xf32>
  %5 = linalg.vecmat ins(%collapsed, %1 : tensor<784xf32>, tensor<784x10xf32>) outs(%4 : tensor<10xf32>) -> tensor<10xf32>
  %expanded = tensor.expand_shape %5 [[0, 1]] output_shape [1, 10] : tensor<10xf32> into tensor<1x10xf32>
  %6 = tensor.empty() : tensor<1x10xf32>
  %7 = linalg.generic {indexing_maps = [affine_map<(d0, d1) -> (d0, d1)>, affine_map<(d0, d1) -> (d0, d1)>, affine_map<(d0, d1) -> (d0, d1)>], iterator_types = ["parallel", "parallel"]} ins(%expanded, %2 : tensor<1x10xf32>, tensor<1x10xf32>) outs(%6 : tensor<1x10xf32>) {
  ^bb0(%in: f32, %in_1: f32, %out: f32):
    %10 = arith.addf %in, %in_1 : f32
    linalg.yield %10 : f32
  } -> tensor<1x10xf32>
  %8 = linalg.generic {indexing_maps = [affine_map<(d0, d1) -> (d0, d1)>, affine_map<(d0, d1) -> (d0, d1)>, affine_map<(d0, d1) -> (d0, d1)>], iterator_types = ["parallel", "parallel"]} ins(%7, %cst : tensor<1x10xf32>, tensor<1x10xf32>) outs(%6 : tensor<1x10xf32>) {
  ^bb0(%in: f32, %in_1: f32, %out: f32):
    %10 = arith.maximumf %in, %in_1 : f32
    linalg.yield %10 : f32
  } -> tensor<1x10xf32>
  %9 = hal.tensor.export %8 "output0" : tensor<1x10xf32> -> !hal.buffer_view
  util.return %9 : !hal.buffer_view
}

// -----// IR Dump After SymbolDCE (symbol-dce) //----- //
#map = affine_map<(d0, d1) -> (d0, d1)>
module {
  util.func public @main(%arg0: !hal.buffer_view, %arg1: !hal.buffer_view, %arg2: !hal.buffer_view) -> !hal.buffer_view attributes {iree.abi.stub, iree.reflection = {iree.abi.declaration = "sync func @main(%input0: tensor<28x28xf32>, %input1: tensor<784x10xf32>, %input2: tensor<1x10xf32>) -> (%output0: tensor<1x10xf32>)"}} {
    %cst = arith.constant dense<0.000000e+00> : tensor<1x10xf32>
    %cst_0 = arith.constant 0.000000e+00 : f32
    %0 = hal.tensor.import %arg0 "input0" : !hal.buffer_view -> tensor<28x28xf32>
    %1 = hal.tensor.import %arg1 "input1" : !hal.buffer_view -> tensor<784x10xf32>
    %2 = hal.tensor.import %arg2 "input2" : !hal.buffer_view -> tensor<1x10xf32>
    %collapsed = tensor.collapse_shape %0 [[0, 1]] : tensor<28x28xf32> into tensor<784xf32>
    %3 = tensor.empty() : tensor<10xf32>
    %4 = linalg.fill ins(%cst_0 : f32) outs(%3 : tensor<10xf32>) -> tensor<10xf32>
    %5 = linalg.vecmat ins(%collapsed, %1 : tensor<784xf32>, tensor<784x10xf32>) outs(%4 : tensor<10xf32>) -> tensor<10xf32>
    %expanded = tensor.expand_shape %5 [[0, 1]] output_shape [1, 10] : tensor<10xf32> into tensor<1x10xf32>
    %6 = tensor.empty() : tensor<1x10xf32>
    %7 = linalg.generic {indexing_maps = [#map, #map, #map], iterator_types = ["parallel", "parallel"]} ins(%expanded, %2 : tensor<1x10xf32>, tensor<1x10xf32>) outs(%6 : tensor<1x10xf32>) {
    ^bb0(%in: f32, %in_1: f32, %out: f32):
      %10 = arith.addf %in, %in_1 : f32
      linalg.yield %10 : f32
    } -> tensor<1x10xf32>
    %8 = linalg.generic {indexing_maps = [#map, #map, #map], iterator_types = ["parallel", "parallel"]} ins(%7, %cst : tensor<1x10xf32>, tensor<1x10xf32>) outs(%6 : tensor<1x10xf32>) {
    ^bb0(%in: f32, %in_1: f32, %out: f32):
      %10 = arith.maximumf %in, %in_1 : f32
      linalg.yield %10 : f32
    } -> tensor<1x10xf32>
    %9 = hal.tensor.export %8 "output0" : tensor<1x10xf32> -> !hal.buffer_view
    util.return %9 : !hal.buffer_view
  }
}


// -----// IR Dump After AssignLegacyTargetDevicesPass (iree-hal-assign-legacy-target-devices) //----- //
#executable_target_cuda_nvptx_fb = #hal.executable.target<"cuda", "cuda-nvptx-fb", {iree.gpu.target = #iree_gpu.target<arch = "sm_86", features = "+ptx76", wgp = <compute =  fp64|fp32|fp16|int64|int32|int16|int8, storage =  b64|b32|b16|b8, subgroup =  shuffle|arithmetic, dot =  dp4xi8toi32, mma = [<WMMA_F32_16x16x16_F16>, <WMMA_F16_16x16x16_F16>], subgroup_size_choices = [32], max_workgroup_sizes = [1024, 1024, 1024], max_thread_count_per_workgroup = 1024, max_workgroup_memory_bytes = 166912, max_workgroup_counts = [2147483647, 65535, 65535]>>}>
#map = affine_map<(d0, d1) -> (d0, d1)>
#device_target_cuda = #hal.device.target<"cuda", [#executable_target_cuda_nvptx_fb]> : !hal.device
module attributes {hal.device.targets = [#device_target_cuda]} {
  util.func public @main(%arg0: !hal.buffer_view, %arg1: !hal.buffer_view, %arg2: !hal.buffer_view) -> !hal.buffer_view attributes {iree.abi.stub, iree.reflection = {iree.abi.declaration = "sync func @main(%input0: tensor<28x28xf32>, %input1: tensor<784x10xf32>, %input2: tensor<1x10xf32>) -> (%output0: tensor<1x10xf32>)"}} {
    %cst = arith.constant dense<0.000000e+00> : tensor<1x10xf32>
    %cst_0 = arith.constant 0.000000e+00 : f32
    %0 = hal.tensor.import %arg0 "input0" : !hal.buffer_view -> tensor<28x28xf32>
    %1 = hal.tensor.import %arg1 "input1" : !hal.buffer_view -> tensor<784x10xf32>
    %2 = hal.tensor.import %arg2 "input2" : !hal.buffer_view -> tensor<1x10xf32>
    %collapsed = tensor.collapse_shape %0 [[0, 1]] : tensor<28x28xf32> into tensor<784xf32>
    %3 = tensor.empty() : tensor<10xf32>
    %4 = linalg.fill ins(%cst_0 : f32) outs(%3 : tensor<10xf32>) -> tensor<10xf32>
    %5 = linalg.vecmat ins(%collapsed, %1 : tensor<784xf32>, tensor<784x10xf32>) outs(%4 : tensor<10xf32>) -> tensor<10xf32>
    %expanded = tensor.expand_shape %5 [[0, 1]] output_shape [1, 10] : tensor<10xf32> into tensor<1x10xf32>
    %6 = tensor.empty() : tensor<1x10xf32>
    %7 = linalg.generic {indexing_maps = [#map, #map, #map], iterator_types = ["parallel", "parallel"]} ins(%expanded, %2 : tensor<1x10xf32>, tensor<1x10xf32>) outs(%6 : tensor<1x10xf32>) {
    ^bb0(%in: f32, %in_1: f32, %out: f32):
      %10 = arith.addf %in, %in_1 : f32
      linalg.yield %10 : f32
    } -> tensor<1x10xf32>
    %8 = linalg.generic {indexing_maps = [#map, #map, #map], iterator_types = ["parallel", "parallel"]} ins(%7, %cst : tensor<1x10xf32>, tensor<1x10xf32>) outs(%6 : tensor<1x10xf32>) {
    ^bb0(%in: f32, %in_1: f32, %out: f32):
      %10 = arith.maximumf %in, %in_1 : f32
      linalg.yield %10 : f32
    } -> tensor<1x10xf32>
    %9 = hal.tensor.export %8 "output0" : tensor<1x10xf32> -> !hal.buffer_view
    util.return %9 : !hal.buffer_view
  }
}


// -----// IR Dump After MaterializeTargetDevicesPass (iree-hal-materialize-target-devices) //----- //
#executable_target_cuda_nvptx_fb = #hal.executable.target<"cuda", "cuda-nvptx-fb", {iree.gpu.target = #iree_gpu.target<arch = "sm_86", features = "+ptx76", wgp = <compute =  fp64|fp32|fp16|int64|int32|int16|int8, storage =  b64|b32|b16|b8, subgroup =  shuffle|arithmetic, dot =  dp4xi8toi32, mma = [<WMMA_F32_16x16x16_F16>, <WMMA_F16_16x16x16_F16>], subgroup_size_choices = [32], max_workgroup_sizes = [1024, 1024, 1024], max_thread_count_per_workgroup = 1024, max_workgroup_memory_bytes = 166912, max_workgroup_counts = [2147483647, 65535, 65535]>>}>
#map = affine_map<(d0, d1) -> (d0, d1)>
#device_target_cuda = #hal.device.target<"cuda", [#executable_target_cuda_nvptx_fb]> : !hal.device
module attributes {stream.affinity.default = #hal.device.affinity<@__device_0>} {
  util.global private @__device_0 = #device_target_cuda
  util.func public @main(%arg0: !hal.buffer_view, %arg1: !hal.buffer_view, %arg2: !hal.buffer_view) -> !hal.buffer_view attributes {iree.abi.stub, iree.reflection = {iree.abi.declaration = "sync func @main(%input0: tensor<28x28xf32>, %input1: tensor<784x10xf32>, %input2: tensor<1x10xf32>) -> (%output0: tensor<1x10xf32>)"}} {
    %cst = arith.constant dense<0.000000e+00> : tensor<1x10xf32>
    %cst_0 = arith.constant 0.000000e+00 : f32
    %0 = hal.tensor.import %arg0 "input0" : !hal.buffer_view -> tensor<28x28xf32>
    %1 = hal.tensor.import %arg1 "input1" : !hal.buffer_view -> tensor<784x10xf32>
    %2 = hal.tensor.import %arg2 "input2" : !hal.buffer_view -> tensor<1x10xf32>
    %collapsed = tensor.collapse_shape %0 [[0, 1]] : tensor<28x28xf32> into tensor<784xf32>
    %3 = tensor.empty() : tensor<10xf32>
    %4 = linalg.fill ins(%cst_0 : f32) outs(%3 : tensor<10xf32>) -> tensor<10xf32>
    %5 = linalg.vecmat ins(%collapsed, %1 : tensor<784xf32>, tensor<784x10xf32>) outs(%4 : tensor<10xf32>) -> tensor<10xf32>
    %expanded = tensor.expand_shape %5 [[0, 1]] output_shape [1, 10] : tensor<10xf32> into tensor<1x10xf32>
    %6 = tensor.empty() : tensor<1x10xf32>
    %7 = linalg.generic {indexing_maps = [#map, #map, #map], iterator_types = ["parallel", "parallel"]} ins(%expanded, %2 : tensor<1x10xf32>, tensor<1x10xf32>) outs(%6 : tensor<1x10xf32>) {
    ^bb0(%in: f32, %in_1: f32, %out: f32):
      %10 = arith.addf %in, %in_1 : f32
      linalg.yield %10 : f32
    } -> tensor<1x10xf32>
    %8 = linalg.generic {indexing_maps = [#map, #map, #map], iterator_types = ["parallel", "parallel"]} ins(%7, %cst : tensor<1x10xf32>, tensor<1x10xf32>) outs(%6 : tensor<1x10xf32>) {
    ^bb0(%in: f32, %in_1: f32, %out: f32):
      %10 = arith.maximumf %in, %in_1 : f32
      linalg.yield %10 : f32
    } -> tensor<1x10xf32>
    %9 = hal.tensor.export %8 "output0" : tensor<1x10xf32> -> !hal.buffer_view
    util.return %9 : !hal.buffer_view
  }
}


// -----// IR Dump After ResolveDevicePromisesPass (iree-hal-resolve-device-promises) //----- //
#executable_target_cuda_nvptx_fb = #hal.executable.target<"cuda", "cuda-nvptx-fb", {iree.gpu.target = #iree_gpu.target<arch = "sm_86", features = "+ptx76", wgp = <compute =  fp64|fp32|fp16|int64|int32|int16|int8, storage =  b64|b32|b16|b8, subgroup =  shuffle|arithmetic, dot =  dp4xi8toi32, mma = [<WMMA_F32_16x16x16_F16>, <WMMA_F16_16x16x16_F16>], subgroup_size_choices = [32], max_workgroup_sizes = [1024, 1024, 1024], max_thread_count_per_workgroup = 1024, max_workgroup_memory_bytes = 166912, max_workgroup_counts = [2147483647, 65535, 65535]>>}>
#map = affine_map<(d0, d1) -> (d0, d1)>
#device_target_cuda = #hal.device.target<"cuda", [#executable_target_cuda_nvptx_fb]> : !hal.device
module attributes {stream.affinity.default = #hal.device.affinity<@__device_0>} {
  util.global private @__device_0 = #device_target_cuda
  util.func public @main(%arg0: !hal.buffer_view, %arg1: !hal.buffer_view, %arg2: !hal.buffer_view) -> !hal.buffer_view attributes {iree.abi.stub, iree.reflection = {iree.abi.declaration = "sync func @main(%input0: tensor<28x28xf32>, %input1: tensor<784x10xf32>, %input2: tensor<1x10xf32>) -> (%output0: tensor<1x10xf32>)"}} {
    %cst = arith.constant dense<0.000000e+00> : tensor<1x10xf32>
    %cst_0 = arith.constant 0.000000e+00 : f32
    %0 = hal.tensor.import %arg0 "input0" : !hal.buffer_view -> tensor<28x28xf32>
    %1 = hal.tensor.import %arg1 "input1" : !hal.buffer_view -> tensor<784x10xf32>
    %2 = hal.tensor.import %arg2 "input2" : !hal.buffer_view -> tensor<1x10xf32>
    %collapsed = tensor.collapse_shape %0 [[0, 1]] : tensor<28x28xf32> into tensor<784xf32>
    %3 = tensor.empty() : tensor<10xf32>
    %4 = linalg.fill ins(%cst_0 : f32) outs(%3 : tensor<10xf32>) -> tensor<10xf32>
    %5 = linalg.vecmat ins(%collapsed, %1 : tensor<784xf32>, tensor<784x10xf32>) outs(%4 : tensor<10xf32>) -> tensor<10xf32>
    %expanded = tensor.expand_shape %5 [[0, 1]] output_shape [1, 10] : tensor<10xf32> into tensor<1x10xf32>
    %6 = tensor.empty() : tensor<1x10xf32>
    %7 = linalg.generic {indexing_maps = [#map, #map, #map], iterator_types = ["parallel", "parallel"]} ins(%expanded, %2 : tensor<1x10xf32>, tensor<1x10xf32>) outs(%6 : tensor<1x10xf32>) {
    ^bb0(%in: f32, %in_1: f32, %out: f32):
      %10 = arith.addf %in, %in_1 : f32
      linalg.yield %10 : f32
    } -> tensor<1x10xf32>
    %8 = linalg.generic {indexing_maps = [#map, #map, #map], iterator_types = ["parallel", "parallel"]} ins(%7, %cst : tensor<1x10xf32>, tensor<1x10xf32>) outs(%6 : tensor<1x10xf32>) {
    ^bb0(%in: f32, %in_1: f32, %out: f32):
      %10 = arith.maximumf %in, %in_1 : f32
      linalg.yield %10 : f32
    } -> tensor<1x10xf32>
    %9 = hal.tensor.export %8 "output0" : tensor<1x10xf32> -> !hal.buffer_view
    util.return %9 : !hal.buffer_view
  }
}


// -----// IR Dump After ResolveDeviceAliasesPass (iree-hal-resolve-device-aliases) //----- //
#executable_target_cuda_nvptx_fb = #hal.executable.target<"cuda", "cuda-nvptx-fb", {iree.gpu.target = #iree_gpu.target<arch = "sm_86", features = "+ptx76", wgp = <compute =  fp64|fp32|fp16|int64|int32|int16|int8, storage =  b64|b32|b16|b8, subgroup =  shuffle|arithmetic, dot =  dp4xi8toi32, mma = [<WMMA_F32_16x16x16_F16>, <WMMA_F16_16x16x16_F16>], subgroup_size_choices = [32], max_workgroup_sizes = [1024, 1024, 1024], max_thread_count_per_workgroup = 1024, max_workgroup_memory_bytes = 166912, max_workgroup_counts = [2147483647, 65535, 65535]>>}>
#map = affine_map<(d0, d1) -> (d0, d1)>
#device_target_cuda = #hal.device.target<"cuda", [#executable_target_cuda_nvptx_fb]> : !hal.device
module attributes {stream.affinity.default = #hal.device.affinity<@__device_0>} {
  util.global private @__device_0 = #device_target_cuda
  util.func public @main(%arg0: !hal.buffer_view, %arg1: !hal.buffer_view, %arg2: !hal.buffer_view) -> !hal.buffer_view attributes {iree.abi.stub, iree.reflection = {iree.abi.declaration = "sync func @main(%input0: tensor<28x28xf32>, %input1: tensor<784x10xf32>, %input2: tensor<1x10xf32>) -> (%output0: tensor<1x10xf32>)"}} {
    %cst = arith.constant dense<0.000000e+00> : tensor<1x10xf32>
    %cst_0 = arith.constant 0.000000e+00 : f32
    %0 = hal.tensor.import %arg0 "input0" : !hal.buffer_view -> tensor<28x28xf32>
    %1 = hal.tensor.import %arg1 "input1" : !hal.buffer_view -> tensor<784x10xf32>
    %2 = hal.tensor.import %arg2 "input2" : !hal.buffer_view -> tensor<1x10xf32>
    %collapsed = tensor.collapse_shape %0 [[0, 1]] : tensor<28x28xf32> into tensor<784xf32>
    %3 = tensor.empty() : tensor<10xf32>
    %4 = linalg.fill ins(%cst_0 : f32) outs(%3 : tensor<10xf32>) -> tensor<10xf32>
    %5 = linalg.vecmat ins(%collapsed, %1 : tensor<784xf32>, tensor<784x10xf32>) outs(%4 : tensor<10xf32>) -> tensor<10xf32>
    %expanded = tensor.expand_shape %5 [[0, 1]] output_shape [1, 10] : tensor<10xf32> into tensor<1x10xf32>
    %6 = tensor.empty() : tensor<1x10xf32>
    %7 = linalg.generic {indexing_maps = [#map, #map, #map], iterator_types = ["parallel", "parallel"]} ins(%expanded, %2 : tensor<1x10xf32>, tensor<1x10xf32>) outs(%6 : tensor<1x10xf32>) {
    ^bb0(%in: f32, %in_1: f32, %out: f32):
      %10 = arith.addf %in, %in_1 : f32
      linalg.yield %10 : f32
    } -> tensor<1x10xf32>
    %8 = linalg.generic {indexing_maps = [#map, #map, #map], iterator_types = ["parallel", "parallel"]} ins(%7, %cst : tensor<1x10xf32>, tensor<1x10xf32>) outs(%6 : tensor<1x10xf32>) {
    ^bb0(%in: f32, %in_1: f32, %out: f32):
      %10 = arith.maximumf %in, %in_1 : f32
      linalg.yield %10 : f32
    } -> tensor<1x10xf32>
    %9 = hal.tensor.export %8 "output0" : tensor<1x10xf32> -> !hal.buffer_view
    util.return %9 : !hal.buffer_view
  }
}


// -----// IR Dump After VerifyDevicesPass (iree-hal-verify-devices) //----- //
#executable_target_cuda_nvptx_fb = #hal.executable.target<"cuda", "cuda-nvptx-fb", {iree.gpu.target = #iree_gpu.target<arch = "sm_86", features = "+ptx76", wgp = <compute =  fp64|fp32|fp16|int64|int32|int16|int8, storage =  b64|b32|b16|b8, subgroup =  shuffle|arithmetic, dot =  dp4xi8toi32, mma = [<WMMA_F32_16x16x16_F16>, <WMMA_F16_16x16x16_F16>], subgroup_size_choices = [32], max_workgroup_sizes = [1024, 1024, 1024], max_thread_count_per_workgroup = 1024, max_workgroup_memory_bytes = 166912, max_workgroup_counts = [2147483647, 65535, 65535]>>}>
#map = affine_map<(d0, d1) -> (d0, d1)>
#device_target_cuda = #hal.device.target<"cuda", [#executable_target_cuda_nvptx_fb]> : !hal.device
module attributes {stream.affinity.default = #hal.device.affinity<@__device_0>} {
  util.global private @__device_0 = #device_target_cuda
  util.func public @main(%arg0: !hal.buffer_view, %arg1: !hal.buffer_view, %arg2: !hal.buffer_view) -> !hal.buffer_view attributes {iree.abi.stub, iree.reflection = {iree.abi.declaration = "sync func @main(%input0: tensor<28x28xf32>, %input1: tensor<784x10xf32>, %input2: tensor<1x10xf32>) -> (%output0: tensor<1x10xf32>)"}} {
    %cst = arith.constant dense<0.000000e+00> : tensor<1x10xf32>
    %cst_0 = arith.constant 0.000000e+00 : f32
    %0 = hal.tensor.import %arg0 "input0" : !hal.buffer_view -> tensor<28x28xf32>
    %1 = hal.tensor.import %arg1 "input1" : !hal.buffer_view -> tensor<784x10xf32>
    %2 = hal.tensor.import %arg2 "input2" : !hal.buffer_view -> tensor<1x10xf32>
    %collapsed = tensor.collapse_shape %0 [[0, 1]] : tensor<28x28xf32> into tensor<784xf32>
    %3 = tensor.empty() : tensor<10xf32>
    %4 = linalg.fill ins(%cst_0 : f32) outs(%3 : tensor<10xf32>) -> tensor<10xf32>
    %5 = linalg.vecmat ins(%collapsed, %1 : tensor<784xf32>, tensor<784x10xf32>) outs(%4 : tensor<10xf32>) -> tensor<10xf32>
    %expanded = tensor.expand_shape %5 [[0, 1]] output_shape [1, 10] : tensor<10xf32> into tensor<1x10xf32>
    %6 = tensor.empty() : tensor<1x10xf32>
    %7 = linalg.generic {indexing_maps = [#map, #map, #map], iterator_types = ["parallel", "parallel"]} ins(%expanded, %2 : tensor<1x10xf32>, tensor<1x10xf32>) outs(%6 : tensor<1x10xf32>) {
    ^bb0(%in: f32, %in_1: f32, %out: f32):
      %10 = arith.addf %in, %in_1 : f32
      linalg.yield %10 : f32
    } -> tensor<1x10xf32>
    %8 = linalg.generic {indexing_maps = [#map, #map, #map], iterator_types = ["parallel", "parallel"]} ins(%7, %cst : tensor<1x10xf32>, tensor<1x10xf32>) outs(%6 : tensor<1x10xf32>) {
    ^bb0(%in: f32, %in_1: f32, %out: f32):
      %10 = arith.maximumf %in, %in_1 : f32
      linalg.yield %10 : f32
    } -> tensor<1x10xf32>
    %9 = hal.tensor.export %8 "output0" : tensor<1x10xf32> -> !hal.buffer_view
    util.return %9 : !hal.buffer_view
  }
}


// -----// IR Dump After OptimizeIntArithmetic (iree-util-optimize-int-arithmetic) //----- //
util.func public @main(%arg0: !hal.buffer_view, %arg1: !hal.buffer_view, %arg2: !hal.buffer_view) -> !hal.buffer_view attributes {iree.abi.stub, iree.reflection = {iree.abi.declaration = "sync func @main(%input0: tensor<28x28xf32>, %input1: tensor<784x10xf32>, %input2: tensor<1x10xf32>) -> (%output0: tensor<1x10xf32>)"}} {
  %cst = arith.constant dense<0.000000e+00> : tensor<1x10xf32>
  %cst_0 = arith.constant 0.000000e+00 : f32
  %0 = hal.tensor.import %arg0 "input0" : !hal.buffer_view -> tensor<28x28xf32>
  %1 = hal.tensor.import %arg1 "input1" : !hal.buffer_view -> tensor<784x10xf32>
  %2 = hal.tensor.import %arg2 "input2" : !hal.buffer_view -> tensor<1x10xf32>
  %collapsed = tensor.collapse_shape %0 [[0, 1]] : tensor<28x28xf32> into tensor<784xf32>
  %3 = tensor.empty() : tensor<10xf32>
  %4 = linalg.fill ins(%cst_0 : f32) outs(%3 : tensor<10xf32>) -> tensor<10xf32>
  %5 = linalg.vecmat ins(%collapsed, %1 : tensor<784xf32>, tensor<784x10xf32>) outs(%4 : tensor<10xf32>) -> tensor<10xf32>
  %expanded = tensor.expand_shape %5 [[0, 1]] output_shape [1, 10] : tensor<10xf32> into tensor<1x10xf32>
  %6 = tensor.empty() : tensor<1x10xf32>
  %7 = linalg.generic {indexing_maps = [affine_map<(d0, d1) -> (d0, d1)>, affine_map<(d0, d1) -> (d0, d1)>, affine_map<(d0, d1) -> (d0, d1)>], iterator_types = ["parallel", "parallel"]} ins(%expanded, %2 : tensor<1x10xf32>, tensor<1x10xf32>) outs(%6 : tensor<1x10xf32>) {
  ^bb0(%in: f32, %in_1: f32, %out: f32):
    %10 = arith.addf %in, %in_1 : f32
    linalg.yield %10 : f32
  } -> tensor<1x10xf32>
  %8 = linalg.generic {indexing_maps = [affine_map<(d0, d1) -> (d0, d1)>, affine_map<(d0, d1) -> (d0, d1)>, affine_map<(d0, d1) -> (d0, d1)>], iterator_types = ["parallel", "parallel"]} ins(%7, %cst : tensor<1x10xf32>, tensor<1x10xf32>) outs(%6 : tensor<1x10xf32>) {
  ^bb0(%in: f32, %in_1: f32, %out: f32):
    %10 = arith.maximumf %in, %in_1 : f32
    linalg.yield %10 : f32
  } -> tensor<1x10xf32>
  %9 = hal.tensor.export %8 "output0" : tensor<1x10xf32> -> !hal.buffer_view
  util.return %9 : !hal.buffer_view
}

// -----// IR Dump After LinalgQuantizedConvToConvPass (iree-global-opt-quantized-conv-to-conv) //----- //
util.func public @main(%arg0: !hal.buffer_view, %arg1: !hal.buffer_view, %arg2: !hal.buffer_view) -> !hal.buffer_view attributes {iree.abi.stub, iree.reflection = {iree.abi.declaration = "sync func @main(%input0: tensor<28x28xf32>, %input1: tensor<784x10xf32>, %input2: tensor<1x10xf32>) -> (%output0: tensor<1x10xf32>)"}} {
  %cst = arith.constant dense<0.000000e+00> : tensor<1x10xf32>
  %cst_0 = arith.constant 0.000000e+00 : f32
  %0 = hal.tensor.import %arg0 "input0" : !hal.buffer_view -> tensor<28x28xf32>
  %1 = hal.tensor.import %arg1 "input1" : !hal.buffer_view -> tensor<784x10xf32>
  %2 = hal.tensor.import %arg2 "input2" : !hal.buffer_view -> tensor<1x10xf32>
  %collapsed = tensor.collapse_shape %0 [[0, 1]] : tensor<28x28xf32> into tensor<784xf32>
  %3 = tensor.empty() : tensor<10xf32>
  %4 = linalg.fill ins(%cst_0 : f32) outs(%3 : tensor<10xf32>) -> tensor<10xf32>
  %5 = linalg.vecmat ins(%collapsed, %1 : tensor<784xf32>, tensor<784x10xf32>) outs(%4 : tensor<10xf32>) -> tensor<10xf32>
  %expanded = tensor.expand_shape %5 [[0, 1]] output_shape [1, 10] : tensor<10xf32> into tensor<1x10xf32>
  %6 = tensor.empty() : tensor<1x10xf32>
  %7 = linalg.generic {indexing_maps = [affine_map<(d0, d1) -> (d0, d1)>, affine_map<(d0, d1) -> (d0, d1)>, affine_map<(d0, d1) -> (d0, d1)>], iterator_types = ["parallel", "parallel"]} ins(%expanded, %2 : tensor<1x10xf32>, tensor<1x10xf32>) outs(%6 : tensor<1x10xf32>) {
  ^bb0(%in: f32, %in_1: f32, %out: f32):
    %10 = arith.addf %in, %in_1 : f32
    linalg.yield %10 : f32
  } -> tensor<1x10xf32>
  %8 = linalg.generic {indexing_maps = [affine_map<(d0, d1) -> (d0, d1)>, affine_map<(d0, d1) -> (d0, d1)>, affine_map<(d0, d1) -> (d0, d1)>], iterator_types = ["parallel", "parallel"]} ins(%7, %cst : tensor<1x10xf32>, tensor<1x10xf32>) outs(%6 : tensor<1x10xf32>) {
  ^bb0(%in: f32, %in_1: f32, %out: f32):
    %10 = arith.maximumf %in, %in_1 : f32
    linalg.yield %10 : f32
  } -> tensor<1x10xf32>
  %9 = hal.tensor.export %8 "output0" : tensor<1x10xf32> -> !hal.buffer_view
  util.return %9 : !hal.buffer_view
}

// -----// IR Dump After LinalgQuantizedMatmulToMatmulPass (iree-global-opt-quantized-matmul-to-matmul) //----- //
util.func public @main(%arg0: !hal.buffer_view, %arg1: !hal.buffer_view, %arg2: !hal.buffer_view) -> !hal.buffer_view attributes {iree.abi.stub, iree.reflection = {iree.abi.declaration = "sync func @main(%input0: tensor<28x28xf32>, %input1: tensor<784x10xf32>, %input2: tensor<1x10xf32>) -> (%output0: tensor<1x10xf32>)"}} {
  %cst = arith.constant dense<0.000000e+00> : tensor<1x10xf32>
  %cst_0 = arith.constant 0.000000e+00 : f32
  %0 = hal.tensor.import %arg0 "input0" : !hal.buffer_view -> tensor<28x28xf32>
  %1 = hal.tensor.import %arg1 "input1" : !hal.buffer_view -> tensor<784x10xf32>
  %2 = hal.tensor.import %arg2 "input2" : !hal.buffer_view -> tensor<1x10xf32>
  %collapsed = tensor.collapse_shape %0 [[0, 1]] : tensor<28x28xf32> into tensor<784xf32>
  %3 = tensor.empty() : tensor<10xf32>
  %4 = linalg.fill ins(%cst_0 : f32) outs(%3 : tensor<10xf32>) -> tensor<10xf32>
  %5 = linalg.vecmat ins(%collapsed, %1 : tensor<784xf32>, tensor<784x10xf32>) outs(%4 : tensor<10xf32>) -> tensor<10xf32>
  %expanded = tensor.expand_shape %5 [[0, 1]] output_shape [1, 10] : tensor<10xf32> into tensor<1x10xf32>
  %6 = tensor.empty() : tensor<1x10xf32>
  %7 = linalg.generic {indexing_maps = [affine_map<(d0, d1) -> (d0, d1)>, affine_map<(d0, d1) -> (d0, d1)>, affine_map<(d0, d1) -> (d0, d1)>], iterator_types = ["parallel", "parallel"]} ins(%expanded, %2 : tensor<1x10xf32>, tensor<1x10xf32>) outs(%6 : tensor<1x10xf32>) {
  ^bb0(%in: f32, %in_1: f32, %out: f32):
    %10 = arith.addf %in, %in_1 : f32
    linalg.yield %10 : f32
  } -> tensor<1x10xf32>
  %8 = linalg.generic {indexing_maps = [affine_map<(d0, d1) -> (d0, d1)>, affine_map<(d0, d1) -> (d0, d1)>, affine_map<(d0, d1) -> (d0, d1)>], iterator_types = ["parallel", "parallel"]} ins(%7, %cst : tensor<1x10xf32>, tensor<1x10xf32>) outs(%6 : tensor<1x10xf32>) {
  ^bb0(%in: f32, %in_1: f32, %out: f32):
    %10 = arith.maximumf %in, %in_1 : f32
    linalg.yield %10 : f32
  } -> tensor<1x10xf32>
  %9 = hal.tensor.export %8 "output0" : tensor<1x10xf32> -> !hal.buffer_view
  util.return %9 : !hal.buffer_view
}

// -----// IR Dump After CanonicalizerPass (iree-flow-canonicalize) //----- //
util.func public @main(%arg0: !hal.buffer_view, %arg1: !hal.buffer_view, %arg2: !hal.buffer_view) -> !hal.buffer_view attributes {iree.abi.stub, iree.reflection = {iree.abi.declaration = "sync func @main(%input0: tensor<28x28xf32>, %input1: tensor<784x10xf32>, %input2: tensor<1x10xf32>) -> (%output0: tensor<1x10xf32>)"}} {
  %cst = arith.constant dense<0.000000e+00> : tensor<1x10xf32>
  %cst_0 = arith.constant 0.000000e+00 : f32
  %0 = hal.tensor.import %arg0 "input0" : !hal.buffer_view -> tensor<28x28xf32>
  %1 = hal.tensor.import %arg1 "input1" : !hal.buffer_view -> tensor<784x10xf32>
  %2 = hal.tensor.import %arg2 "input2" : !hal.buffer_view -> tensor<1x10xf32>
  %collapsed = tensor.collapse_shape %0 [[0, 1]] : tensor<28x28xf32> into tensor<784xf32>
  %3 = tensor.empty() : tensor<10xf32>
  %4 = linalg.fill ins(%cst_0 : f32) outs(%3 : tensor<10xf32>) -> tensor<10xf32>
  %5 = linalg.vecmat ins(%collapsed, %1 : tensor<784xf32>, tensor<784x10xf32>) outs(%4 : tensor<10xf32>) -> tensor<10xf32>
  %expanded = tensor.expand_shape %5 [[0, 1]] output_shape [1, 10] : tensor<10xf32> into tensor<1x10xf32>
  %6 = tensor.empty() : tensor<1x10xf32>
  %7 = linalg.generic {indexing_maps = [affine_map<(d0, d1) -> (d0, d1)>, affine_map<(d0, d1) -> (d0, d1)>, affine_map<(d0, d1) -> (d0, d1)>], iterator_types = ["parallel", "parallel"]} ins(%expanded, %2 : tensor<1x10xf32>, tensor<1x10xf32>) outs(%6 : tensor<1x10xf32>) {
  ^bb0(%in: f32, %in_1: f32, %out: f32):
    %10 = arith.addf %in, %in_1 : f32
    linalg.yield %10 : f32
  } -> tensor<1x10xf32>
  %8 = linalg.generic {indexing_maps = [affine_map<(d0, d1) -> (d0, d1)>, affine_map<(d0, d1) -> (d0, d1)>, affine_map<(d0, d1) -> (d0, d1)>], iterator_types = ["parallel", "parallel"]} ins(%7, %cst : tensor<1x10xf32>, tensor<1x10xf32>) outs(%6 : tensor<1x10xf32>) {
  ^bb0(%in: f32, %in_1: f32, %out: f32):
    %10 = arith.maximumf %in, %in_1 : f32
    linalg.yield %10 : f32
  } -> tensor<1x10xf32>
  %9 = hal.tensor.export %8 "output0" : tensor<1x10xf32> -> !hal.buffer_view
  util.return %9 : !hal.buffer_view
}

// -----// IR Dump After RemoveZeroExtentTensorsPass (iree-global-opt-remove-zero-extent-tensors) //----- //
util.func public @main(%arg0: !hal.buffer_view, %arg1: !hal.buffer_view, %arg2: !hal.buffer_view) -> !hal.buffer_view attributes {iree.abi.stub, iree.reflection = {iree.abi.declaration = "sync func @main(%input0: tensor<28x28xf32>, %input1: tensor<784x10xf32>, %input2: tensor<1x10xf32>) -> (%output0: tensor<1x10xf32>)"}} {
  %cst = arith.constant dense<0.000000e+00> : tensor<1x10xf32>
  %cst_0 = arith.constant 0.000000e+00 : f32
  %0 = hal.tensor.import %arg0 "input0" : !hal.buffer_view -> tensor<28x28xf32>
  %1 = hal.tensor.import %arg1 "input1" : !hal.buffer_view -> tensor<784x10xf32>
  %2 = hal.tensor.import %arg2 "input2" : !hal.buffer_view -> tensor<1x10xf32>
  %collapsed = tensor.collapse_shape %0 [[0, 1]] : tensor<28x28xf32> into tensor<784xf32>
  %3 = tensor.empty() : tensor<10xf32>
  %4 = linalg.fill ins(%cst_0 : f32) outs(%3 : tensor<10xf32>) -> tensor<10xf32>
  %5 = linalg.vecmat ins(%collapsed, %1 : tensor<784xf32>, tensor<784x10xf32>) outs(%4 : tensor<10xf32>) -> tensor<10xf32>
  %expanded = tensor.expand_shape %5 [[0, 1]] output_shape [1, 10] : tensor<10xf32> into tensor<1x10xf32>
  %6 = tensor.empty() : tensor<1x10xf32>
  %7 = linalg.generic {indexing_maps = [affine_map<(d0, d1) -> (d0, d1)>, affine_map<(d0, d1) -> (d0, d1)>, affine_map<(d0, d1) -> (d0, d1)>], iterator_types = ["parallel", "parallel"]} ins(%expanded, %2 : tensor<1x10xf32>, tensor<1x10xf32>) outs(%6 : tensor<1x10xf32>) {
  ^bb0(%in: f32, %in_1: f32, %out: f32):
    %10 = arith.addf %in, %in_1 : f32
    linalg.yield %10 : f32
  } -> tensor<1x10xf32>
  %8 = linalg.generic {indexing_maps = [affine_map<(d0, d1) -> (d0, d1)>, affine_map<(d0, d1) -> (d0, d1)>, affine_map<(d0, d1) -> (d0, d1)>], iterator_types = ["parallel", "parallel"]} ins(%7, %cst : tensor<1x10xf32>, tensor<1x10xf32>) outs(%6 : tensor<1x10xf32>) {
  ^bb0(%in: f32, %in_1: f32, %out: f32):
    %10 = arith.maximumf %in, %in_1 : f32
    linalg.yield %10 : f32
  } -> tensor<1x10xf32>
  %9 = hal.tensor.export %8 "output0" : tensor<1x10xf32> -> !hal.buffer_view
  util.return %9 : !hal.buffer_view
}

==============================================================================================================================
// -----// IR Dump After DetachElementwiseFromNamedOpsPass (iree-global-opt-detach-elementwise-from-named-ops) //----- //
util.func public @main(%arg0: !hal.buffer_view, %arg1: !hal.buffer_view, %arg2: !hal.buffer_view) -> !hal.buffer_view attributes {iree.abi.stub, iree.reflection = {iree.abi.declaration = "sync func @main(%input0: tensor<28x28xf32>, %input1: tensor<784x10xf32>, %input2: tensor<1x10xf32>) -> (%output0: tensor<1x10xf32>)"}} {
  %cst = arith.constant dense<0.000000e+00> : tensor<1x10xf32>
  %cst_0 = arith.constant 0.000000e+00 : f32
  %0 = hal.tensor.import %arg0 "input0" : !hal.buffer_view -> tensor<28x28xf32>
  %1 = hal.tensor.import %arg1 "input1" : !hal.buffer_view -> tensor<784x10xf32>
  %2 = hal.tensor.import %arg2 "input2" : !hal.buffer_view -> tensor<1x10xf32>
  %collapsed = tensor.collapse_shape %0 [[0, 1]] : tensor<28x28xf32> into tensor<784xf32>
  %3 = tensor.empty() : tensor<10xf32>
  %4 = linalg.fill ins(%cst_0 : f32) outs(%3 : tensor<10xf32>) -> tensor<10xf32>
  %5 = linalg.vecmat ins(%collapsed, %1 : tensor<784xf32>, tensor<784x10xf32>) outs(%4 : tensor<10xf32>) -> tensor<10xf32>
  %expanded = tensor.expand_shape %5 [[0, 1]] output_shape [1, 10] : tensor<10xf32> into tensor<1x10xf32>
  %6 = tensor.empty() : tensor<1x10xf32>
  %7 = linalg.generic {indexing_maps = [affine_map<(d0, d1) -> (d0, d1)>, affine_map<(d0, d1) -> (d0, d1)>, affine_map<(d0, d1) -> (d0, d1)>], iterator_types = ["parallel", "parallel"]} ins(%expanded, %2 : tensor<1x10xf32>, tensor<1x10xf32>) outs(%6 : tensor<1x10xf32>) {
  ^bb0(%in: f32, %in_1: f32, %out: f32):
    %10 = arith.addf %in, %in_1 : f32
    linalg.yield %10 : f32
  } -> tensor<1x10xf32>
  %8 = linalg.generic {indexing_maps = [affine_map<(d0, d1) -> (d0, d1)>, affine_map<(d0, d1) -> (d0, d1)>, affine_map<(d0, d1) -> (d0, d1)>], iterator_types = ["parallel", "parallel"]} ins(%7, %cst : tensor<1x10xf32>, tensor<1x10xf32>) outs(%6 : tensor<1x10xf32>) {
  ^bb0(%in: f32, %in_1: f32, %out: f32):
    %10 = arith.maximumf %in, %in_1 : f32
    linalg.yield %10 : f32
  } -> tensor<1x10xf32>
  %9 = hal.tensor.export %8 "output0" : tensor<1x10xf32> -> !hal.buffer_view
  util.return %9 : !hal.buffer_view
}

// -----// IR Dump After LinalgNamedOpConversionPass (linalg-named-op-conversion) //----- //
util.func public @main(%arg0: !hal.buffer_view, %arg1: !hal.buffer_view, %arg2: !hal.buffer_view) -> !hal.buffer_view attributes {iree.abi.stub, iree.reflection = {iree.abi.declaration = "sync func @main(%input0: tensor<28x28xf32>, %input1: tensor<784x10xf32>, %input2: tensor<1x10xf32>) -> (%output0: tensor<1x10xf32>)"}} {
  %cst = arith.constant dense<0.000000e+00> : tensor<1x10xf32>
  %cst_0 = arith.constant 0.000000e+00 : f32
  %0 = hal.tensor.import %arg0 "input0" : !hal.buffer_view -> tensor<28x28xf32>
  %1 = hal.tensor.import %arg1 "input1" : !hal.buffer_view -> tensor<784x10xf32>
  %2 = hal.tensor.import %arg2 "input2" : !hal.buffer_view -> tensor<1x10xf32>
  %collapsed = tensor.collapse_shape %0 [[0, 1]] : tensor<28x28xf32> into tensor<784xf32>
  %3 = tensor.empty() : tensor<10xf32>
  %4 = linalg.fill ins(%cst_0 : f32) outs(%3 : tensor<10xf32>) -> tensor<10xf32>
  %5 = linalg.vecmat ins(%collapsed, %1 : tensor<784xf32>, tensor<784x10xf32>) outs(%4 : tensor<10xf32>) -> tensor<10xf32>
  %expanded = tensor.expand_shape %5 [[0, 1]] output_shape [1, 10] : tensor<10xf32> into tensor<1x10xf32>
  %6 = tensor.empty() : tensor<1x10xf32>
  %7 = linalg.generic {indexing_maps = [affine_map<(d0, d1) -> (d0, d1)>, affine_map<(d0, d1) -> (d0, d1)>, affine_map<(d0, d1) -> (d0, d1)>], iterator_types = ["parallel", "parallel"]} ins(%expanded, %2 : tensor<1x10xf32>, tensor<1x10xf32>) outs(%6 : tensor<1x10xf32>) {
  ^bb0(%in: f32, %in_1: f32, %out: f32):
    %10 = arith.addf %in, %in_1 : f32
    linalg.yield %10 : f32
  } -> tensor<1x10xf32>
  %8 = linalg.generic {indexing_maps = [affine_map<(d0, d1) -> (d0, d1)>, affine_map<(d0, d1) -> (d0, d1)>, affine_map<(d0, d1) -> (d0, d1)>], iterator_types = ["parallel", "parallel"]} ins(%7, %cst : tensor<1x10xf32>, tensor<1x10xf32>) outs(%6 : tensor<1x10xf32>) {
  ^bb0(%in: f32, %in_1: f32, %out: f32):
    %10 = arith.maximumf %in, %in_1 : f32
    linalg.yield %10 : f32
  } -> tensor<1x10xf32>
  %9 = hal.tensor.export %8 "output0" : tensor<1x10xf32> -> !hal.buffer_view
  util.return %9 : !hal.buffer_view
}

// -----// IR Dump After EraseUnusedLinalgOperandsPass (iree-global-opt-erase-unused-linalg-operands) //----- //
#executable_target_cuda_nvptx_fb = #hal.executable.target<"cuda", "cuda-nvptx-fb", {iree.gpu.target = #iree_gpu.target<arch = "sm_86", features = "+ptx76", wgp = <compute =  fp64|fp32|fp16|int64|int32|int16|int8, storage =  b64|b32|b16|b8, subgroup =  shuffle|arithmetic, dot =  dp4xi8toi32, mma = [<WMMA_F32_16x16x16_F16>, <WMMA_F16_16x16x16_F16>], subgroup_size_choices = [32], max_workgroup_sizes = [1024, 1024, 1024], max_thread_count_per_workgroup = 1024, max_workgroup_memory_bytes = 166912, max_workgroup_counts = [2147483647, 65535, 65535]>>}>
#map = affine_map<(d0, d1) -> (d0, d1)>
#device_target_cuda = #hal.device.target<"cuda", [#executable_target_cuda_nvptx_fb]> : !hal.device
module attributes {stream.affinity.default = #hal.device.affinity<@__device_0>} {
  util.global private @__device_0 = #device_target_cuda
  util.func public @main(%arg0: !hal.buffer_view, %arg1: !hal.buffer_view, %arg2: !hal.buffer_view) -> !hal.buffer_view attributes {iree.abi.stub, iree.reflection = {iree.abi.declaration = "sync func @main(%input0: tensor<28x28xf32>, %input1: tensor<784x10xf32>, %input2: tensor<1x10xf32>) -> (%output0: tensor<1x10xf32>)"}} {
    %cst = arith.constant dense<0.000000e+00> : tensor<1x10xf32>
    %cst_0 = arith.constant 0.000000e+00 : f32
    %0 = hal.tensor.import %arg0 "input0" : !hal.buffer_view -> tensor<28x28xf32>
    %1 = hal.tensor.import %arg1 "input1" : !hal.buffer_view -> tensor<784x10xf32>
    %2 = hal.tensor.import %arg2 "input2" : !hal.buffer_view -> tensor<1x10xf32>
    %collapsed = tensor.collapse_shape %0 [[0, 1]] : tensor<28x28xf32> into tensor<784xf32>
    %3 = tensor.empty() : tensor<10xf32>
    %4 = linalg.fill ins(%cst_0 : f32) outs(%3 : tensor<10xf32>) -> tensor<10xf32>
    %5 = linalg.vecmat ins(%collapsed, %1 : tensor<784xf32>, tensor<784x10xf32>) outs(%4 : tensor<10xf32>) -> tensor<10xf32>
    %expanded = tensor.expand_shape %5 [[0, 1]] output_shape [1, 10] : tensor<10xf32> into tensor<1x10xf32>
    %6 = tensor.empty() : tensor<1x10xf32>
    %7 = linalg.generic {indexing_maps = [#map, #map, #map], iterator_types = ["parallel", "parallel"]} ins(%expanded, %2 : tensor<1x10xf32>, tensor<1x10xf32>) outs(%6 : tensor<1x10xf32>) {
    ^bb0(%in: f32, %in_1: f32, %out: f32):
      %10 = arith.addf %in, %in_1 : f32
      linalg.yield %10 : f32
    } -> tensor<1x10xf32>
    %8 = linalg.generic {indexing_maps = [#map, #map, #map], iterator_types = ["parallel", "parallel"]} ins(%7, %cst : tensor<1x10xf32>, tensor<1x10xf32>) outs(%6 : tensor<1x10xf32>) {
    ^bb0(%in: f32, %in_1: f32, %out: f32):
      %10 = arith.maximumf %in, %in_1 : f32
      linalg.yield %10 : f32
    } -> tensor<1x10xf32>
    %9 = hal.tensor.export %8 "output0" : tensor<1x10xf32> -> !hal.buffer_view
    util.return %9 : !hal.buffer_view
  }
}


=========================================================================================================================
// -----// IR Dump After ExpandTensorShapesPass (iree-global-opt-expand-tensor-shapes) //----- //
#executable_target_cuda_nvptx_fb = #hal.executable.target<"cuda", "cuda-nvptx-fb", {iree.gpu.target = #iree_gpu.target<arch = "sm_86", features = "+ptx76", wgp = <compute =  fp64|fp32|fp16|int64|int32|int16|int8, storage =  b64|b32|b16|b8, subgroup =  shuffle|arithmetic, dot =  dp4xi8toi32, mma = [<WMMA_F32_16x16x16_F16>, <WMMA_F16_16x16x16_F16>], subgroup_size_choices = [32], max_workgroup_sizes = [1024, 1024, 1024], max_thread_count_per_workgroup = 1024, max_workgroup_memory_bytes = 166912, max_workgroup_counts = [2147483647, 65535, 65535]>>}>
#map = affine_map<(d0, d1) -> (d0, d1)>
#device_target_cuda = #hal.device.target<"cuda", [#executable_target_cuda_nvptx_fb]> : !hal.device
module attributes {stream.affinity.default = #hal.device.affinity<@__device_0>} {
  util.global private @__device_0 = #device_target_cuda
  util.func public @main(%arg0: !hal.buffer_view, %arg1: !hal.buffer_view, %arg2: !hal.buffer_view) -> !hal.buffer_view attributes {iree.abi.stub, iree.reflection = {iree.abi.declaration = "sync func @main(%input0: tensor<28x28xf32>, %input1: tensor<784x10xf32>, %input2: tensor<1x10xf32>) -> (%output0: tensor<1x10xf32>)"}} {
    %cst = arith.constant dense<0.000000e+00> : tensor<1x10xf32>
    %cst_0 = arith.constant 0.000000e+00 : f32
    %0 = hal.tensor.import %arg0 "input0" : !hal.buffer_view -> tensor<28x28xf32>
    %1 = hal.tensor.import %arg1 "input1" : !hal.buffer_view -> tensor<784x10xf32>
    %2 = hal.tensor.import %arg2 "input2" : !hal.buffer_view -> tensor<1x10xf32>
    %collapsed = tensor.collapse_shape %0 [[0, 1]] : tensor<28x28xf32> into tensor<784xf32>
    %3 = tensor.empty() : tensor<10xf32>
    %4 = linalg.fill ins(%cst_0 : f32) outs(%3 : tensor<10xf32>) -> tensor<10xf32>
    %5 = linalg.vecmat ins(%collapsed, %1 : tensor<784xf32>, tensor<784x10xf32>) outs(%4 : tensor<10xf32>) -> tensor<10xf32>
    %expanded = tensor.expand_shape %5 [[0, 1]] output_shape [1, 10] : tensor<10xf32> into tensor<1x10xf32>
    %6 = tensor.empty() : tensor<1x10xf32>
    %7 = linalg.generic {indexing_maps = [#map, #map, #map], iterator_types = ["parallel", "parallel"]} ins(%expanded, %2 : tensor<1x10xf32>, tensor<1x10xf32>) outs(%6 : tensor<1x10xf32>) {
    ^bb0(%in: f32, %in_1: f32, %out: f32):
      %10 = arith.addf %in, %in_1 : f32
      linalg.yield %10 : f32
    } -> tensor<1x10xf32>
    %8 = linalg.generic {indexing_maps = [#map, #map, #map], iterator_types = ["parallel", "parallel"]} ins(%7, %cst : tensor<1x10xf32>, tensor<1x10xf32>) outs(%6 : tensor<1x10xf32>) {
    ^bb0(%in: f32, %in_1: f32, %out: f32):
      %10 = arith.maximumf %in, %in_1 : f32
      linalg.yield %10 : f32
    } -> tensor<1x10xf32>
    %9 = hal.tensor.export %8 "output0" : tensor<1x10xf32> -> !hal.buffer_view
    util.return %9 : !hal.buffer_view
  }
}

=====================================================================================================================
// -----// IR Dump After ConvertElementwiseToLinalgPass (convert-elementwise-to-linalg) //----- //
util.func public @main(%arg0: !hal.buffer_view, %arg1: !hal.buffer_view, %arg2: !hal.buffer_view) -> !hal.buffer_view attributes {iree.abi.stub, iree.reflection = {iree.abi.declaration = "sync func @main(%input0: tensor<28x28xf32>, %input1: tensor<784x10xf32>, %input2: tensor<1x10xf32>) -> (%output0: tensor<1x10xf32>)"}} {
  %cst = arith.constant dense<0.000000e+00> : tensor<1x10xf32>
  %cst_0 = arith.constant 0.000000e+00 : f32
  %0 = hal.tensor.import %arg0 "input0" : !hal.buffer_view -> tensor<28x28xf32>
  %1 = hal.tensor.import %arg1 "input1" : !hal.buffer_view -> tensor<784x10xf32>
  %2 = hal.tensor.import %arg2 "input2" : !hal.buffer_view -> tensor<1x10xf32>
  %collapsed = tensor.collapse_shape %0 [[0, 1]] : tensor<28x28xf32> into tensor<784xf32>
  %3 = tensor.empty() : tensor<10xf32>
  %4 = linalg.fill ins(%cst_0 : f32) outs(%3 : tensor<10xf32>) -> tensor<10xf32>
  %5 = linalg.vecmat ins(%collapsed, %1 : tensor<784xf32>, tensor<784x10xf32>) outs(%4 : tensor<10xf32>) -> tensor<10xf32>
  %expanded = tensor.expand_shape %5 [[0, 1]] output_shape [1, 10] : tensor<10xf32> into tensor<1x10xf32>
  %6 = tensor.empty() : tensor<1x10xf32>
  %7 = linalg.generic {indexing_maps = [affine_map<(d0, d1) -> (d0, d1)>, affine_map<(d0, d1) -> (d0, d1)>, affine_map<(d0, d1) -> (d0, d1)>], iterator_types = ["parallel", "parallel"]} ins(%expanded, %2 : tensor<1x10xf32>, tensor<1x10xf32>) outs(%6 : tensor<1x10xf32>) {
  ^bb0(%in: f32, %in_1: f32, %out: f32):
    %10 = arith.addf %in, %in_1 : f32
    linalg.yield %10 : f32
  } -> tensor<1x10xf32>
  %8 = linalg.generic {indexing_maps = [affine_map<(d0, d1) -> (d0, d1)>, affine_map<(d0, d1) -> (d0, d1)>, affine_map<(d0, d1) -> (d0, d1)>], iterator_types = ["parallel", "parallel"]} ins(%7, %cst : tensor<1x10xf32>, tensor<1x10xf32>) outs(%6 : tensor<1x10xf32>) {
  ^bb0(%in: f32, %in_1: f32, %out: f32):
    %10 = arith.maximumf %in, %in_1 : f32
    linalg.yield %10 : f32
  } -> tensor<1x10xf32>
  %9 = hal.tensor.export %8 "output0" : tensor<1x10xf32> -> !hal.buffer_view
  util.return %9 : !hal.buffer_view
}

// -----// IR Dump After RaiseSpecialOpsPass (iree-global-opt-raise-special-ops) //----- //
util.func public @main(%arg0: !hal.buffer_view, %arg1: !hal.buffer_view, %arg2: !hal.buffer_view) -> !hal.buffer_view attributes {iree.abi.stub, iree.reflection = {iree.abi.declaration = "sync func @main(%input0: tensor<28x28xf32>, %input1: tensor<784x10xf32>, %input2: tensor<1x10xf32>) -> (%output0: tensor<1x10xf32>)"}} {
  %cst = arith.constant dense<0.000000e+00> : tensor<1x10xf32>
  %cst_0 = arith.constant 0.000000e+00 : f32
  %0 = hal.tensor.import %arg0 "input0" : !hal.buffer_view -> tensor<28x28xf32>
  %1 = hal.tensor.import %arg1 "input1" : !hal.buffer_view -> tensor<784x10xf32>
  %2 = hal.tensor.import %arg2 "input2" : !hal.buffer_view -> tensor<1x10xf32>
  %collapsed = tensor.collapse_shape %0 [[0, 1]] : tensor<28x28xf32> into tensor<784xf32>
  %3 = tensor.empty() : tensor<10xf32>
  %4 = linalg.fill ins(%cst_0 : f32) outs(%3 : tensor<10xf32>) -> tensor<10xf32>
  %5 = linalg.vecmat ins(%collapsed, %1 : tensor<784xf32>, tensor<784x10xf32>) outs(%4 : tensor<10xf32>) -> tensor<10xf32>
  %expanded = tensor.expand_shape %5 [[0, 1]] output_shape [1, 10] : tensor<10xf32> into tensor<1x10xf32>
  %6 = tensor.empty() : tensor<1x10xf32>
  %7 = linalg.generic {indexing_maps = [affine_map<(d0, d1) -> (d0, d1)>, affine_map<(d0, d1) -> (d0, d1)>, affine_map<(d0, d1) -> (d0, d1)>], iterator_types = ["parallel", "parallel"]} ins(%expanded, %2 : tensor<1x10xf32>, tensor<1x10xf32>) outs(%6 : tensor<1x10xf32>) {
  ^bb0(%in: f32, %in_1: f32, %out: f32):
    %10 = arith.addf %in, %in_1 : f32
    linalg.yield %10 : f32
  } -> tensor<1x10xf32>
  %8 = linalg.generic {indexing_maps = [affine_map<(d0, d1) -> (d0, d1)>, affine_map<(d0, d1) -> (d0, d1)>, affine_map<(d0, d1) -> (d0, d1)>], iterator_types = ["parallel", "parallel"]} ins(%7, %cst : tensor<1x10xf32>, tensor<1x10xf32>) outs(%6 : tensor<1x10xf32>) {
  ^bb0(%in: f32, %in_1: f32, %out: f32):
    %10 = arith.maximumf %in, %in_1 : f32
    linalg.yield %10 : f32
  } -> tensor<1x10xf32>
  %9 = hal.tensor.export %8 "output0" : tensor<1x10xf32> -> !hal.buffer_view
  util.return %9 : !hal.buffer_view
}

// -----// IR Dump After DecomposeConcatPass (iree-global-opt-decompose-concat) //----- //
util.func public @main(%arg0: !hal.buffer_view, %arg1: !hal.buffer_view, %arg2: !hal.buffer_view) -> !hal.buffer_view attributes {iree.abi.stub, iree.reflection = {iree.abi.declaration = "sync func @main(%input0: tensor<28x28xf32>, %input1: tensor<784x10xf32>, %input2: tensor<1x10xf32>) -> (%output0: tensor<1x10xf32>)"}} {
  %cst = arith.constant dense<0.000000e+00> : tensor<1x10xf32>
  %cst_0 = arith.constant 0.000000e+00 : f32
  %0 = hal.tensor.import %arg0 "input0" : !hal.buffer_view -> tensor<28x28xf32>
  %1 = hal.tensor.import %arg1 "input1" : !hal.buffer_view -> tensor<784x10xf32>
  %2 = hal.tensor.import %arg2 "input2" : !hal.buffer_view -> tensor<1x10xf32>
  %collapsed = tensor.collapse_shape %0 [[0, 1]] : tensor<28x28xf32> into tensor<784xf32>
  %3 = tensor.empty() : tensor<10xf32>
  %4 = linalg.fill ins(%cst_0 : f32) outs(%3 : tensor<10xf32>) -> tensor<10xf32>
  %5 = linalg.vecmat ins(%collapsed, %1 : tensor<784xf32>, tensor<784x10xf32>) outs(%4 : tensor<10xf32>) -> tensor<10xf32>
  %expanded = tensor.expand_shape %5 [[0, 1]] output_shape [1, 10] : tensor<10xf32> into tensor<1x10xf32>
  %6 = tensor.empty() : tensor<1x10xf32>
  %7 = linalg.generic {indexing_maps = [affine_map<(d0, d1) -> (d0, d1)>, affine_map<(d0, d1) -> (d0, d1)>, affine_map<(d0, d1) -> (d0, d1)>], iterator_types = ["parallel", "parallel"]} ins(%expanded, %2 : tensor<1x10xf32>, tensor<1x10xf32>) outs(%6 : tensor<1x10xf32>) {
  ^bb0(%in: f32, %in_1: f32, %out: f32):
    %10 = arith.addf %in, %in_1 : f32
    linalg.yield %10 : f32
  } -> tensor<1x10xf32>
  %8 = linalg.generic {indexing_maps = [affine_map<(d0, d1) -> (d0, d1)>, affine_map<(d0, d1) -> (d0, d1)>, affine_map<(d0, d1) -> (d0, d1)>], iterator_types = ["parallel", "parallel"]} ins(%7, %cst : tensor<1x10xf32>, tensor<1x10xf32>) outs(%6 : tensor<1x10xf32>) {
  ^bb0(%in: f32, %in_1: f32, %out: f32):
    %10 = arith.maximumf %in, %in_1 : f32
    linalg.yield %10 : f32
  } -> tensor<1x10xf32>
  %9 = hal.tensor.export %8 "output0" : tensor<1x10xf32> -> !hal.buffer_view
  util.return %9 : !hal.buffer_view
}

// -----// IR Dump After GeneralizeLinalgNamedOpsPass (iree-global-opt-generalize-linalg-named-ops) //----- //
util.func public @main(%arg0: !hal.buffer_view, %arg1: !hal.buffer_view, %arg2: !hal.buffer_view) -> !hal.buffer_view attributes {iree.abi.stub, iree.reflection = {iree.abi.declaration = "sync func @main(%input0: tensor<28x28xf32>, %input1: tensor<784x10xf32>, %input2: tensor<1x10xf32>) -> (%output0: tensor<1x10xf32>)"}} {
  %cst = arith.constant dense<0.000000e+00> : tensor<1x10xf32>
  %cst_0 = arith.constant 0.000000e+00 : f32
  %0 = hal.tensor.import %arg0 "input0" : !hal.buffer_view -> tensor<28x28xf32>
  %1 = hal.tensor.import %arg1 "input1" : !hal.buffer_view -> tensor<784x10xf32>
  %2 = hal.tensor.import %arg2 "input2" : !hal.buffer_view -> tensor<1x10xf32>
  %collapsed = tensor.collapse_shape %0 [[0, 1]] : tensor<28x28xf32> into tensor<784xf32>
  %3 = tensor.empty() : tensor<10xf32>
  %4 = linalg.fill ins(%cst_0 : f32) outs(%3 : tensor<10xf32>) -> tensor<10xf32>
  %5 = linalg.vecmat ins(%collapsed, %1 : tensor<784xf32>, tensor<784x10xf32>) outs(%4 : tensor<10xf32>) -> tensor<10xf32>
  %expanded = tensor.expand_shape %5 [[0, 1]] output_shape [1, 10] : tensor<10xf32> into tensor<1x10xf32>
  %6 = tensor.empty() : tensor<1x10xf32>
  %7 = linalg.generic {indexing_maps = [affine_map<(d0, d1) -> (d0, d1)>, affine_map<(d0, d1) -> (d0, d1)>, affine_map<(d0, d1) -> (d0, d1)>], iterator_types = ["parallel", "parallel"]} ins(%expanded, %2 : tensor<1x10xf32>, tensor<1x10xf32>) outs(%6 : tensor<1x10xf32>) {
  ^bb0(%in: f32, %in_1: f32, %out: f32):
    %10 = arith.addf %in, %in_1 : f32
    linalg.yield %10 : f32
  } -> tensor<1x10xf32>
  %8 = linalg.generic {indexing_maps = [affine_map<(d0, d1) -> (d0, d1)>, affine_map<(d0, d1) -> (d0, d1)>, affine_map<(d0, d1) -> (d0, d1)>], iterator_types = ["parallel", "parallel"]} ins(%7, %cst : tensor<1x10xf32>, tensor<1x10xf32>) outs(%6 : tensor<1x10xf32>) {
  ^bb0(%in: f32, %in_1: f32, %out: f32):
    %10 = arith.maximumf %in, %in_1 : f32
    linalg.yield %10 : f32
  } -> tensor<1x10xf32>
  %9 = hal.tensor.export %8 "output0" : tensor<1x10xf32> -> !hal.buffer_view
  util.return %9 : !hal.buffer_view
}

// -----// IR Dump After FoldUnitExtentDimsPass (iree-dispatch-creation-fold-unit-extent-dims) //----- //
#executable_target_cuda_nvptx_fb = #hal.executable.target<"cuda", "cuda-nvptx-fb", {iree.gpu.target = #iree_gpu.target<arch = "sm_86", features = "+ptx76", wgp = <compute =  fp64|fp32|fp16|int64|int32|int16|int8, storage =  b64|b32|b16|b8, subgroup =  shuffle|arithmetic, dot =  dp4xi8toi32, mma = [<WMMA_F32_16x16x16_F16>, <WMMA_F16_16x16x16_F16>], subgroup_size_choices = [32], max_workgroup_sizes = [1024, 1024, 1024], max_thread_count_per_workgroup = 1024, max_workgroup_memory_bytes = 166912, max_workgroup_counts = [2147483647, 65535, 65535]>>}>
#map = affine_map<(d0) -> (d0)>
#device_target_cuda = #hal.device.target<"cuda", [#executable_target_cuda_nvptx_fb]> : !hal.device
module attributes {stream.affinity.default = #hal.device.affinity<@__device_0>} {
  util.global private @__device_0 = #device_target_cuda
  util.func public @main(%arg0: !hal.buffer_view, %arg1: !hal.buffer_view, %arg2: !hal.buffer_view) -> !hal.buffer_view attributes {iree.abi.stub, iree.reflection = {iree.abi.declaration = "sync func @main(%input0: tensor<28x28xf32>, %input1: tensor<784x10xf32>, %input2: tensor<1x10xf32>) -> (%output0: tensor<1x10xf32>)"}} {
    %cst = arith.constant dense<0.000000e+00> : tensor<10xf32>
    %cst_0 = arith.constant 0.000000e+00 : f32
    %0 = hal.tensor.import %arg0 "input0" : !hal.buffer_view -> tensor<28x28xf32>
    %1 = hal.tensor.import %arg1 "input1" : !hal.buffer_view -> tensor<784x10xf32>
    %2 = hal.tensor.import %arg2 "input2" : !hal.buffer_view -> tensor<1x10xf32>
    %collapsed = tensor.collapse_shape %0 [[0, 1]] : tensor<28x28xf32> into tensor<784xf32>
    %3 = tensor.empty() : tensor<10xf32>
    %4 = linalg.fill ins(%cst_0 : f32) outs(%3 : tensor<10xf32>) -> tensor<10xf32>
    %5 = linalg.vecmat ins(%collapsed, %1 : tensor<784xf32>, tensor<784x10xf32>) outs(%4 : tensor<10xf32>) -> tensor<10xf32>
    %collapsed_1 = tensor.collapse_shape %2 [[0, 1]] : tensor<1x10xf32> into tensor<10xf32>
    %6 = tensor.empty() : tensor<10xf32>
    %7 = linalg.generic {indexing_maps = [#map, #map, #map], iterator_types = ["parallel"]} ins(%5, %collapsed_1 : tensor<10xf32>, tensor<10xf32>) outs(%6 : tensor<10xf32>) {
    ^bb0(%in: f32, %in_2: f32, %out: f32):
      %11 = arith.addf %in, %in_2 : f32
      linalg.yield %11 : f32
    } -> tensor<10xf32>
    %8 = tensor.empty() : tensor<10xf32>
    %9 = linalg.generic {indexing_maps = [#map, #map, #map], iterator_types = ["parallel"]} ins(%7, %cst : tensor<10xf32>, tensor<10xf32>) outs(%8 : tensor<10xf32>) {
    ^bb0(%in: f32, %in_2: f32, %out: f32):
      %11 = arith.maximumf %in, %in_2 : f32
      linalg.yield %11 : f32
    } -> tensor<10xf32>
    %expanded = tensor.expand_shape %9 [[0, 1]] output_shape [1, 10] : tensor<10xf32> into tensor<1x10xf32>
    %10 = hal.tensor.export %expanded "output0" : tensor<1x10xf32> -> !hal.buffer_view
    util.return %10 : !hal.buffer_view
  }
}


// -----// IR Dump After DemoteContractionInputsToBF16Pass (iree-global-opt-demote-contraction-inputs-to-bf16) //----- //
util.func public @main(%arg0: !hal.buffer_view, %arg1: !hal.buffer_view, %arg2: !hal.buffer_view) -> !hal.buffer_view attributes {iree.abi.stub, iree.reflection = {iree.abi.declaration = "sync func @main(%input0: tensor<28x28xf32>, %input1: tensor<784x10xf32>, %input2: tensor<1x10xf32>) -> (%output0: tensor<1x10xf32>)"}} {
  %cst = arith.constant dense<0.000000e+00> : tensor<10xf32>
  %cst_0 = arith.constant 0.000000e+00 : f32
  %0 = hal.tensor.import %arg0 "input0" : !hal.buffer_view -> tensor<28x28xf32>
  %1 = hal.tensor.import %arg1 "input1" : !hal.buffer_view -> tensor<784x10xf32>
  %2 = hal.tensor.import %arg2 "input2" : !hal.buffer_view -> tensor<1x10xf32>
  %collapsed = tensor.collapse_shape %0 [[0, 1]] : tensor<28x28xf32> into tensor<784xf32>
  %3 = tensor.empty() : tensor<10xf32>
  %4 = linalg.fill ins(%cst_0 : f32) outs(%3 : tensor<10xf32>) -> tensor<10xf32>
  %5 = linalg.vecmat ins(%collapsed, %1 : tensor<784xf32>, tensor<784x10xf32>) outs(%4 : tensor<10xf32>) -> tensor<10xf32>
  %collapsed_1 = tensor.collapse_shape %2 [[0, 1]] : tensor<1x10xf32> into tensor<10xf32>
  %6 = tensor.empty() : tensor<10xf32>
  %7 = linalg.generic {indexing_maps = [affine_map<(d0) -> (d0)>, affine_map<(d0) -> (d0)>, affine_map<(d0) -> (d0)>], iterator_types = ["parallel"]} ins(%5, %collapsed_1 : tensor<10xf32>, tensor<10xf32>) outs(%6 : tensor<10xf32>) {
  ^bb0(%in: f32, %in_2: f32, %out: f32):
    %11 = arith.addf %in, %in_2 : f32
    linalg.yield %11 : f32
  } -> tensor<10xf32>
  %8 = tensor.empty() : tensor<10xf32>
  %9 = linalg.generic {indexing_maps = [affine_map<(d0) -> (d0)>, affine_map<(d0) -> (d0)>, affine_map<(d0) -> (d0)>], iterator_types = ["parallel"]} ins(%7, %cst : tensor<10xf32>, tensor<10xf32>) outs(%8 : tensor<10xf32>) {
  ^bb0(%in: f32, %in_2: f32, %out: f32):
    %11 = arith.maximumf %in, %in_2 : f32
    linalg.yield %11 : f32
  } -> tensor<10xf32>
  %expanded = tensor.expand_shape %9 [[0, 1]] output_shape [1, 10] : tensor<10xf32> into tensor<1x10xf32>
  %10 = hal.tensor.export %expanded "output0" : tensor<1x10xf32> -> !hal.buffer_view
  util.return %10 : !hal.buffer_view
}

// -----// IR Dump After CanonicalizerPass (iree-flow-canonicalize) //----- //
util.func public @main(%arg0: !hal.buffer_view, %arg1: !hal.buffer_view, %arg2: !hal.buffer_view) -> !hal.buffer_view attributes {iree.abi.stub, iree.reflection = {iree.abi.declaration = "sync func @main(%input0: tensor<28x28xf32>, %input1: tensor<784x10xf32>, %input2: tensor<1x10xf32>) -> (%output0: tensor<1x10xf32>)"}} {
  %cst = arith.constant dense<0.000000e+00> : tensor<10xf32>
  %cst_0 = arith.constant 0.000000e+00 : f32
  %0 = hal.tensor.import %arg0 "input0" : !hal.buffer_view -> tensor<28x28xf32>
  %1 = hal.tensor.import %arg1 "input1" : !hal.buffer_view -> tensor<784x10xf32>
  %2 = hal.tensor.import %arg2 "input2" : !hal.buffer_view -> tensor<1x10xf32>
  %collapsed = tensor.collapse_shape %0 [[0, 1]] : tensor<28x28xf32> into tensor<784xf32>
  %3 = tensor.empty() : tensor<10xf32>
  %4 = linalg.fill ins(%cst_0 : f32) outs(%3 : tensor<10xf32>) -> tensor<10xf32>
  %5 = linalg.vecmat ins(%collapsed, %1 : tensor<784xf32>, tensor<784x10xf32>) outs(%4 : tensor<10xf32>) -> tensor<10xf32>
  %collapsed_1 = tensor.collapse_shape %2 [[0, 1]] : tensor<1x10xf32> into tensor<10xf32>
  %6 = tensor.empty() : tensor<10xf32>
  %7 = linalg.generic {indexing_maps = [affine_map<(d0) -> (d0)>, affine_map<(d0) -> (d0)>, affine_map<(d0) -> (d0)>], iterator_types = ["parallel"]} ins(%5, %collapsed_1 : tensor<10xf32>, tensor<10xf32>) outs(%6 : tensor<10xf32>) {
  ^bb0(%in: f32, %in_2: f32, %out: f32):
    %11 = arith.addf %in, %in_2 : f32
    linalg.yield %11 : f32
  } -> tensor<10xf32>
  %8 = tensor.empty() : tensor<10xf32>
  %9 = linalg.generic {indexing_maps = [affine_map<(d0) -> (d0)>, affine_map<(d0) -> (d0)>, affine_map<(d0) -> (d0)>], iterator_types = ["parallel"]} ins(%7, %cst : tensor<10xf32>, tensor<10xf32>) outs(%8 : tensor<10xf32>) {
  ^bb0(%in: f32, %in_2: f32, %out: f32):
    %11 = arith.maximumf %in, %in_2 : f32
    linalg.yield %11 : f32
  } -> tensor<10xf32>
  %expanded = tensor.expand_shape %9 [[0, 1]] output_shape [1, 10] : tensor<10xf32> into tensor<1x10xf32>
  %10 = hal.tensor.export %expanded "output0" : tensor<1x10xf32> -> !hal.buffer_view
  util.return %10 : !hal.buffer_view
}

// -----// IR Dump After CSE (cse) //----- //
util.func public @main(%arg0: !hal.buffer_view, %arg1: !hal.buffer_view, %arg2: !hal.buffer_view) -> !hal.buffer_view attributes {iree.abi.stub, iree.reflection = {iree.abi.declaration = "sync func @main(%input0: tensor<28x28xf32>, %input1: tensor<784x10xf32>, %input2: tensor<1x10xf32>) -> (%output0: tensor<1x10xf32>)"}} {
  %cst = arith.constant dense<0.000000e+00> : tensor<10xf32>
  %cst_0 = arith.constant 0.000000e+00 : f32
  %0 = hal.tensor.import %arg0 "input0" : !hal.buffer_view -> tensor<28x28xf32>
  %1 = hal.tensor.import %arg1 "input1" : !hal.buffer_view -> tensor<784x10xf32>
  %2 = hal.tensor.import %arg2 "input2" : !hal.buffer_view -> tensor<1x10xf32>
  %collapsed = tensor.collapse_shape %0 [[0, 1]] : tensor<28x28xf32> into tensor<784xf32>
  %3 = tensor.empty() : tensor<10xf32>
  %4 = linalg.fill ins(%cst_0 : f32) outs(%3 : tensor<10xf32>) -> tensor<10xf32>
  %5 = linalg.vecmat ins(%collapsed, %1 : tensor<784xf32>, tensor<784x10xf32>) outs(%4 : tensor<10xf32>) -> tensor<10xf32>
  %collapsed_1 = tensor.collapse_shape %2 [[0, 1]] : tensor<1x10xf32> into tensor<10xf32>
  %6 = linalg.generic {indexing_maps = [affine_map<(d0) -> (d0)>, affine_map<(d0) -> (d0)>, affine_map<(d0) -> (d0)>], iterator_types = ["parallel"]} ins(%5, %collapsed_1 : tensor<10xf32>, tensor<10xf32>) outs(%3 : tensor<10xf32>) {
  ^bb0(%in: f32, %in_2: f32, %out: f32):
    %9 = arith.addf %in, %in_2 : f32
    linalg.yield %9 : f32
  } -> tensor<10xf32>
  %7 = linalg.generic {indexing_maps = [affine_map<(d0) -> (d0)>, affine_map<(d0) -> (d0)>, affine_map<(d0) -> (d0)>], iterator_types = ["parallel"]} ins(%6, %cst : tensor<10xf32>, tensor<10xf32>) outs(%3 : tensor<10xf32>) {
  ^bb0(%in: f32, %in_2: f32, %out: f32):
    %9 = arith.maximumf %in, %in_2 : f32
    linalg.yield %9 : f32
  } -> tensor<10xf32>
  %expanded = tensor.expand_shape %7 [[0, 1]] output_shape [1, 10] : tensor<10xf32> into tensor<1x10xf32>
  %8 = hal.tensor.export %expanded "output0" : tensor<1x10xf32> -> !hal.buffer_view
  util.return %8 : !hal.buffer_view
}

// -----// IR Dump After CanonicalizerPass (iree-flow-canonicalize) //----- //
util.func public @main(%arg0: !hal.buffer_view, %arg1: !hal.buffer_view, %arg2: !hal.buffer_view) -> !hal.buffer_view attributes {iree.abi.stub, iree.reflection = {iree.abi.declaration = "sync func @main(%input0: tensor<28x28xf32>, %input1: tensor<784x10xf32>, %input2: tensor<1x10xf32>) -> (%output0: tensor<1x10xf32>)"}} {
  %cst = arith.constant dense<0.000000e+00> : tensor<10xf32>
  %cst_0 = arith.constant 0.000000e+00 : f32
  %0 = hal.tensor.import %arg0 "input0" : !hal.buffer_view -> tensor<28x28xf32>
  %1 = hal.tensor.import %arg1 "input1" : !hal.buffer_view -> tensor<784x10xf32>
  %2 = hal.tensor.import %arg2 "input2" : !hal.buffer_view -> tensor<1x10xf32>
  %collapsed = tensor.collapse_shape %0 [[0, 1]] : tensor<28x28xf32> into tensor<784xf32>
  %3 = tensor.empty() : tensor<10xf32>
  %4 = linalg.fill ins(%cst_0 : f32) outs(%3 : tensor<10xf32>) -> tensor<10xf32>
  %5 = linalg.vecmat ins(%collapsed, %1 : tensor<784xf32>, tensor<784x10xf32>) outs(%4 : tensor<10xf32>) -> tensor<10xf32>
  %collapsed_1 = tensor.collapse_shape %2 [[0, 1]] : tensor<1x10xf32> into tensor<10xf32>
  %6 = linalg.generic {indexing_maps = [affine_map<(d0) -> (d0)>, affine_map<(d0) -> (d0)>, affine_map<(d0) -> (d0)>], iterator_types = ["parallel"]} ins(%5, %collapsed_1 : tensor<10xf32>, tensor<10xf32>) outs(%3 : tensor<10xf32>) {
  ^bb0(%in: f32, %in_2: f32, %out: f32):
    %9 = arith.addf %in, %in_2 : f32
    linalg.yield %9 : f32
  } -> tensor<10xf32>
  %7 = linalg.generic {indexing_maps = [affine_map<(d0) -> (d0)>, affine_map<(d0) -> (d0)>, affine_map<(d0) -> (d0)>], iterator_types = ["parallel"]} ins(%6, %cst : tensor<10xf32>, tensor<10xf32>) outs(%3 : tensor<10xf32>) {
  ^bb0(%in: f32, %in_2: f32, %out: f32):
    %9 = arith.maximumf %in, %in_2 : f32
    linalg.yield %9 : f32
  } -> tensor<10xf32>
  %expanded = tensor.expand_shape %7 [[0, 1]] output_shape [1, 10] : tensor<10xf32> into tensor<1x10xf32>
  %8 = hal.tensor.export %expanded "output0" : tensor<1x10xf32> -> !hal.buffer_view
  util.return %8 : !hal.buffer_view
}

// -----// IR Dump After CSE (cse) //----- //
util.func public @main(%arg0: !hal.buffer_view, %arg1: !hal.buffer_view, %arg2: !hal.buffer_view) -> !hal.buffer_view attributes {iree.abi.stub, iree.reflection = {iree.abi.declaration = "sync func @main(%input0: tensor<28x28xf32>, %input1: tensor<784x10xf32>, %input2: tensor<1x10xf32>) -> (%output0: tensor<1x10xf32>)"}} {
  %cst = arith.constant dense<0.000000e+00> : tensor<10xf32>
  %cst_0 = arith.constant 0.000000e+00 : f32
  %0 = hal.tensor.import %arg0 "input0" : !hal.buffer_view -> tensor<28x28xf32>
  %1 = hal.tensor.import %arg1 "input1" : !hal.buffer_view -> tensor<784x10xf32>
  %2 = hal.tensor.import %arg2 "input2" : !hal.buffer_view -> tensor<1x10xf32>
  %collapsed = tensor.collapse_shape %0 [[0, 1]] : tensor<28x28xf32> into tensor<784xf32>
  %3 = tensor.empty() : tensor<10xf32>
  %4 = linalg.fill ins(%cst_0 : f32) outs(%3 : tensor<10xf32>) -> tensor<10xf32>
  %5 = linalg.vecmat ins(%collapsed, %1 : tensor<784xf32>, tensor<784x10xf32>) outs(%4 : tensor<10xf32>) -> tensor<10xf32>
  %collapsed_1 = tensor.collapse_shape %2 [[0, 1]] : tensor<1x10xf32> into tensor<10xf32>
  %6 = linalg.generic {indexing_maps = [affine_map<(d0) -> (d0)>, affine_map<(d0) -> (d0)>, affine_map<(d0) -> (d0)>], iterator_types = ["parallel"]} ins(%5, %collapsed_1 : tensor<10xf32>, tensor<10xf32>) outs(%3 : tensor<10xf32>) {
  ^bb0(%in: f32, %in_2: f32, %out: f32):
    %9 = arith.addf %in, %in_2 : f32
    linalg.yield %9 : f32
  } -> tensor<10xf32>
  %7 = linalg.generic {indexing_maps = [affine_map<(d0) -> (d0)>, affine_map<(d0) -> (d0)>, affine_map<(d0) -> (d0)>], iterator_types = ["parallel"]} ins(%6, %cst : tensor<10xf32>, tensor<10xf32>) outs(%3 : tensor<10xf32>) {
  ^bb0(%in: f32, %in_2: f32, %out: f32):
    %9 = arith.maximumf %in, %in_2 : f32
    linalg.yield %9 : f32
  } -> tensor<10xf32>
  %expanded = tensor.expand_shape %7 [[0, 1]] output_shape [1, 10] : tensor<10xf32> into tensor<1x10xf32>
  %8 = hal.tensor.export %expanded "output0" : tensor<1x10xf32> -> !hal.buffer_view
  util.return %8 : !hal.buffer_view
}

// -----// IR Dump After SetEncodingPass (iree-dispatch-creation-set-encoding) //----- //
util.func public @main(%arg0: !hal.buffer_view, %arg1: !hal.buffer_view, %arg2: !hal.buffer_view) -> !hal.buffer_view attributes {iree.abi.stub, iree.reflection = {iree.abi.declaration = "sync func @main(%input0: tensor<28x28xf32>, %input1: tensor<784x10xf32>, %input2: tensor<1x10xf32>) -> (%output0: tensor<1x10xf32>)"}} {
  %cst = arith.constant dense<0.000000e+00> : tensor<10xf32>
  %cst_0 = arith.constant 0.000000e+00 : f32
  %0 = hal.tensor.import %arg0 "input0" : !hal.buffer_view -> tensor<28x28xf32>
  %1 = hal.tensor.import %arg1 "input1" : !hal.buffer_view -> tensor<784x10xf32>
  %2 = hal.tensor.import %arg2 "input2" : !hal.buffer_view -> tensor<1x10xf32>
  %collapsed = tensor.collapse_shape %0 [[0, 1]] : tensor<28x28xf32> into tensor<784xf32>
  %3 = tensor.empty() : tensor<10xf32>
  %4 = iree_encoding.set_encoding %collapsed : tensor<784xf32> -> tensor<784xf32, #iree_encoding.encoding<operand_index = 0 : index, op_type =  matmul, element_types = [f32, f32, f32], user_indexing_maps = [affine_map<(d0, d1) -> (d1)>, affine_map<(d0, d1) -> (d1, d0)>, affine_map<(d0, d1) -> (d0)>], round_dims_to = array<i64: 1, 32, 32>>>
  %5 = iree_encoding.set_encoding %1 : tensor<784x10xf32> -> tensor<784x10xf32, #iree_encoding.encoding<operand_index = 1 : index, op_type =  matmul, element_types = [f32, f32, f32], user_indexing_maps = [affine_map<(d0, d1) -> (d1)>, affine_map<(d0, d1) -> (d1, d0)>, affine_map<(d0, d1) -> (d0)>], round_dims_to = array<i64: 1, 32, 32>>>
  %6 = tensor.empty() : tensor<10xf32, #iree_encoding.encoding<operand_index = 2 : index, op_type =  matmul, element_types = [f32, f32, f32], user_indexing_maps = [affine_map<(d0, d1) -> (d1)>, affine_map<(d0, d1) -> (d1, d0)>, affine_map<(d0, d1) -> (d0)>], round_dims_to = array<i64: 1, 32, 32>>>
  %7 = linalg.fill ins(%cst_0 : f32) outs(%6 : tensor<10xf32, #iree_encoding.encoding<operand_index = 2 : index, op_type =  matmul, element_types = [f32, f32, f32], user_indexing_maps = [affine_map<(d0, d1) -> (d1)>, affine_map<(d0, d1) -> (d1, d0)>, affine_map<(d0, d1) -> (d0)>], round_dims_to = array<i64: 1, 32, 32>>>) -> tensor<10xf32, #iree_encoding.encoding<operand_index = 2 : index, op_type =  matmul, element_types = [f32, f32, f32], user_indexing_maps = [affine_map<(d0, d1) -> (d1)>, affine_map<(d0, d1) -> (d1, d0)>, affine_map<(d0, d1) -> (d0)>], round_dims_to = array<i64: 1, 32, 32>>>
  %8 = linalg.vecmat ins(%4, %5 : tensor<784xf32, #iree_encoding.encoding<operand_index = 0 : index, op_type =  matmul, element_types = [f32, f32, f32], user_indexing_maps = [affine_map<(d0, d1) -> (d1)>, affine_map<(d0, d1) -> (d1, d0)>, affine_map<(d0, d1) -> (d0)>], round_dims_to = array<i64: 1, 32, 32>>>, tensor<784x10xf32, #iree_encoding.encoding<operand_index = 1 : index, op_type =  matmul, element_types = [f32, f32, f32], user_indexing_maps = [affine_map<(d0, d1) -> (d1)>, affine_map<(d0, d1) -> (d1, d0)>, affine_map<(d0, d1) -> (d0)>], round_dims_to = array<i64: 1, 32, 32>>>) outs(%7 : tensor<10xf32, #iree_encoding.encoding<operand_index = 2 : index, op_type =  matmul, element_types = [f32, f32, f32], user_indexing_maps = [affine_map<(d0, d1) -> (d1)>, affine_map<(d0, d1) -> (d1, d0)>, affine_map<(d0, d1) -> (d0)>], round_dims_to = array<i64: 1, 32, 32>>>) -> tensor<10xf32, #iree_encoding.encoding<operand_index = 2 : index, op_type =  matmul, element_types = [f32, f32, f32], user_indexing_maps = [affine_map<(d0, d1) -> (d1)>, affine_map<(d0, d1) -> (d1, d0)>, affine_map<(d0, d1) -> (d0)>], round_dims_to = array<i64: 1, 32, 32>>>
  %9 = iree_encoding.unset_encoding %8 : tensor<10xf32, #iree_encoding.encoding<operand_index = 2 : index, op_type =  matmul, element_types = [f32, f32, f32], user_indexing_maps = [affine_map<(d0, d1) -> (d1)>, affine_map<(d0, d1) -> (d1, d0)>, affine_map<(d0, d1) -> (d0)>], round_dims_to = array<i64: 1, 32, 32>>> -> tensor<10xf32>
  %collapsed_1 = tensor.collapse_shape %2 [[0, 1]] : tensor<1x10xf32> into tensor<10xf32>
  %10 = linalg.generic {indexing_maps = [affine_map<(d0) -> (d0)>, affine_map<(d0) -> (d0)>, affine_map<(d0) -> (d0)>], iterator_types = ["parallel"]} ins(%9, %collapsed_1 : tensor<10xf32>, tensor<10xf32>) outs(%3 : tensor<10xf32>) {
  ^bb0(%in: f32, %in_2: f32, %out: f32):
    %13 = arith.addf %in, %in_2 : f32
    linalg.yield %13 : f32
  } -> tensor<10xf32>
  %11 = linalg.generic {indexing_maps = [affine_map<(d0) -> (d0)>, affine_map<(d0) -> (d0)>, affine_map<(d0) -> (d0)>], iterator_types = ["parallel"]} ins(%10, %cst : tensor<10xf32>, tensor<10xf32>) outs(%3 : tensor<10xf32>) {
  ^bb0(%in: f32, %in_2: f32, %out: f32):
    %13 = arith.maximumf %in, %in_2 : f32
    linalg.yield %13 : f32
  } -> tensor<10xf32>
  %expanded = tensor.expand_shape %11 [[0, 1]] output_shape [1, 10] : tensor<10xf32> into tensor<1x10xf32>
  %12 = hal.tensor.export %expanded "output0" : tensor<1x10xf32> -> !hal.buffer_view
  util.return %12 : !hal.buffer_view
}

// -----// IR Dump After MaterializeEncodingIntoNopPass (iree-codegen-materialize-encoding-into-nop) //----- //
util.func public @main(%arg0: !hal.buffer_view, %arg1: !hal.buffer_view, %arg2: !hal.buffer_view) -> !hal.buffer_view attributes {iree.abi.stub, iree.reflection = {iree.abi.declaration = "sync func @main(%input0: tensor<28x28xf32>, %input1: tensor<784x10xf32>, %input2: tensor<1x10xf32>) -> (%output0: tensor<1x10xf32>)"}} {
  %cst = arith.constant dense<0.000000e+00> : tensor<10xf32>
  %cst_0 = arith.constant 0.000000e+00 : f32
  %0 = hal.tensor.import %arg0 "input0" : !hal.buffer_view -> tensor<28x28xf32>
  %1 = hal.tensor.import %arg1 "input1" : !hal.buffer_view -> tensor<784x10xf32>
  %2 = hal.tensor.import %arg2 "input2" : !hal.buffer_view -> tensor<1x10xf32>
  %collapsed = tensor.collapse_shape %0 [[0, 1]] : tensor<28x28xf32> into tensor<784xf32>
  %3 = tensor.empty() : tensor<10xf32>
  %4 = tensor.empty() : tensor<10xf32>
  %5 = linalg.fill ins(%cst_0 : f32) outs(%4 : tensor<10xf32>) -> tensor<10xf32>
  %6 = linalg.vecmat ins(%collapsed, %1 : tensor<784xf32>, tensor<784x10xf32>) outs(%5 : tensor<10xf32>) -> tensor<10xf32>
  %collapsed_1 = tensor.collapse_shape %2 [[0, 1]] : tensor<1x10xf32> into tensor<10xf32>
  %7 = linalg.generic {indexing_maps = [affine_map<(d0) -> (d0)>, affine_map<(d0) -> (d0)>, affine_map<(d0) -> (d0)>], iterator_types = ["parallel"]} ins(%6, %collapsed_1 : tensor<10xf32>, tensor<10xf32>) outs(%3 : tensor<10xf32>) {
  ^bb0(%in: f32, %in_2: f32, %out: f32):
    %10 = arith.addf %in, %in_2 : f32
    linalg.yield %10 : f32
  } -> tensor<10xf32>
  %8 = linalg.generic {indexing_maps = [affine_map<(d0) -> (d0)>, affine_map<(d0) -> (d0)>, affine_map<(d0) -> (d0)>], iterator_types = ["parallel"]} ins(%7, %cst : tensor<10xf32>, tensor<10xf32>) outs(%3 : tensor<10xf32>) {
  ^bb0(%in: f32, %in_2: f32, %out: f32):
    %10 = arith.maximumf %in, %in_2 : f32
    linalg.yield %10 : f32
  } -> tensor<10xf32>
  %expanded = tensor.expand_shape %8 [[0, 1]] output_shape [1, 10] : tensor<10xf32> into tensor<1x10xf32>
  %9 = hal.tensor.export %expanded "output0" : tensor<1x10xf32> -> !hal.buffer_view
  util.return %9 : !hal.buffer_view
}

// -----// IR Dump After Canonicalizer (canonicalize) //----- //
util.func public @main(%arg0: !hal.buffer_view, %arg1: !hal.buffer_view, %arg2: !hal.buffer_view) -> !hal.buffer_view attributes {iree.abi.stub, iree.reflection = {iree.abi.declaration = "sync func @main(%input0: tensor<28x28xf32>, %input1: tensor<784x10xf32>, %input2: tensor<1x10xf32>) -> (%output0: tensor<1x10xf32>)"}} {
  %cst = arith.constant dense<0.000000e+00> : tensor<10xf32>
  %cst_0 = arith.constant 0.000000e+00 : f32
  %0 = hal.tensor.import %arg0 "input0" : !hal.buffer_view -> tensor<28x28xf32>
  %1 = hal.tensor.import %arg1 "input1" : !hal.buffer_view -> tensor<784x10xf32>
  %2 = hal.tensor.import %arg2 "input2" : !hal.buffer_view -> tensor<1x10xf32>
  %collapsed = tensor.collapse_shape %0 [[0, 1]] : tensor<28x28xf32> into tensor<784xf32>
  %3 = tensor.empty() : tensor<10xf32>
  %4 = tensor.empty() : tensor<10xf32>
  %5 = linalg.fill ins(%cst_0 : f32) outs(%4 : tensor<10xf32>) -> tensor<10xf32>
  %6 = linalg.vecmat ins(%collapsed, %1 : tensor<784xf32>, tensor<784x10xf32>) outs(%5 : tensor<10xf32>) -> tensor<10xf32>
  %collapsed_1 = tensor.collapse_shape %2 [[0, 1]] : tensor<1x10xf32> into tensor<10xf32>
  %7 = linalg.generic {indexing_maps = [affine_map<(d0) -> (d0)>, affine_map<(d0) -> (d0)>, affine_map<(d0) -> (d0)>], iterator_types = ["parallel"]} ins(%6, %collapsed_1 : tensor<10xf32>, tensor<10xf32>) outs(%3 : tensor<10xf32>) {
  ^bb0(%in: f32, %in_2: f32, %out: f32):
    %10 = arith.addf %in, %in_2 : f32
    linalg.yield %10 : f32
  } -> tensor<10xf32>
  %8 = linalg.generic {indexing_maps = [affine_map<(d0) -> (d0)>, affine_map<(d0) -> (d0)>, affine_map<(d0) -> (d0)>], iterator_types = ["parallel"]} ins(%7, %cst : tensor<10xf32>, tensor<10xf32>) outs(%3 : tensor<10xf32>) {
  ^bb0(%in: f32, %in_2: f32, %out: f32):
    %10 = arith.maximumf %in, %in_2 : f32
    linalg.yield %10 : f32
  } -> tensor<10xf32>
  %expanded = tensor.expand_shape %8 [[0, 1]] output_shape [1, 10] : tensor<10xf32> into tensor<1x10xf32>
  %9 = hal.tensor.export %expanded "output0" : tensor<1x10xf32> -> !hal.buffer_view
  util.return %9 : !hal.buffer_view
}

// -----// IR Dump After MaterializeHomogeneousEncodingsPass (iree-global-opt-materialize-homogeneous-encodings) //----- //
#executable_target_cuda_nvptx_fb = #hal.executable.target<"cuda", "cuda-nvptx-fb", {iree.gpu.target = #iree_gpu.target<arch = "sm_86", features = "+ptx76", wgp = <compute =  fp64|fp32|fp16|int64|int32|int16|int8, storage =  b64|b32|b16|b8, subgroup =  shuffle|arithmetic, dot =  dp4xi8toi32, mma = [<WMMA_F32_16x16x16_F16>, <WMMA_F16_16x16x16_F16>], subgroup_size_choices = [32], max_workgroup_sizes = [1024, 1024, 1024], max_thread_count_per_workgroup = 1024, max_workgroup_memory_bytes = 166912, max_workgroup_counts = [2147483647, 65535, 65535]>>}>
#map = affine_map<(d0) -> (d0)>
#device_target_cuda = #hal.device.target<"cuda", [#executable_target_cuda_nvptx_fb]> : !hal.device
module attributes {stream.affinity.default = #hal.device.affinity<@__device_0>} {
  util.global private @__device_0 = #device_target_cuda
  util.func public @main(%arg0: !hal.buffer_view, %arg1: !hal.buffer_view, %arg2: !hal.buffer_view) -> !hal.buffer_view attributes {iree.abi.stub, iree.reflection = {iree.abi.declaration = "sync func @main(%input0: tensor<28x28xf32>, %input1: tensor<784x10xf32>, %input2: tensor<1x10xf32>) -> (%output0: tensor<1x10xf32>)"}} {
    %cst = arith.constant dense<0.000000e+00> : tensor<10xf32>
    %cst_0 = arith.constant 0.000000e+00 : f32
    %0 = hal.tensor.import %arg0 "input0" : !hal.buffer_view -> tensor<28x28xf32>
    %1 = hal.tensor.import %arg1 "input1" : !hal.buffer_view -> tensor<784x10xf32>
    %2 = hal.tensor.import %arg2 "input2" : !hal.buffer_view -> tensor<1x10xf32>
    %collapsed = tensor.collapse_shape %0 [[0, 1]] : tensor<28x28xf32> into tensor<784xf32>
    %3 = tensor.empty() : tensor<10xf32>
    %4 = tensor.empty() : tensor<10xf32>
    %5 = linalg.fill ins(%cst_0 : f32) outs(%4 : tensor<10xf32>) -> tensor<10xf32>
    %6 = linalg.vecmat ins(%collapsed, %1 : tensor<784xf32>, tensor<784x10xf32>) outs(%5 : tensor<10xf32>) -> tensor<10xf32>
    %collapsed_1 = tensor.collapse_shape %2 [[0, 1]] : tensor<1x10xf32> into tensor<10xf32>
    %7 = linalg.generic {indexing_maps = [#map, #map, #map], iterator_types = ["parallel"]} ins(%6, %collapsed_1 : tensor<10xf32>, tensor<10xf32>) outs(%3 : tensor<10xf32>) {
    ^bb0(%in: f32, %in_2: f32, %out: f32):
      %10 = arith.addf %in, %in_2 : f32
      linalg.yield %10 : f32
    } -> tensor<10xf32>
    %8 = linalg.generic {indexing_maps = [#map, #map, #map], iterator_types = ["parallel"]} ins(%7, %cst : tensor<10xf32>, tensor<10xf32>) outs(%3 : tensor<10xf32>) {
    ^bb0(%in: f32, %in_2: f32, %out: f32):
      %10 = arith.maximumf %in, %in_2 : f32
      linalg.yield %10 : f32
    } -> tensor<10xf32>
    %expanded = tensor.expand_shape %8 [[0, 1]] output_shape [1, 10] : tensor<10xf32> into tensor<1x10xf32>
    %9 = hal.tensor.export %expanded "output0" : tensor<1x10xf32> -> !hal.buffer_view
    util.return %9 : !hal.buffer_view
  }
}


// -----// IR Dump After CanonicalizerPass (iree-flow-canonicalize) //----- //
#executable_target_cuda_nvptx_fb = #hal.executable.target<"cuda", "cuda-nvptx-fb", {iree.gpu.target = #iree_gpu.target<arch = "sm_86", features = "+ptx76", wgp = <compute =  fp64|fp32|fp16|int64|int32|int16|int8, storage =  b64|b32|b16|b8, subgroup =  shuffle|arithmetic, dot =  dp4xi8toi32, mma = [<WMMA_F32_16x16x16_F16>, <WMMA_F16_16x16x16_F16>], subgroup_size_choices = [32], max_workgroup_sizes = [1024, 1024, 1024], max_thread_count_per_workgroup = 1024, max_workgroup_memory_bytes = 166912, max_workgroup_counts = [2147483647, 65535, 65535]>>}>
#map = affine_map<(d0) -> (d0)>
#device_target_cuda = #hal.device.target<"cuda", [#executable_target_cuda_nvptx_fb]> : !hal.device
module attributes {stream.affinity.default = #hal.device.affinity<@__device_0>} {
  util.global private @__device_0 = #device_target_cuda
  util.func public @main(%arg0: !hal.buffer_view, %arg1: !hal.buffer_view, %arg2: !hal.buffer_view) -> !hal.buffer_view attributes {iree.abi.stub, iree.reflection = {iree.abi.declaration = "sync func @main(%input0: tensor<28x28xf32>, %input1: tensor<784x10xf32>, %input2: tensor<1x10xf32>) -> (%output0: tensor<1x10xf32>)"}} {
    %cst = arith.constant dense<0.000000e+00> : tensor<10xf32>
    %cst_0 = arith.constant 0.000000e+00 : f32
    %0 = hal.tensor.import %arg0 "input0" : !hal.buffer_view -> tensor<28x28xf32>
    %1 = hal.tensor.import %arg1 "input1" : !hal.buffer_view -> tensor<784x10xf32>
    %2 = hal.tensor.import %arg2 "input2" : !hal.buffer_view -> tensor<1x10xf32>
    %collapsed = tensor.collapse_shape %0 [[0, 1]] : tensor<28x28xf32> into tensor<784xf32>
    %3 = tensor.empty() : tensor<10xf32>
    %4 = tensor.empty() : tensor<10xf32>
    %5 = linalg.fill ins(%cst_0 : f32) outs(%4 : tensor<10xf32>) -> tensor<10xf32>
    %6 = linalg.vecmat ins(%collapsed, %1 : tensor<784xf32>, tensor<784x10xf32>) outs(%5 : tensor<10xf32>) -> tensor<10xf32>
    %collapsed_1 = tensor.collapse_shape %2 [[0, 1]] : tensor<1x10xf32> into tensor<10xf32>
    %7 = linalg.generic {indexing_maps = [#map, #map, #map], iterator_types = ["parallel"]} ins(%6, %collapsed_1 : tensor<10xf32>, tensor<10xf32>) outs(%3 : tensor<10xf32>) {
    ^bb0(%in: f32, %in_2: f32, %out: f32):
      %10 = arith.addf %in, %in_2 : f32
      linalg.yield %10 : f32
    } -> tensor<10xf32>
    %8 = linalg.generic {indexing_maps = [#map, #map, #map], iterator_types = ["parallel"]} ins(%7, %cst : tensor<10xf32>, tensor<10xf32>) outs(%3 : tensor<10xf32>) {
    ^bb0(%in: f32, %in_2: f32, %out: f32):
      %10 = arith.maximumf %in, %in_2 : f32
      linalg.yield %10 : f32
    } -> tensor<10xf32>
    %expanded = tensor.expand_shape %8 [[0, 1]] output_shape [1, 10] : tensor<10xf32> into tensor<1x10xf32>
    %9 = hal.tensor.export %expanded "output0" : tensor<1x10xf32> -> !hal.buffer_view
    util.return %9 : !hal.buffer_view
  }
}


// -----// IR Dump After CSE (cse) //----- //
#executable_target_cuda_nvptx_fb = #hal.executable.target<"cuda", "cuda-nvptx-fb", {iree.gpu.target = #iree_gpu.target<arch = "sm_86", features = "+ptx76", wgp = <compute =  fp64|fp32|fp16|int64|int32|int16|int8, storage =  b64|b32|b16|b8, subgroup =  shuffle|arithmetic, dot =  dp4xi8toi32, mma = [<WMMA_F32_16x16x16_F16>, <WMMA_F16_16x16x16_F16>], subgroup_size_choices = [32], max_workgroup_sizes = [1024, 1024, 1024], max_thread_count_per_workgroup = 1024, max_workgroup_memory_bytes = 166912, max_workgroup_counts = [2147483647, 65535, 65535]>>}>
#map = affine_map<(d0) -> (d0)>
#device_target_cuda = #hal.device.target<"cuda", [#executable_target_cuda_nvptx_fb]> : !hal.device
module attributes {stream.affinity.default = #hal.device.affinity<@__device_0>} {
  util.global private @__device_0 = #device_target_cuda
  util.func public @main(%arg0: !hal.buffer_view, %arg1: !hal.buffer_view, %arg2: !hal.buffer_view) -> !hal.buffer_view attributes {iree.abi.stub, iree.reflection = {iree.abi.declaration = "sync func @main(%input0: tensor<28x28xf32>, %input1: tensor<784x10xf32>, %input2: tensor<1x10xf32>) -> (%output0: tensor<1x10xf32>)"}} {
    %cst = arith.constant dense<0.000000e+00> : tensor<10xf32>
    %cst_0 = arith.constant 0.000000e+00 : f32
    %0 = hal.tensor.import %arg0 "input0" : !hal.buffer_view -> tensor<28x28xf32>
    %1 = hal.tensor.import %arg1 "input1" : !hal.buffer_view -> tensor<784x10xf32>
    %2 = hal.tensor.import %arg2 "input2" : !hal.buffer_view -> tensor<1x10xf32>
    %collapsed = tensor.collapse_shape %0 [[0, 1]] : tensor<28x28xf32> into tensor<784xf32>
    %3 = tensor.empty() : tensor<10xf32>
    %4 = linalg.fill ins(%cst_0 : f32) outs(%3 : tensor<10xf32>) -> tensor<10xf32>
    %5 = linalg.vecmat ins(%collapsed, %1 : tensor<784xf32>, tensor<784x10xf32>) outs(%4 : tensor<10xf32>) -> tensor<10xf32>
    %collapsed_1 = tensor.collapse_shape %2 [[0, 1]] : tensor<1x10xf32> into tensor<10xf32>
    %6 = linalg.generic {indexing_maps = [#map, #map, #map], iterator_types = ["parallel"]} ins(%5, %collapsed_1 : tensor<10xf32>, tensor<10xf32>) outs(%3 : tensor<10xf32>) {
    ^bb0(%in: f32, %in_2: f32, %out: f32):
      %9 = arith.addf %in, %in_2 : f32
      linalg.yield %9 : f32
    } -> tensor<10xf32>
    %7 = linalg.generic {indexing_maps = [#map, #map, #map], iterator_types = ["parallel"]} ins(%6, %cst : tensor<10xf32>, tensor<10xf32>) outs(%3 : tensor<10xf32>) {
    ^bb0(%in: f32, %in_2: f32, %out: f32):
      %9 = arith.maximumf %in, %in_2 : f32
      linalg.yield %9 : f32
    } -> tensor<10xf32>
    %expanded = tensor.expand_shape %7 [[0, 1]] output_shape [1, 10] : tensor<10xf32> into tensor<1x10xf32>
    %8 = hal.tensor.export %expanded "output0" : tensor<1x10xf32> -> !hal.buffer_view
    util.return %8 : !hal.buffer_view
  }
}


// -----// IR Dump After SimplifyPackUnpackPass (iree-global-opt-simplify-pack-unpack) //----- //
#executable_target_cuda_nvptx_fb = #hal.executable.target<"cuda", "cuda-nvptx-fb", {iree.gpu.target = #iree_gpu.target<arch = "sm_86", features = "+ptx76", wgp = <compute =  fp64|fp32|fp16|int64|int32|int16|int8, storage =  b64|b32|b16|b8, subgroup =  shuffle|arithmetic, dot =  dp4xi8toi32, mma = [<WMMA_F32_16x16x16_F16>, <WMMA_F16_16x16x16_F16>], subgroup_size_choices = [32], max_workgroup_sizes = [1024, 1024, 1024], max_thread_count_per_workgroup = 1024, max_workgroup_memory_bytes = 166912, max_workgroup_counts = [2147483647, 65535, 65535]>>}>
#map = affine_map<(d0) -> (d0)>
#device_target_cuda = #hal.device.target<"cuda", [#executable_target_cuda_nvptx_fb]> : !hal.device
module attributes {stream.affinity.default = #hal.device.affinity<@__device_0>} {
  util.global private @__device_0 = #device_target_cuda
  util.func public @main(%arg0: !hal.buffer_view, %arg1: !hal.buffer_view, %arg2: !hal.buffer_view) -> !hal.buffer_view attributes {iree.abi.stub, iree.reflection = {iree.abi.declaration = "sync func @main(%input0: tensor<28x28xf32>, %input1: tensor<784x10xf32>, %input2: tensor<1x10xf32>) -> (%output0: tensor<1x10xf32>)"}} {
    %cst = arith.constant dense<0.000000e+00> : tensor<10xf32>
    %cst_0 = arith.constant 0.000000e+00 : f32
    %0 = hal.tensor.import %arg0 "input0" : !hal.buffer_view -> tensor<28x28xf32>
    %1 = hal.tensor.import %arg1 "input1" : !hal.buffer_view -> tensor<784x10xf32>
    %2 = hal.tensor.import %arg2 "input2" : !hal.buffer_view -> tensor<1x10xf32>
    %collapsed = tensor.collapse_shape %0 [[0, 1]] : tensor<28x28xf32> into tensor<784xf32>
    %3 = tensor.empty() : tensor<10xf32>
    %4 = linalg.fill ins(%cst_0 : f32) outs(%3 : tensor<10xf32>) -> tensor<10xf32>
    %5 = linalg.vecmat ins(%collapsed, %1 : tensor<784xf32>, tensor<784x10xf32>) outs(%4 : tensor<10xf32>) -> tensor<10xf32>
    %collapsed_1 = tensor.collapse_shape %2 [[0, 1]] : tensor<1x10xf32> into tensor<10xf32>
    %6 = linalg.generic {indexing_maps = [#map, #map, #map], iterator_types = ["parallel"]} ins(%5, %collapsed_1 : tensor<10xf32>, tensor<10xf32>) outs(%3 : tensor<10xf32>) {
    ^bb0(%in: f32, %in_2: f32, %out: f32):
      %9 = arith.addf %in, %in_2 : f32
      linalg.yield %9 : f32
    } -> tensor<10xf32>
    %7 = linalg.generic {indexing_maps = [#map, #map, #map], iterator_types = ["parallel"]} ins(%6, %cst : tensor<10xf32>, tensor<10xf32>) outs(%3 : tensor<10xf32>) {
    ^bb0(%in: f32, %in_2: f32, %out: f32):
      %9 = arith.maximumf %in, %in_2 : f32
      linalg.yield %9 : f32
    } -> tensor<10xf32>
    %expanded = tensor.expand_shape %7 [[0, 1]] output_shape [1, 10] : tensor<10xf32> into tensor<1x10xf32>
    %8 = hal.tensor.export %expanded "output0" : tensor<1x10xf32> -> !hal.buffer_view
    util.return %8 : !hal.buffer_view
  }
}


// -----// IR Dump After DataLayoutPropagationPass (iree-global-opt-data-layout-propagation) //----- //
util.func public @main(%arg0: !hal.buffer_view, %arg1: !hal.buffer_view, %arg2: !hal.buffer_view) -> !hal.buffer_view attributes {iree.abi.stub, iree.reflection = {iree.abi.declaration = "sync func @main(%input0: tensor<28x28xf32>, %input1: tensor<784x10xf32>, %input2: tensor<1x10xf32>) -> (%output0: tensor<1x10xf32>)"}} {
  %cst = arith.constant dense<0.000000e+00> : tensor<10xf32>
  %cst_0 = arith.constant 0.000000e+00 : f32
  %0 = hal.tensor.import %arg0 "input0" : !hal.buffer_view -> tensor<28x28xf32>
  %1 = hal.tensor.import %arg1 "input1" : !hal.buffer_view -> tensor<784x10xf32>
  %2 = hal.tensor.import %arg2 "input2" : !hal.buffer_view -> tensor<1x10xf32>
  %collapsed = tensor.collapse_shape %0 [[0, 1]] : tensor<28x28xf32> into tensor<784xf32>
  %3 = tensor.empty() : tensor<10xf32>
  %4 = linalg.fill ins(%cst_0 : f32) outs(%3 : tensor<10xf32>) -> tensor<10xf32>
  %5 = linalg.vecmat ins(%collapsed, %1 : tensor<784xf32>, tensor<784x10xf32>) outs(%4 : tensor<10xf32>) -> tensor<10xf32>
  %collapsed_1 = tensor.collapse_shape %2 [[0, 1]] : tensor<1x10xf32> into tensor<10xf32>
  %6 = linalg.generic {indexing_maps = [affine_map<(d0) -> (d0)>, affine_map<(d0) -> (d0)>, affine_map<(d0) -> (d0)>], iterator_types = ["parallel"]} ins(%5, %collapsed_1 : tensor<10xf32>, tensor<10xf32>) outs(%3 : tensor<10xf32>) {
  ^bb0(%in: f32, %in_2: f32, %out: f32):
    %9 = arith.addf %in, %in_2 : f32
    linalg.yield %9 : f32
  } -> tensor<10xf32>
  %7 = linalg.generic {indexing_maps = [affine_map<(d0) -> (d0)>, affine_map<(d0) -> (d0)>, affine_map<(d0) -> (d0)>], iterator_types = ["parallel"]} ins(%6, %cst : tensor<10xf32>, tensor<10xf32>) outs(%3 : tensor<10xf32>) {
  ^bb0(%in: f32, %in_2: f32, %out: f32):
    %9 = arith.maximumf %in, %in_2 : f32
    linalg.yield %9 : f32
  } -> tensor<10xf32>
  %expanded = tensor.expand_shape %7 [[0, 1]] output_shape [1, 10] : tensor<10xf32> into tensor<1x10xf32>
  %8 = hal.tensor.export %expanded "output0" : tensor<1x10xf32> -> !hal.buffer_view
  util.return %8 : !hal.buffer_view
}

// -----// IR Dump After GeneralizeLinalgNamedOpsPass (iree-global-opt-generalize-linalg-named-ops) //----- //
util.func public @main(%arg0: !hal.buffer_view, %arg1: !hal.buffer_view, %arg2: !hal.buffer_view) -> !hal.buffer_view attributes {iree.abi.stub, iree.reflection = {iree.abi.declaration = "sync func @main(%input0: tensor<28x28xf32>, %input1: tensor<784x10xf32>, %input2: tensor<1x10xf32>) -> (%output0: tensor<1x10xf32>)"}} {
  %cst = arith.constant dense<0.000000e+00> : tensor<10xf32>
  %cst_0 = arith.constant 0.000000e+00 : f32
  %0 = hal.tensor.import %arg0 "input0" : !hal.buffer_view -> tensor<28x28xf32>
  %1 = hal.tensor.import %arg1 "input1" : !hal.buffer_view -> tensor<784x10xf32>
  %2 = hal.tensor.import %arg2 "input2" : !hal.buffer_view -> tensor<1x10xf32>
  %collapsed = tensor.collapse_shape %0 [[0, 1]] : tensor<28x28xf32> into tensor<784xf32>
  %3 = tensor.empty() : tensor<10xf32>
  %4 = linalg.fill ins(%cst_0 : f32) outs(%3 : tensor<10xf32>) -> tensor<10xf32>
  %5 = linalg.vecmat ins(%collapsed, %1 : tensor<784xf32>, tensor<784x10xf32>) outs(%4 : tensor<10xf32>) -> tensor<10xf32>
  %collapsed_1 = tensor.collapse_shape %2 [[0, 1]] : tensor<1x10xf32> into tensor<10xf32>
  %6 = linalg.generic {indexing_maps = [affine_map<(d0) -> (d0)>, affine_map<(d0) -> (d0)>, affine_map<(d0) -> (d0)>], iterator_types = ["parallel"]} ins(%5, %collapsed_1 : tensor<10xf32>, tensor<10xf32>) outs(%3 : tensor<10xf32>) {
  ^bb0(%in: f32, %in_2: f32, %out: f32):
    %9 = arith.addf %in, %in_2 : f32
    linalg.yield %9 : f32
  } -> tensor<10xf32>
  %7 = linalg.generic {indexing_maps = [affine_map<(d0) -> (d0)>, affine_map<(d0) -> (d0)>, affine_map<(d0) -> (d0)>], iterator_types = ["parallel"]} ins(%6, %cst : tensor<10xf32>, tensor<10xf32>) outs(%3 : tensor<10xf32>) {
  ^bb0(%in: f32, %in_2: f32, %out: f32):
    %9 = arith.maximumf %in, %in_2 : f32
    linalg.yield %9 : f32
  } -> tensor<10xf32>
  %expanded = tensor.expand_shape %7 [[0, 1]] output_shape [1, 10] : tensor<10xf32> into tensor<1x10xf32>
  %8 = hal.tensor.export %expanded "output0" : tensor<1x10xf32> -> !hal.buffer_view
  util.return %8 : !hal.buffer_view
}

// -----// IR Dump After GlobalLoopInvariantCodeMotionPass (iree-global-opt-loop-invariant-code-motion) //----- //
util.func public @main(%arg0: !hal.buffer_view, %arg1: !hal.buffer_view, %arg2: !hal.buffer_view) -> !hal.buffer_view attributes {iree.abi.stub, iree.reflection = {iree.abi.declaration = "sync func @main(%input0: tensor<28x28xf32>, %input1: tensor<784x10xf32>, %input2: tensor<1x10xf32>) -> (%output0: tensor<1x10xf32>)"}} {
  %cst = arith.constant dense<0.000000e+00> : tensor<10xf32>
  %cst_0 = arith.constant 0.000000e+00 : f32
  %0 = hal.tensor.import %arg0 "input0" : !hal.buffer_view -> tensor<28x28xf32>
  %1 = hal.tensor.import %arg1 "input1" : !hal.buffer_view -> tensor<784x10xf32>
  %2 = hal.tensor.import %arg2 "input2" : !hal.buffer_view -> tensor<1x10xf32>
  %collapsed = tensor.collapse_shape %0 [[0, 1]] : tensor<28x28xf32> into tensor<784xf32>
  %3 = tensor.empty() : tensor<10xf32>
  %4 = linalg.fill ins(%cst_0 : f32) outs(%3 : tensor<10xf32>) -> tensor<10xf32>
  %5 = linalg.vecmat ins(%collapsed, %1 : tensor<784xf32>, tensor<784x10xf32>) outs(%4 : tensor<10xf32>) -> tensor<10xf32>
  %collapsed_1 = tensor.collapse_shape %2 [[0, 1]] : tensor<1x10xf32> into tensor<10xf32>
  %6 = linalg.generic {indexing_maps = [affine_map<(d0) -> (d0)>, affine_map<(d0) -> (d0)>, affine_map<(d0) -> (d0)>], iterator_types = ["parallel"]} ins(%5, %collapsed_1 : tensor<10xf32>, tensor<10xf32>) outs(%3 : tensor<10xf32>) {
  ^bb0(%in: f32, %in_2: f32, %out: f32):
    %9 = arith.addf %in, %in_2 : f32
    linalg.yield %9 : f32
  } -> tensor<10xf32>
  %7 = linalg.generic {indexing_maps = [affine_map<(d0) -> (d0)>, affine_map<(d0) -> (d0)>, affine_map<(d0) -> (d0)>], iterator_types = ["parallel"]} ins(%6, %cst : tensor<10xf32>, tensor<10xf32>) outs(%3 : tensor<10xf32>) {
  ^bb0(%in: f32, %in_2: f32, %out: f32):
    %9 = arith.maximumf %in, %in_2 : f32
    linalg.yield %9 : f32
  } -> tensor<10xf32>
  %expanded = tensor.expand_shape %7 [[0, 1]] output_shape [1, 10] : tensor<10xf32> into tensor<1x10xf32>
  %8 = hal.tensor.export %expanded "output0" : tensor<1x10xf32> -> !hal.buffer_view
  util.return %8 : !hal.buffer_view
}

// -----// IR Dump After CanonicalizerPass (iree-flow-canonicalize) //----- //
util.func public @main(%arg0: !hal.buffer_view, %arg1: !hal.buffer_view, %arg2: !hal.buffer_view) -> !hal.buffer_view attributes {iree.abi.stub, iree.reflection = {iree.abi.declaration = "sync func @main(%input0: tensor<28x28xf32>, %input1: tensor<784x10xf32>, %input2: tensor<1x10xf32>) -> (%output0: tensor<1x10xf32>)"}} {
  %cst = arith.constant dense<0.000000e+00> : tensor<10xf32>
  %cst_0 = arith.constant 0.000000e+00 : f32
  %0 = hal.tensor.import %arg0 "input0" : !hal.buffer_view -> tensor<28x28xf32>
  %1 = hal.tensor.import %arg1 "input1" : !hal.buffer_view -> tensor<784x10xf32>
  %2 = hal.tensor.import %arg2 "input2" : !hal.buffer_view -> tensor<1x10xf32>
  %collapsed = tensor.collapse_shape %0 [[0, 1]] : tensor<28x28xf32> into tensor<784xf32>
  %3 = tensor.empty() : tensor<10xf32>
  %4 = linalg.fill ins(%cst_0 : f32) outs(%3 : tensor<10xf32>) -> tensor<10xf32>
  %5 = linalg.vecmat ins(%collapsed, %1 : tensor<784xf32>, tensor<784x10xf32>) outs(%4 : tensor<10xf32>) -> tensor<10xf32>
  %collapsed_1 = tensor.collapse_shape %2 [[0, 1]] : tensor<1x10xf32> into tensor<10xf32>
  %6 = linalg.generic {indexing_maps = [affine_map<(d0) -> (d0)>, affine_map<(d0) -> (d0)>, affine_map<(d0) -> (d0)>], iterator_types = ["parallel"]} ins(%5, %collapsed_1 : tensor<10xf32>, tensor<10xf32>) outs(%3 : tensor<10xf32>) {
  ^bb0(%in: f32, %in_2: f32, %out: f32):
    %9 = arith.addf %in, %in_2 : f32
    linalg.yield %9 : f32
  } -> tensor<10xf32>
  %7 = linalg.generic {indexing_maps = [affine_map<(d0) -> (d0)>, affine_map<(d0) -> (d0)>, affine_map<(d0) -> (d0)>], iterator_types = ["parallel"]} ins(%6, %cst : tensor<10xf32>, tensor<10xf32>) outs(%3 : tensor<10xf32>) {
  ^bb0(%in: f32, %in_2: f32, %out: f32):
    %9 = arith.maximumf %in, %in_2 : f32
    linalg.yield %9 : f32
  } -> tensor<10xf32>
  %expanded = tensor.expand_shape %7 [[0, 1]] output_shape [1, 10] : tensor<10xf32> into tensor<1x10xf32>
  %8 = hal.tensor.export %expanded "output0" : tensor<1x10xf32> -> !hal.buffer_view
  util.return %8 : !hal.buffer_view
}

// -----// IR Dump After CSE (cse) //----- //
util.func public @main(%arg0: !hal.buffer_view, %arg1: !hal.buffer_view, %arg2: !hal.buffer_view) -> !hal.buffer_view attributes {iree.abi.stub, iree.reflection = {iree.abi.declaration = "sync func @main(%input0: tensor<28x28xf32>, %input1: tensor<784x10xf32>, %input2: tensor<1x10xf32>) -> (%output0: tensor<1x10xf32>)"}} {
  %cst = arith.constant dense<0.000000e+00> : tensor<10xf32>
  %cst_0 = arith.constant 0.000000e+00 : f32
  %0 = hal.tensor.import %arg0 "input0" : !hal.buffer_view -> tensor<28x28xf32>
  %1 = hal.tensor.import %arg1 "input1" : !hal.buffer_view -> tensor<784x10xf32>
  %2 = hal.tensor.import %arg2 "input2" : !hal.buffer_view -> tensor<1x10xf32>
  %collapsed = tensor.collapse_shape %0 [[0, 1]] : tensor<28x28xf32> into tensor<784xf32>
  %3 = tensor.empty() : tensor<10xf32>
  %4 = linalg.fill ins(%cst_0 : f32) outs(%3 : tensor<10xf32>) -> tensor<10xf32>
  %5 = linalg.vecmat ins(%collapsed, %1 : tensor<784xf32>, tensor<784x10xf32>) outs(%4 : tensor<10xf32>) -> tensor<10xf32>
  %collapsed_1 = tensor.collapse_shape %2 [[0, 1]] : tensor<1x10xf32> into tensor<10xf32>
  %6 = linalg.generic {indexing_maps = [affine_map<(d0) -> (d0)>, affine_map<(d0) -> (d0)>, affine_map<(d0) -> (d0)>], iterator_types = ["parallel"]} ins(%5, %collapsed_1 : tensor<10xf32>, tensor<10xf32>) outs(%3 : tensor<10xf32>) {
  ^bb0(%in: f32, %in_2: f32, %out: f32):
    %9 = arith.addf %in, %in_2 : f32
    linalg.yield %9 : f32
  } -> tensor<10xf32>
  %7 = linalg.generic {indexing_maps = [affine_map<(d0) -> (d0)>, affine_map<(d0) -> (d0)>, affine_map<(d0) -> (d0)>], iterator_types = ["parallel"]} ins(%6, %cst : tensor<10xf32>, tensor<10xf32>) outs(%3 : tensor<10xf32>) {
  ^bb0(%in: f32, %in_2: f32, %out: f32):
    %9 = arith.maximumf %in, %in_2 : f32
    linalg.yield %9 : f32
  } -> tensor<10xf32>
  %expanded = tensor.expand_shape %7 [[0, 1]] output_shape [1, 10] : tensor<10xf32> into tensor<1x10xf32>
  %8 = hal.tensor.export %expanded "output0" : tensor<1x10xf32> -> !hal.buffer_view
  util.return %8 : !hal.buffer_view
}

// -----// IR Dump After SimplifyGlobalAccesses (iree-util-simplify-global-accesses) //----- //
util.func public @main(%arg0: !hal.buffer_view, %arg1: !hal.buffer_view, %arg2: !hal.buffer_view) -> !hal.buffer_view attributes {iree.abi.stub, iree.reflection = {iree.abi.declaration = "sync func @main(%input0: tensor<28x28xf32>, %input1: tensor<784x10xf32>, %input2: tensor<1x10xf32>) -> (%output0: tensor<1x10xf32>)"}} {
  %cst = arith.constant dense<0.000000e+00> : tensor<10xf32>
  %cst_0 = arith.constant 0.000000e+00 : f32
  %0 = hal.tensor.import %arg0 "input0" : !hal.buffer_view -> tensor<28x28xf32>
  %1 = hal.tensor.import %arg1 "input1" : !hal.buffer_view -> tensor<784x10xf32>
  %2 = hal.tensor.import %arg2 "input2" : !hal.buffer_view -> tensor<1x10xf32>
  %collapsed = tensor.collapse_shape %0 [[0, 1]] : tensor<28x28xf32> into tensor<784xf32>
  %3 = tensor.empty() : tensor<10xf32>
  %4 = linalg.fill ins(%cst_0 : f32) outs(%3 : tensor<10xf32>) -> tensor<10xf32>
  %5 = linalg.vecmat ins(%collapsed, %1 : tensor<784xf32>, tensor<784x10xf32>) outs(%4 : tensor<10xf32>) -> tensor<10xf32>
  %collapsed_1 = tensor.collapse_shape %2 [[0, 1]] : tensor<1x10xf32> into tensor<10xf32>
  %6 = linalg.generic {indexing_maps = [affine_map<(d0) -> (d0)>, affine_map<(d0) -> (d0)>, affine_map<(d0) -> (d0)>], iterator_types = ["parallel"]} ins(%5, %collapsed_1 : tensor<10xf32>, tensor<10xf32>) outs(%3 : tensor<10xf32>) {
  ^bb0(%in: f32, %in_2: f32, %out: f32):
    %9 = arith.addf %in, %in_2 : f32
    linalg.yield %9 : f32
  } -> tensor<10xf32>
  %7 = linalg.generic {indexing_maps = [affine_map<(d0) -> (d0)>, affine_map<(d0) -> (d0)>, affine_map<(d0) -> (d0)>], iterator_types = ["parallel"]} ins(%6, %cst : tensor<10xf32>, tensor<10xf32>) outs(%3 : tensor<10xf32>) {
  ^bb0(%in: f32, %in_2: f32, %out: f32):
    %9 = arith.maximumf %in, %in_2 : f32
    linalg.yield %9 : f32
  } -> tensor<10xf32>
  %expanded = tensor.expand_shape %7 [[0, 1]] output_shape [1, 10] : tensor<10xf32> into tensor<1x10xf32>
  %8 = hal.tensor.export %expanded "output0" : tensor<1x10xf32> -> !hal.buffer_view
  util.return %8 : !hal.buffer_view
}

// -----// IR Dump After ApplyPatterns (iree-util-apply-patterns) //----- //
util.func public @main(%arg0: !hal.buffer_view, %arg1: !hal.buffer_view, %arg2: !hal.buffer_view) -> !hal.buffer_view attributes {iree.abi.stub, iree.reflection = {iree.abi.declaration = "sync func @main(%input0: tensor<28x28xf32>, %input1: tensor<784x10xf32>, %input2: tensor<1x10xf32>) -> (%output0: tensor<1x10xf32>)"}} {
  %cst = arith.constant dense<0.000000e+00> : tensor<10xf32>
  %cst_0 = arith.constant 0.000000e+00 : f32
  %0 = hal.tensor.import %arg0 "input0" : !hal.buffer_view -> tensor<28x28xf32>
  %1 = hal.tensor.import %arg1 "input1" : !hal.buffer_view -> tensor<784x10xf32>
  %2 = hal.tensor.import %arg2 "input2" : !hal.buffer_view -> tensor<1x10xf32>
  %collapsed = tensor.collapse_shape %0 [[0, 1]] : tensor<28x28xf32> into tensor<784xf32>
  %3 = tensor.empty() : tensor<10xf32>
  %4 = linalg.fill ins(%cst_0 : f32) outs(%3 : tensor<10xf32>) -> tensor<10xf32>
  %5 = linalg.vecmat ins(%collapsed, %1 : tensor<784xf32>, tensor<784x10xf32>) outs(%4 : tensor<10xf32>) -> tensor<10xf32>
  %collapsed_1 = tensor.collapse_shape %2 [[0, 1]] : tensor<1x10xf32> into tensor<10xf32>
  %6 = linalg.generic {indexing_maps = [affine_map<(d0) -> (d0)>, affine_map<(d0) -> (d0)>, affine_map<(d0) -> (d0)>], iterator_types = ["parallel"]} ins(%5, %collapsed_1 : tensor<10xf32>, tensor<10xf32>) outs(%3 : tensor<10xf32>) {
  ^bb0(%in: f32, %in_2: f32, %out: f32):
    %9 = arith.addf %in, %in_2 : f32
    linalg.yield %9 : f32
  } -> tensor<10xf32>
  %7 = linalg.generic {indexing_maps = [affine_map<(d0) -> (d0)>, affine_map<(d0) -> (d0)>, affine_map<(d0) -> (d0)>], iterator_types = ["parallel"]} ins(%6, %cst : tensor<10xf32>, tensor<10xf32>) outs(%3 : tensor<10xf32>) {
  ^bb0(%in: f32, %in_2: f32, %out: f32):
    %9 = arith.maximumf %in, %in_2 : f32
    linalg.yield %9 : f32
  } -> tensor<10xf32>
  %expanded = tensor.expand_shape %7 [[0, 1]] output_shape [1, 10] : tensor<10xf32> into tensor<1x10xf32>
  %8 = hal.tensor.export %expanded "output0" : tensor<1x10xf32> -> !hal.buffer_view
  util.return %8 : !hal.buffer_view
}

// -----// IR Dump After FoldGlobals (iree-util-fold-globals) //----- //
#executable_target_cuda_nvptx_fb = #hal.executable.target<"cuda", "cuda-nvptx-fb", {iree.gpu.target = #iree_gpu.target<arch = "sm_86", features = "+ptx76", wgp = <compute =  fp64|fp32|fp16|int64|int32|int16|int8, storage =  b64|b32|b16|b8, subgroup =  shuffle|arithmetic, dot =  dp4xi8toi32, mma = [<WMMA_F32_16x16x16_F16>, <WMMA_F16_16x16x16_F16>], subgroup_size_choices = [32], max_workgroup_sizes = [1024, 1024, 1024], max_thread_count_per_workgroup = 1024, max_workgroup_memory_bytes = 166912, max_workgroup_counts = [2147483647, 65535, 65535]>>}>
#map = affine_map<(d0) -> (d0)>
#device_target_cuda = #hal.device.target<"cuda", [#executable_target_cuda_nvptx_fb]> : !hal.device
module attributes {stream.affinity.default = #hal.device.affinity<@__device_0>} {
  util.global private @__device_0 = #device_target_cuda
  util.func public @main(%arg0: !hal.buffer_view, %arg1: !hal.buffer_view, %arg2: !hal.buffer_view) -> !hal.buffer_view attributes {iree.abi.stub, iree.reflection = {iree.abi.declaration = "sync func @main(%input0: tensor<28x28xf32>, %input1: tensor<784x10xf32>, %input2: tensor<1x10xf32>) -> (%output0: tensor<1x10xf32>)"}} {
    %cst = arith.constant dense<0.000000e+00> : tensor<10xf32>
    %cst_0 = arith.constant 0.000000e+00 : f32
    %0 = hal.tensor.import %arg0 "input0" : !hal.buffer_view -> tensor<28x28xf32>
    %1 = hal.tensor.import %arg1 "input1" : !hal.buffer_view -> tensor<784x10xf32>
    %2 = hal.tensor.import %arg2 "input2" : !hal.buffer_view -> tensor<1x10xf32>
    %collapsed = tensor.collapse_shape %0 [[0, 1]] : tensor<28x28xf32> into tensor<784xf32>
    %3 = tensor.empty() : tensor<10xf32>
    %4 = linalg.fill ins(%cst_0 : f32) outs(%3 : tensor<10xf32>) -> tensor<10xf32>
    %5 = linalg.vecmat ins(%collapsed, %1 : tensor<784xf32>, tensor<784x10xf32>) outs(%4 : tensor<10xf32>) -> tensor<10xf32>
    %collapsed_1 = tensor.collapse_shape %2 [[0, 1]] : tensor<1x10xf32> into tensor<10xf32>
    %6 = linalg.generic {indexing_maps = [#map, #map, #map], iterator_types = ["parallel"]} ins(%5, %collapsed_1 : tensor<10xf32>, tensor<10xf32>) outs(%3 : tensor<10xf32>) {
    ^bb0(%in: f32, %in_2: f32, %out: f32):
      %9 = arith.addf %in, %in_2 : f32
      linalg.yield %9 : f32
    } -> tensor<10xf32>
    %7 = linalg.generic {indexing_maps = [#map, #map, #map], iterator_types = ["parallel"]} ins(%6, %cst : tensor<10xf32>, tensor<10xf32>) outs(%3 : tensor<10xf32>) {
    ^bb0(%in: f32, %in_2: f32, %out: f32):
      %9 = arith.maximumf %in, %in_2 : f32
      linalg.yield %9 : f32
    } -> tensor<10xf32>
    %expanded = tensor.expand_shape %7 [[0, 1]] output_shape [1, 10] : tensor<10xf32> into tensor<1x10xf32>
    %8 = hal.tensor.export %expanded "output0" : tensor<1x10xf32> -> !hal.buffer_view
    util.return %8 : !hal.buffer_view
  }
}


// -----// IR Dump After IPO (iree-util-ipo) //----- //
#executable_target_cuda_nvptx_fb = #hal.executable.target<"cuda", "cuda-nvptx-fb", {iree.gpu.target = #iree_gpu.target<arch = "sm_86", features = "+ptx76", wgp = <compute =  fp64|fp32|fp16|int64|int32|int16|int8, storage =  b64|b32|b16|b8, subgroup =  shuffle|arithmetic, dot =  dp4xi8toi32, mma = [<WMMA_F32_16x16x16_F16>, <WMMA_F16_16x16x16_F16>], subgroup_size_choices = [32], max_workgroup_sizes = [1024, 1024, 1024], max_thread_count_per_workgroup = 1024, max_workgroup_memory_bytes = 166912, max_workgroup_counts = [2147483647, 65535, 65535]>>}>
#map = affine_map<(d0) -> (d0)>
#device_target_cuda = #hal.device.target<"cuda", [#executable_target_cuda_nvptx_fb]> : !hal.device
module attributes {stream.affinity.default = #hal.device.affinity<@__device_0>} {
  util.global private @__device_0 = #device_target_cuda
  util.func public @main(%arg0: !hal.buffer_view, %arg1: !hal.buffer_view, %arg2: !hal.buffer_view) -> !hal.buffer_view attributes {iree.abi.stub, iree.reflection = {iree.abi.declaration = "sync func @main(%input0: tensor<28x28xf32>, %input1: tensor<784x10xf32>, %input2: tensor<1x10xf32>) -> (%output0: tensor<1x10xf32>)"}} {
    %cst = arith.constant dense<0.000000e+00> : tensor<10xf32>
    %cst_0 = arith.constant 0.000000e+00 : f32
    %0 = hal.tensor.import %arg0 "input0" : !hal.buffer_view -> tensor<28x28xf32>
    %1 = hal.tensor.import %arg1 "input1" : !hal.buffer_view -> tensor<784x10xf32>
    %2 = hal.tensor.import %arg2 "input2" : !hal.buffer_view -> tensor<1x10xf32>
    %collapsed = tensor.collapse_shape %0 [[0, 1]] : tensor<28x28xf32> into tensor<784xf32>
    %3 = tensor.empty() : tensor<10xf32>
    %4 = linalg.fill ins(%cst_0 : f32) outs(%3 : tensor<10xf32>) -> tensor<10xf32>
    %5 = linalg.vecmat ins(%collapsed, %1 : tensor<784xf32>, tensor<784x10xf32>) outs(%4 : tensor<10xf32>) -> tensor<10xf32>
    %collapsed_1 = tensor.collapse_shape %2 [[0, 1]] : tensor<1x10xf32> into tensor<10xf32>
    %6 = linalg.generic {indexing_maps = [#map, #map, #map], iterator_types = ["parallel"]} ins(%5, %collapsed_1 : tensor<10xf32>, tensor<10xf32>) outs(%3 : tensor<10xf32>) {
    ^bb0(%in: f32, %in_2: f32, %out: f32):
      %9 = arith.addf %in, %in_2 : f32
      linalg.yield %9 : f32
    } -> tensor<10xf32>
    %7 = linalg.generic {indexing_maps = [#map, #map, #map], iterator_types = ["parallel"]} ins(%6, %cst : tensor<10xf32>, tensor<10xf32>) outs(%3 : tensor<10xf32>) {
    ^bb0(%in: f32, %in_2: f32, %out: f32):
      %9 = arith.maximumf %in, %in_2 : f32
      linalg.yield %9 : f32
    } -> tensor<10xf32>
    %expanded = tensor.expand_shape %7 [[0, 1]] output_shape [1, 10] : tensor<10xf32> into tensor<1x10xf32>
    %8 = hal.tensor.export %expanded "output0" : tensor<1x10xf32> -> !hal.buffer_view
    util.return %8 : !hal.buffer_view
  }
}


// -----// IR Dump After OptimizeIntArithmetic (iree-util-optimize-int-arithmetic) //----- //
util.func public @main(%arg0: !hal.buffer_view, %arg1: !hal.buffer_view, %arg2: !hal.buffer_view) -> !hal.buffer_view attributes {iree.abi.stub, iree.reflection = {iree.abi.declaration = "sync func @main(%input0: tensor<28x28xf32>, %input1: tensor<784x10xf32>, %input2: tensor<1x10xf32>) -> (%output0: tensor<1x10xf32>)"}} {
  %cst = arith.constant dense<0.000000e+00> : tensor<10xf32>
  %cst_0 = arith.constant 0.000000e+00 : f32
  %0 = hal.tensor.import %arg0 "input0" : !hal.buffer_view -> tensor<28x28xf32>
  %1 = hal.tensor.import %arg1 "input1" : !hal.buffer_view -> tensor<784x10xf32>
  %2 = hal.tensor.import %arg2 "input2" : !hal.buffer_view -> tensor<1x10xf32>
  %collapsed = tensor.collapse_shape %0 [[0, 1]] : tensor<28x28xf32> into tensor<784xf32>
  %3 = tensor.empty() : tensor<10xf32>
  %4 = linalg.fill ins(%cst_0 : f32) outs(%3 : tensor<10xf32>) -> tensor<10xf32>
  %5 = linalg.vecmat ins(%collapsed, %1 : tensor<784xf32>, tensor<784x10xf32>) outs(%4 : tensor<10xf32>) -> tensor<10xf32>
  %collapsed_1 = tensor.collapse_shape %2 [[0, 1]] : tensor<1x10xf32> into tensor<10xf32>
  %6 = linalg.generic {indexing_maps = [affine_map<(d0) -> (d0)>, affine_map<(d0) -> (d0)>, affine_map<(d0) -> (d0)>], iterator_types = ["parallel"]} ins(%5, %collapsed_1 : tensor<10xf32>, tensor<10xf32>) outs(%3 : tensor<10xf32>) {
  ^bb0(%in: f32, %in_2: f32, %out: f32):
    %9 = arith.addf %in, %in_2 : f32
    linalg.yield %9 : f32
  } -> tensor<10xf32>
…
    %_utf8_cuda_EC9D846C9E731CDE = vm.const.ref.rodata @_utf8_cuda_EC9D846C9E731CDE : !vm.buffer
    %8:2 = vm.call @hal.device.query.i64(%ref, %_utf8_hal_device_id_C1DCB7DBC4F49AE6, %_utf8_cuda_EC9D846C9E731CDE) {nosideeffects} : (!vm.ref<!hal.device>, !vm.buffer, !vm.buffer) -> (i32, i64)
    %nz = vm.cmp.nz.i64 %8#1 : i64
    %9 = vm.select.i32 %8#0, %nz, %zero : i32
    vm.cond_br %9, ^bb3, ^bb4(%zero : i32)
  ^bb3:  // pred: ^bb2
    %_utf8_hal_executable_format_EAB228F999C2D3A1 = vm.const.ref.rodata @_utf8_hal_executable_format_EAB228F999C2D3A1 : !vm.buffer
    %_utf8_cuda_nvptx_fb_B15B42B96FDBACC = vm.const.ref.rodata @_utf8_cuda_nvptx_fb_B15B42B96FDBACC : !vm.buffer
    %10:2 = vm.call @hal.device.query.i64(%ref, %_utf8_hal_executable_format_EAB228F999C2D3A1, %_utf8_cuda_nvptx_fb_B15B42B96FDBACC) {nosideeffects} : (!vm.ref<!hal.device>, !vm.buffer, !vm.buffer) -> (i32, i64)
    %nz_3 = vm.cmp.nz.i64 %10#1 : i64
    %11 = vm.select.i32 %10#0, %nz_3, %zero : i32
    vm.br ^bb4(%11 : i32)
  ^bb4(%12: i32):  // 2 preds: ^bb2, ^bb3
    %eq = vm.cmp.eq.i64 %3, %zero_0 : i64
    %13 = vm.select.i64 %12, %c1_1, %zero_0 : i64
    %14 = vm.add.i64 %3, %13 : i64
    %15 = vm.and.i32 %12, %eq : i32
    %ref_4 = vm.select.ref %15, %ref, %null_2 : !vm.ref<!hal.device>
    %16 = vm.add.i64 %2, %c1_1 : i64
    vm.br ^bb1(%16, %14, %ref_4 : i64, i64, !vm.ref<!hal.device>)
  ^bb5:  // pred: ^bb1
    vm.cond_br %5, ^bb6, ^bb7
  ^bb6:  // pred: ^bb5
    vm.fail %c18, "HAL device `__device_0` not found or unavailable: #hal.device.target<\22cuda\22, [#hal.executable.target<\22cuda\22, \22cuda-nvptx-fb\22, {iree.gpu.target = #iree_gpu.target<arch = \22sm_86\22, features = \22+ptx76\22, wgp = <compute =  fp64|fp32|fp16|int64|int32|int16|int8, storage =  b64|b32|b16|b8, subgroup =  shuffle|arithmetic, dot =  dp4xi8toi32, mma = [<WMMA_F32_16x16x16_F16>, <WMMA_F16_16x16x16_F16>], subgroup_size_choices = [32], max_workgroup_sizes = [1024, 1024, 1024], max_thread_count_per_workgroup = 1024, max_workgroup_memory_bytes = 166912, max_workgroup_counts = [2147483647, 65535, 65535]>>}>]>"
  ^bb7:  // pred: ^bb5
    %_utf8_hal_executable_format_EAB228F999C2D3A1_5 = vm.const.ref.rodata @_utf8_hal_executable_format_EAB228F999C2D3A1 : !vm.buffer
    %_utf8_cuda_nvptx_fb_B15B42B96FDBACC_6 = vm.const.ref.rodata @_utf8_cuda_nvptx_fb_B15B42B96FDBACC : !vm.buffer
    %17:2 = vm.call @hal.device.query.i64(%4, %_utf8_hal_executable_format_EAB228F999C2D3A1_5, %_utf8_cuda_nvptx_fb_B15B42B96FDBACC_6) {nosideeffects} : (!vm.ref<!hal.device>, !vm.buffer, !vm.buffer) -> (i32, i64)
    %nz_7 = vm.cmp.nz.i64 %17#1 : i64
    %18 = vm.select.i32 %17#0, %nz_7, %zero : i32
    %19 = vm.select.i64 %18, %zero_0, %c-1 : i64
    %eq_8 = vm.cmp.eq.i64 %19, %zero_0 : i64
    vm.global.store.ref %4, @__device_0 : !vm.ref<!hal.device>
    vm.cond_br %eq_8, ^bb8, ^bb9
  ^bb8:  // pred: ^bb7
    %main_dispatch_0_cuda_nvptx_fb = vm.const.ref.rodata @main_dispatch_0_cuda_nvptx_fb : !vm.buffer
    %ref_9 = vm.call @hal.executable.create(%4, %_utf8_cuda_nvptx_fb_B15B42B96FDBACC_6, %main_dispatch_0_cuda_nvptx_fb, %null) {nosideeffects} : (!vm.ref<!hal.device>, !vm.buffer, !vm.buffer, !vm.buffer) -> !vm.ref<!hal.executable>
    vm.global.store.ref %ref_9, @__device_0_executable_0_main_dispatch_0 : !vm.ref<!hal.executable>
    %ref_10 = vm.call @__main_memoize_apply() : () -> !vm.ref<!hal.command_buffer>
    vm.global.store.ref %ref_10, @__main_memoize_result_0_device_0 : !vm.ref<!hal.command_buffer>
    vm.return
  ^bb9:  // pred: ^bb7
    vm.fail %c14, "HAL device `__device_0` does not support any variant of executable `main_dispatch_0`; available formats: [cuda-nvptx-fb]"
  }
}

// -----// IR Dump After Canonicalizer (canonicalize) //----- //
vm.module public @module {
  vm.global.ref private mutable @__device_0 : !vm.ref<!hal.device>
  vm.rodata private @_utf8_hal_device_id_C1DCB7DBC4F49AE6 {alignment = 1 : i64} "hal.device.id"
  vm.rodata private @_utf8_cuda_EC9D846C9E731CDE {alignment = 1 : i64} "cuda"
  vm.rodata private @_utf8_hal_executable_format_EAB228F999C2D3A1 {alignment = 1 : i64} "hal.executable.format"
  vm.rodata private @_utf8_cuda_nvptx_fb_B15B42B96FDBACC {alignment = 1 : i64} "cuda-nvptx-fb"
  vm.rodata private @main_dispatch_0_cuda_nvptx_fb {alignment = 16 : i64} dense<"…"> : vector<2080xi8>
  vm.global.ref private mutable @__device_0_executable_0_main_dispatch_0 : !vm.ref<!hal.executable>
  vm.func private @__main_memoize_apply() -> !vm.ref<!hal.command_buffer> attributes {inlining_policy = #util.inline.never} {
    %c13 = vm.const.i32 13
    %c28 = vm.const.i32 28
    %c2 = vm.const.i32 2
    %null = vm.const.ref.zero : !vm.ref<!hal.buffer>
    %c1 = vm.const.i32 1
    %c4 = vm.const.i32 4
    %c3 = vm.const.i32 3
    %zero = vm.const.i32.zero
    %c40 = vm.const.i64 40
    %c31360 = vm.const.i64 31360
    %c3136 = vm.const.i64 3136
    %zero_0 = vm.const.i64.zero
    %c-1 = vm.const.i64 -1
    %__device_0 = vm.global.load.ref @__device_0 : !vm.ref<!hal.device>
    %__device_0_executable_0_main_dispatch_0 = vm.global.load.ref @__device_0_executable_0_main_dispatch_0 : !vm.ref<!hal.executable>
    %ref = vm.call @hal.command_buffer.create(%__device_0, %zero, %c3, %c-1, %c4) : (!vm.ref<!hal.device>, i32, i32, i64, i32) -> !vm.ref<!hal.command_buffer>
    vm.call.variadic @hal.command_buffer.dispatch(%ref, %__device_0_executable_0_main_dispatch_0, %zero, %c1, %c1, %c1, %zero_0, [], [(%zero, %zero, %null, %zero_0, %c3136), (%zero, %c1, %null, %zero_0, %c31360), (%zero, %c2, %null, %zero_0, %c40), (%zero, %c3, %null, %zero_0, %c40)]) : (!vm.ref<!hal.command_buffer>, !vm.ref<!hal.executable>, i32, i32, i32, i32, i64, i32 ..., tuple<i32, i32, !vm.ref<!hal.buffer>, i64, i64> ...)
    vm.call @hal.command_buffer.execution_barrier(%ref, %c28, %c13, %zero) : (!vm.ref<!hal.command_buffer>, i32, i32, i32) -> ()
    vm.call @hal.command_buffer.finalize(%ref) : (!vm.ref<!hal.command_buffer>) -> ()
    vm.return %ref : !vm.ref<!hal.command_buffer>
  }
  vm.global.ref private mutable @__main_memoize_result_0_device_0 : !vm.ref<!hal.command_buffer>
  vm.import private @hal.buffer.assert(%buffer : !vm.ref<!hal.buffer>, %message : !vm.buffer, %allocator : !vm.ref<!hal.allocator>, %minimum_length : i64, %memory_types : i32, %buffer_usage : i32)
  vm.import private @hal.buffer_view.create(%buffer : !vm.ref<!hal.buffer>, %source_offset : i64, %source_length : i64, %element_type : i32, %encoding_type : i32, %shape : i64 ...) -> !vm.ref<!hal.buffer_view> attributes {nosideeffects}
  vm.import private @hal.buffer_view.assert(%buffer_view : !vm.ref<!hal.buffer_view>, %message : !vm.buffer, %element_type : i32, %encoding_type : i32, %shape : i64 ...)
  vm.import private @hal.buffer_view.buffer(%buffer_view : !vm.ref<!hal.buffer_view>) -> !vm.ref<!hal.buffer> attributes {nosideeffects}
  vm.import private @hal.command_buffer.create(%device : !vm.ref<!hal.device>, %modes : i32, %command_categories : i32, %queue_affinity : i64, %binding_capacity : i32) -> !vm.ref<!hal.command_buffer> attributes {minimum_version = 5 : i32}
  vm.import private @hal.command_buffer.finalize(%command_buffer : !vm.ref<!hal.command_buffer>)
  vm.import private @hal.command_buffer.execution_barrier(%command_buffer : !vm.ref<!hal.command_buffer>, %source_stage_mask : i32, %target_stage_mask : i32, %flags : i32)
  vm.import private @hal.command_buffer.dispatch(%command_buffer : !vm.ref<!hal.command_buffer>, %executable : !vm.ref<!hal.executable>, %entry_point : i32, %workgroup_x : i32, %workgroup_y : i32, %workgroup_z : i32, %flags : i64, %constants : i32 ..., %bindings : tuple<i32, i32, !vm.ref<!hal.buffer>, i64, i64> ...)
  vm.import private @hal.device.allocator(%device : !vm.ref<!hal.device>) -> !vm.ref<!hal.allocator> attributes {nosideeffects}
  vm.import private @hal.device.query.i64(%device : !vm.ref<!hal.device>, %category : !vm.buffer, %key : !vm.buffer) -> (i32, i64) attributes {nosideeffects}
  vm.import private @hal.device.queue.alloca(%device : !vm.ref<!hal.device>, %queue_affinity : i64, %wait_fence : !vm.ref<!hal.fence>, %signal_fence : !vm.ref<!hal.fence>, %pool : i32, %memory_types : i32, %buffer_usage : i32, %allocation_size : i64) -> !vm.ref<!hal.buffer>
  vm.import private @hal.device.queue.execute.indirect(%device : !vm.ref<!hal.device>, %queue_affinity : i64, %wait_fence : !vm.ref<!hal.fence>, %signal_fence : !vm.ref<!hal.fence>, %command_buffer : !vm.ref<!hal.command_buffer>, %binding_table : tuple<!vm.ref<!hal.buffer>, i64, i64> ...)
  vm.import private @hal.devices.count() -> i32 attributes {nosideeffects}
  vm.import private @hal.devices.get(%index : i32) -> !vm.ref<!hal.device> attributes {nosideeffects}
  vm.import private @hal.executable.create(%device : !vm.ref<!hal.device>, %executable_format : !vm.buffer, %executable_data : !vm.buffer, %constants : !vm.buffer) -> !vm.ref<!hal.executable> attributes {nosideeffects}
  vm.import private @hal.fence.create(%device : !vm.ref<!hal.device>, %flags : i32) -> !vm.ref<!hal.fence>
  vm.import private @hal.fence.await(%timeout_millis : i32, %fences : !vm.ref<!hal.fence> ...) -> i32 attributes {vm.yield}
  vm.rodata private @_utf8_input0_F74E046E5FFA3735 {alignment = 1 : i64} "input0"
  vm.rodata private @_utf8_tensor_3C6209B4FD120BDC {alignment = 1 : i64} "tensor"
  vm.rodata private @_utf8_input1_E2E5222C371315B9 {alignment = 1 : i64} "input1"
  vm.rodata private @_utf8_input2_18A68D379CE18F1A {alignment = 1 : i64} "input2"
  vm.func private @main(%arg0: !vm.ref<!hal.buffer_view>, %arg1: !vm.ref<!hal.buffer_view>, %arg2: !vm.ref<!hal.buffer_view>) -> !vm.ref<!hal.buffer_view> attributes {iree.reflection = {iree.abi.declaration = "sync func @main(%input0: tensor<28x28xf32>, %input1: tensor<784x10xf32>, %input2: tensor<1x10xf32>) -> (%output0: tensor<1x10xf32>)"}} {
    %c48 = vm.const.i32 48
    %zero = vm.const.i32.zero
    %c3075 = vm.const.i32 3075
    %c16 = vm.const.i32 16
    %c1 = vm.const.i32 1
    %c553648160 = vm.const.i32 553648160
    %c28 = vm.const.i64 28
    %c784 = vm.const.i64 784
    %c10 = vm.const.i64 10
    %c1_0 = vm.const.i64 1
    %zero_1 = vm.const.i64.zero
    %c3136 = vm.const.i64 3136
    %c31360 = vm.const.i64 31360
    %c40 = vm.const.i64 40
    %c-1 = vm.const.i64 -1
    %null = vm.const.ref.zero : !vm.ref<!hal.fence>
    %c-1_2 = vm.const.i32 -1
    %__device_0 = vm.global.load.ref @__device_0 : !vm.ref<!hal.device>
    %__main_memoize_result_0_device_0 = vm.global.load.ref @__main_memoize_result_0_device_0 : !vm.ref<!hal.command_buffer>
    %_utf8_input0_F74E046E5FFA3735 = vm.const.ref.rodata @_utf8_input0_F74E046E5FFA3735 : !vm.buffer
    vm.call.variadic @hal.buffer_view.assert(%arg0, %_utf8_input0_F74E046E5FFA3735, %c553648160, %c1, [%c28, %c28]) : (!vm.ref<!hal.buffer_view>, !vm.buffer, i32, i32, i64 ...)
    %ref = vm.call @hal.buffer_view.buffer(%arg0) {nosideeffects} : (!vm.ref<!hal.buffer_view>) -> !vm.ref<!hal.buffer>
    %ref_3 = vm.call @hal.device.allocator(%__device_0) {nosideeffects} : (!vm.ref<!hal.device>) -> !vm.ref<!hal.allocator>
    %_utf8_tensor_3C6209B4FD120BDC = vm.const.ref.rodata @_utf8_tensor_3C6209B4FD120BDC : !vm.buffer
    vm.call @hal.buffer.assert(%ref, %_utf8_tensor_3C6209B4FD120BDC, %ref_3, %c3136, %c16, %c3075) : (!vm.ref<!hal.buffer>, !vm.buffer, !vm.ref<!hal.allocator>, i64, i32, i32) -> ()
    %_utf8_input1_E2E5222C371315B9 = vm.const.ref.rodata @_utf8_input1_E2E5222C371315B9 : !vm.buffer
    vm.call.variadic @hal.buffer_view.assert(%arg1, %_utf8_input1_E2E5222C371315B9, %c553648160, %c1, [%c784, %c10]) : (!vm.ref<!hal.buffer_view>, !vm.buffer, i32, i32, i64 ...)
    %ref_4 = vm.call @hal.buffer_view.buffer(%arg1) {nosideeffects} : (!vm.ref<!hal.buffer_view>) -> !vm.ref<!hal.buffer>
    vm.call @hal.buffer.assert(%ref_4, %_utf8_tensor_3C6209B4FD120BDC, %ref_3, %c31360, %c16, %c3075) : (!vm.ref<!hal.buffer>, !vm.buffer, !vm.ref<!hal.allocator>, i64, i32, i32) -> ()
    %_utf8_input2_18A68D379CE18F1A = vm.const.ref.rodata @_utf8_input2_18A68D379CE18F1A : !vm.buffer
    vm.call.variadic @hal.buffer_view.assert(%arg2, %_utf8_input2_18A68D379CE18F1A, %c553648160, %c1, [%c1_0, %c10]) : (!vm.ref<!hal.buffer_view>, !vm.buffer, i32, i32, i64 ...)
    %ref_5 = vm.call @hal.buffer_view.buffer(%arg2) {nosideeffects} : (!vm.ref<!hal.buffer_view>) -> !vm.ref<!hal.buffer>
    vm.call @hal.buffer.assert(%ref_5, %_utf8_tensor_3C6209B4FD120BDC, %ref_3, %c40, %c16, %c3075) : (!vm.ref<!hal.buffer>, !vm.buffer, !vm.ref<!hal.allocator>, i64, i32, i32) -> ()
    %ref_6 = vm.call @hal.fence.create(%__device_0, %zero) : (!vm.ref<!hal.device>, i32) -> !vm.ref<!hal.fence>
    %ref_7 = vm.call @hal.device.queue.alloca(%__device_0, %c-1, %null, %ref_6, %zero, %c48, %c3075, %c40) : (!vm.ref<!hal.device>, i64, !vm.ref<!hal.fence>, !vm.ref<!hal.fence>, i32, i32, i32, i64) -> !vm.ref<!hal.buffer>
    %ref_8 = vm.call @hal.fence.create(%__device_0, %zero) : (!vm.ref<!hal.device>, i32) -> !vm.ref<!hal.fence>
    vm.call.variadic @hal.device.queue.execute.indirect(%__device_0, %c-1, %ref_6, %ref_8, %__main_memoize_result_0_device_0, [(%ref, %zero_1, %c3136), (%ref_4, %zero_1, %c31360), (%ref_5, %zero_1, %c40), (%ref_7, %zero_1, %c40)]) : (!vm.ref<!hal.device>, i64, !vm.ref<!hal.fence>, !vm.ref<!hal.fence>, !vm.ref<!hal.command_buffer>, tuple<!vm.ref<!hal.buffer>, i64, i64> ...)
    %0 = vm.call.variadic @hal.fence.await(%c-1_2, [%ref_8]) : (i32, !vm.ref<!hal.fence> ...) -> i32
    vm.cond_br %0, ^bb2, ^bb1
  ^bb1:  // pred: ^bb0
    %ref_9 = vm.call.variadic @hal.buffer_view.create(%ref_7, %zero_1, %c40, %c553648160, %c1, [%c1_0, %c10]) {nosideeffects} : (!vm.ref<!hal.buffer>, i64, i64, i32, i32, i64 ...) -> !vm.ref<!hal.buffer_view>
    vm.return %ref_9 : !vm.ref<!hal.buffer_view>
  ^bb2:  // pred: ^bb0
    vm.fail %0, "failed to wait on timepoint"
  }
  vm.export @main attributes {iree.abi.stub, iree.reflection = {iree.abi.declaration = "sync func @main(%input0: tensor<28x28xf32>, %input1: tensor<784x10xf32>, %input2: tensor<1x10xf32>) -> (%output0: tensor<1x10xf32>)"}}
  vm.export @__init
  vm.func private @__init() {
    %c1 = vm.const.i32 1
    %null = vm.const.ref.zero : !vm.buffer
    %c14 = vm.const.i32 14
    %c-1 = vm.const.i64 -1
    %c18 = vm.const.i32 18
    %zero = vm.const.i32.zero
    %zero_0 = vm.const.i64.zero
    %c1_1 = vm.const.i64 1
    %null_2 = vm.const.ref.zero : !vm.ref<!hal.device>
    %0 = vm.call @hal.devices.count() {nosideeffects} : () -> i32
    %1 = vm.ext.i32.i64.s %0 : i32 -> i64
    vm.br ^bb1(%zero_0, %zero_0, %null_2 : i64, i64, !vm.ref<!hal.device>)
  ^bb1(%2: i64, %3: i64, %4: !vm.ref<!hal.device>):  // 2 preds: ^bb0, ^bb4
    %rnz = vm.cmp.nz.ref %4 : !vm.ref<!hal.device>
    %5 = vm.xor.i32 %rnz, %c1 : i32
    %slt = vm.cmp.lt.i64.s %2, %1 : i64
    %6 = vm.and.i32 %5, %slt : i32
    vm.cond_br %6, ^bb2, ^bb5
  ^bb2:  // pred: ^bb1
    %7 = vm.trunc.i64.i32 %2 : i64 -> i32
    %ref = vm.call @hal.devices.get(%7) {nosideeffects} : (i32) -> !vm.ref<!hal.device>
    %_utf8_hal_device_id_C1DCB7DBC4F49AE6 = vm.const.ref.rodata @_utf8_hal_device_id_C1DCB7DBC4F49AE6 : !vm.buffer
    %_utf8_cuda_EC9D846C9E731CDE = vm.const.ref.rodata @_utf8_cuda_EC9D846C9E731CDE : !vm.buffer
    %8:2 = vm.call @hal.device.query.i64(%ref, %_utf8_hal_device_id_C1DCB7DBC4F49AE6, %_utf8_cuda_EC9D846C9E731CDE) {nosideeffects} : (!vm.ref<!hal.device>, !vm.buffer, !vm.buffer) -> (i32, i64)
    %nz = vm.cmp.nz.i64 %8#1 : i64
    %9 = vm.select.i32 %8#0, %nz, %zero : i32
    vm.cond_br %9, ^bb3, ^bb4(%zero : i32)
  ^bb3:  // pred: ^bb2
    %_utf8_hal_executable_format_EAB228F999C2D3A1 = vm.const.ref.rodata @_utf8_hal_executable_format_EAB228F999C2D3A1 : !vm.buffer
    %_utf8_cuda_nvptx_fb_B15B42B96FDBACC = vm.const.ref.rodata @_utf8_cuda_nvptx_fb_B15B42B96FDBACC : !vm.buffer
    %10:2 = vm.call @hal.device.query.i64(%ref, %_utf8_hal_executable_format_EAB228F999C2D3A1, %_utf8_cuda_nvptx_fb_B15B42B96FDBACC) {nosideeffects} : (!vm.ref<!hal.device>, !vm.buffer, !vm.buffer) -> (i32, i64)
    %nz_3 = vm.cmp.nz.i64 %10#1 : i64
    %11 = vm.select.i32 %10#0, %nz_3, %zero : i32
    vm.br ^bb4(%11 : i32)
  ^bb4(%12: i32):  // 2 preds: ^bb2, ^bb3
    %eq = vm.cmp.eq.i64 %3, %zero_0 : i64
    %13 = vm.select.i64 %12, %c1_1, %zero_0 : i64
    %14 = vm.add.i64 %3, %13 : i64
    %15 = vm.and.i32 %12, %eq : i32
    %ref_4 = vm.select.ref %15, %ref, %null_2 : !vm.ref<!hal.device>
    %16 = vm.add.i64 %2, %c1_1 : i64
    vm.br ^bb1(%16, %14, %ref_4 : i64, i64, !vm.ref<!hal.device>)
  ^bb5:  // pred: ^bb1
    vm.cond_br %5, ^bb6, ^bb7
  ^bb6:  // pred: ^bb5
    vm.fail %c18, "HAL device `__device_0` not found or unavailable: #hal.device.target<\22cuda\22, [#hal.executable.target<\22cuda\22, \22cuda-nvptx-fb\22, {iree.gpu.target = #iree_gpu.target<arch = \22sm_86\22, features = \22+ptx76\22, wgp = <compute =  fp64|fp32|fp16|int64|int32|int16|int8, storage =  b64|b32|b16|b8, subgroup =  shuffle|arithmetic, dot =  dp4xi8toi32, mma = [<WMMA_F32_16x16x16_F16>, <WMMA_F16_16x16x16_F16>], subgroup_size_choices = [32], max_workgroup_sizes = [1024, 1024, 1024], max_thread_count_per_workgroup = 1024, max_workgroup_memory_bytes = 166912, max_workgroup_counts = [2147483647, 65535, 65535]>>}>]>"
  ^bb7:  // pred: ^bb5
    %_utf8_hal_executable_format_EAB228F999C2D3A1_5 = vm.const.ref.rodata @_utf8_hal_executable_format_EAB228F999C2D3A1 : !vm.buffer
    %_utf8_cuda_nvptx_fb_B15B42B96FDBACC_6 = vm.const.ref.rodata @_utf8_cuda_nvptx_fb_B15B42B96FDBACC : !vm.buffer
    %17:2 = vm.call @hal.device.query.i64(%4, %_utf8_hal_executable_format_EAB228F999C2D3A1_5, %_utf8_cuda_nvptx_fb_B15B42B96FDBACC_6) {nosideeffects} : (!vm.ref<!hal.device>, !vm.buffer, !vm.buffer) -> (i32, i64)
    %nz_7 = vm.cmp.nz.i64 %17#1 : i64
    %18 = vm.select.i32 %17#0, %nz_7, %zero : i32
    %19 = vm.select.i64 %18, %zero_0, %c-1 : i64
    %eq_8 = vm.cmp.eq.i64 %19, %zero_0 : i64
    vm.global.store.ref %4, @__device_0 : !vm.ref<!hal.device>
    vm.cond_br %eq_8, ^bb8, ^bb9
  ^bb8:  // pred: ^bb7
    %main_dispatch_0_cuda_nvptx_fb = vm.const.ref.rodata @main_dispatch_0_cuda_nvptx_fb : !vm.buffer
    %ref_9 = vm.call @hal.executable.create(%4, %_utf8_cuda_nvptx_fb_B15B42B96FDBACC_6, %main_dispatch_0_cuda_nvptx_fb, %null) {nosideeffects} : (!vm.ref<!hal.device>, !vm.buffer, !vm.buffer, !vm.buffer) -> !vm.ref<!hal.executable>
    vm.global.store.ref %ref_9, @__device_0_executable_0_main_dispatch_0 : !vm.ref<!hal.executable>
    %ref_10 = vm.call @__main_memoize_apply() : () -> !vm.ref<!hal.command_buffer>
    vm.global.store.ref %ref_10, @__main_memoize_result_0_device_0 : !vm.ref<!hal.command_buffer>
    vm.return
  ^bb9:  // pred: ^bb7
    vm.fail %c14, "HAL device `__device_0` does not support any variant of executable `main_dispatch_0`; available formats: [cuda-nvptx-fb]"
  }
}

// -----// IR Dump After DropCompilerHints (iree-util-drop-compiler-hints) //----- //
vm.module public @module {
  vm.global.ref private mutable @__device_0 : !vm.ref<!hal.device>
  vm.rodata private @_utf8_hal_device_id_C1DCB7DBC4F49AE6 {alignment = 1 : i64} "hal.device.id"
  vm.rodata private @_utf8_cuda_EC9D846C9E731CDE {alignment = 1 : i64} "cuda"
  vm.rodata private @_utf8_hal_executable_format_EAB228F999C2D3A1 {alignment = 1 : i64} "hal.executable.format"
  vm.rodata private @_utf8_cuda_nvptx_fb_B15B42B96FDBACC {alignment = 1 : i64} "cuda-nvptx-fb"
  vm.rodata private @main_dispatch_0_cuda_nvptx_fb {alignment = 16 : i64} dense<"…"> : vector<2080xi8>
  vm.global.ref private mutable @__device_0_executable_0_main_dispatch_0 : !vm.ref<!hal.executable>
  vm.func private @__main_memoize_apply() -> !vm.ref<!hal.command_buffer> attributes {inlining_policy = #util.inline.never} {
    %c13 = vm.const.i32 13
    %c28 = vm.const.i32 28
    %c2 = vm.const.i32 2
    %null = vm.const.ref.zero : !vm.ref<!hal.buffer>
    %c1 = vm.const.i32 1
    %c4 = vm.const.i32 4
    %c3 = vm.const.i32 3
    %zero = vm.const.i32.zero
    %c40 = vm.const.i64 40
    %c31360 = vm.const.i64 31360
    %c3136 = vm.const.i64 3136
    %zero_0 = vm.const.i64.zero
    %c-1 = vm.const.i64 -1
    %__device_0 = vm.global.load.ref @__device_0 : !vm.ref<!hal.device>
    %__device_0_executable_0_main_dispatch_0 = vm.global.load.ref @__device_0_executable_0_main_dispatch_0 : !vm.ref<!hal.executable>
    %ref = vm.call @hal.command_buffer.create(%__device_0, %zero, %c3, %c-1, %c4) : (!vm.ref<!hal.device>, i32, i32, i64, i32) -> !vm.ref<!hal.command_buffer>
    vm.call.variadic @hal.command_buffer.dispatch(%ref, %__device_0_executable_0_main_dispatch_0, %zero, %c1, %c1, %c1, %zero_0, [], [(%zero, %zero, %null, %zero_0, %c3136), (%zero, %c1, %null, %zero_0, %c31360), (%zero, %c2, %null, %zero_0, %c40), (%zero, %c3, %null, %zero_0, %c40)]) : (!vm.ref<!hal.command_buffer>, !vm.ref<!hal.executable>, i32, i32, i32, i32, i64, i32 ..., tuple<i32, i32, !vm.ref<!hal.buffer>, i64, i64> ...)
    vm.call @hal.command_buffer.execution_barrier(%ref, %c28, %c13, %zero) : (!vm.ref<!hal.command_buffer>, i32, i32, i32) -> ()
    vm.call @hal.command_buffer.finalize(%ref) : (!vm.ref<!hal.command_buffer>) -> ()
    vm.return %ref : !vm.ref<!hal.command_buffer>
  }
  vm.global.ref private mutable @__main_memoize_result_0_device_0 : !vm.ref<!hal.command_buffer>
  vm.import private @hal.buffer.assert(%buffer : !vm.ref<!hal.buffer>, %message : !vm.buffer, %allocator : !vm.ref<!hal.allocator>, %minimum_length : i64, %memory_types : i32, %buffer_usage : i32)
  vm.import private @hal.buffer_view.create(%buffer : !vm.ref<!hal.buffer>, %source_offset : i64, %source_length : i64, %element_type : i32, %encoding_type : i32, %shape : i64 ...) -> !vm.ref<!hal.buffer_view> attributes {nosideeffects}
  vm.import private @hal.buffer_view.assert(%buffer_view : !vm.ref<!hal.buffer_view>, %message : !vm.buffer, %element_type : i32, %encoding_type : i32, %shape : i64 ...)
  vm.import private @hal.buffer_view.buffer(%buffer_view : !vm.ref<!hal.buffer_view>) -> !vm.ref<!hal.buffer> attributes {nosideeffects}
  vm.import private @hal.command_buffer.create(%device : !vm.ref<!hal.device>, %modes : i32, %command_categories : i32, %queue_affinity : i64, %binding_capacity : i32) -> !vm.ref<!hal.command_buffer> attributes {minimum_version = 5 : i32}
  vm.import private @hal.command_buffer.finalize(%command_buffer : !vm.ref<!hal.command_buffer>)
  vm.import private @hal.command_buffer.execution_barrier(%command_buffer : !vm.ref<!hal.command_buffer>, %source_stage_mask : i32, %target_stage_mask : i32, %flags : i32)
  vm.import private @hal.command_buffer.dispatch(%command_buffer : !vm.ref<!hal.command_buffer>, %executable : !vm.ref<!hal.executable>, %entry_point : i32, %workgroup_x : i32, %workgroup_y : i32, %workgroup_z : i32, %flags : i64, %constants : i32 ..., %bindings : tuple<i32, i32, !vm.ref<!hal.buffer>, i64, i64> ...)
  vm.import private @hal.device.allocator(%device : !vm.ref<!hal.device>) -> !vm.ref<!hal.allocator> attributes {nosideeffects}
  vm.import private @hal.device.query.i64(%device : !vm.ref<!hal.device>, %category : !vm.buffer, %key : !vm.buffer) -> (i32, i64) attributes {nosideeffects}
  vm.import private @hal.device.queue.alloca(%device : !vm.ref<!hal.device>, %queue_affinity : i64, %wait_fence : !vm.ref<!hal.fence>, %signal_fence : !vm.ref<!hal.fence>, %pool : i32, %memory_types : i32, %buffer_usage : i32, %allocation_size : i64) -> !vm.ref<!hal.buffer>
  vm.import private @hal.device.queue.execute.indirect(%device : !vm.ref<!hal.device>, %queue_affinity : i64, %wait_fence : !vm.ref<!hal.fence>, %signal_fence : !vm.ref<!hal.fence>, %command_buffer : !vm.ref<!hal.command_buffer>, %binding_table : tuple<!vm.ref<!hal.buffer>, i64, i64> ...)
  vm.import private @hal.devices.count() -> i32 attributes {nosideeffects}
  vm.import private @hal.devices.get(%index : i32) -> !vm.ref<!hal.device> attributes {nosideeffects}
  vm.import private @hal.executable.create(%device : !vm.ref<!hal.device>, %executable_format : !vm.buffer, %executable_data : !vm.buffer, %constants : !vm.buffer) -> !vm.ref<!hal.executable> attributes {nosideeffects}
  vm.import private @hal.fence.create(%device : !vm.ref<!hal.device>, %flags : i32) -> !vm.ref<!hal.fence>
  vm.import private @hal.fence.await(%timeout_millis : i32, %fences : !vm.ref<!hal.fence> ...) -> i32 attributes {vm.yield}
  vm.rodata private @_utf8_input0_F74E046E5FFA3735 {alignment = 1 : i64} "input0"
  vm.rodata private @_utf8_tensor_3C6209B4FD120BDC {alignment = 1 : i64} "tensor"
  vm.rodata private @_utf8_input1_E2E5222C371315B9 {alignment = 1 : i64} "input1"
  vm.rodata private @_utf8_input2_18A68D379CE18F1A {alignment = 1 : i64} "input2"
  vm.func private @main(%arg0: !vm.ref<!hal.buffer_view>, %arg1: !vm.ref<!hal.buffer_view>, %arg2: !vm.ref<!hal.buffer_view>) -> !vm.ref<!hal.buffer_view> attributes {iree.reflection = {iree.abi.declaration = "sync func @main(%input0: tensor<28x28xf32>, %input1: tensor<784x10xf32>, %input2: tensor<1x10xf32>) -> (%output0: tensor<1x10xf32>)"}} {
    %c48 = vm.const.i32 48
    %zero = vm.const.i32.zero
    %c3075 = vm.const.i32 3075
    %c16 = vm.const.i32 16
    %c1 = vm.const.i32 1
    %c553648160 = vm.const.i32 553648160
    %c28 = vm.const.i64 28
    %c784 = vm.const.i64 784
    %c10 = vm.const.i64 10
    %c1_0 = vm.const.i64 1
    %zero_1 = vm.const.i64.zero
    %c3136 = vm.const.i64 3136
    %c31360 = vm.const.i64 31360
    %c40 = vm.const.i64 40
    %c-1 = vm.const.i64 -1
    %null = vm.const.ref.zero : !vm.ref<!hal.fence>
    %c-1_2 = vm.const.i32 -1
    %__device_0 = vm.global.load.ref @__device_0 : !vm.ref<!hal.device>
    %__main_memoize_result_0_device_0 = vm.global.load.ref @__main_memoize_result_0_device_0 : !vm.ref<!hal.command_buffer>
    %_utf8_input0_F74E046E5FFA3735 = vm.const.ref.rodata @_utf8_input0_F74E046E5FFA3735 : !vm.buffer
    vm.call.variadic @hal.buffer_view.assert(%arg0, %_utf8_input0_F74E046E5FFA3735, %c553648160, %c1, [%c28, %c28]) : (!vm.ref<!hal.buffer_view>, !vm.buffer, i32, i32, i64 ...)
    %ref = vm.call @hal.buffer_view.buffer(%arg0) {nosideeffects} : (!vm.ref<!hal.buffer_view>) -> !vm.ref<!hal.buffer>
    %ref_3 = vm.call @hal.device.allocator(%__device_0) {nosideeffects} : (!vm.ref<!hal.device>) -> !vm.ref<!hal.allocator>
    %_utf8_tensor_3C6209B4FD120BDC = vm.const.ref.rodata @_utf8_tensor_3C6209B4FD120BDC : !vm.buffer
    vm.call @hal.buffer.assert(%ref, %_utf8_tensor_3C6209B4FD120BDC, %ref_3, %c3136, %c16, %c3075) : (!vm.ref<!hal.buffer>, !vm.buffer, !vm.ref<!hal.allocator>, i64, i32, i32) -> ()
    %_utf8_input1_E2E5222C371315B9 = vm.const.ref.rodata @_utf8_input1_E2E5222C371315B9 : !vm.buffer
    vm.call.variadic @hal.buffer_view.assert(%arg1, %_utf8_input1_E2E5222C371315B9, %c553648160, %c1, [%c784, %c10]) : (!vm.ref<!hal.buffer_view>, !vm.buffer, i32, i32, i64 ...)
    %ref_4 = vm.call @hal.buffer_view.buffer(%arg1) {nosideeffects} : (!vm.ref<!hal.buffer_view>) -> !vm.ref<!hal.buffer>
    vm.call @hal.buffer.assert(%ref_4, %_utf8_tensor_3C6209B4FD120BDC, %ref_3, %c31360, %c16, %c3075) : (!vm.ref<!hal.buffer>, !vm.buffer, !vm.ref<!hal.allocator>, i64, i32, i32) -> ()
    %_utf8_input2_18A68D379CE18F1A = vm.const.ref.rodata @_utf8_input2_18A68D379CE18F1A : !vm.buffer
    vm.call.variadic @hal.buffer_view.assert(%arg2, %_utf8_input2_18A68D379CE18F1A, %c553648160, %c1, [%c1_0, %c10]) : (!vm.ref<!hal.buffer_view>, !vm.buffer, i32, i32, i64 ...)
    %ref_5 = vm.call @hal.buffer_view.buffer(%arg2) {nosideeffects} : (!vm.ref<!hal.buffer_view>) -> !vm.ref<!hal.buffer>
    vm.call @hal.buffer.assert(%ref_5, %_utf8_tensor_3C6209B4FD120BDC, %ref_3, %c40, %c16, %c3075) : (!vm.ref<!hal.buffer>, !vm.buffer, !vm.ref<!hal.allocator>, i64, i32, i32) -> ()
    %ref_6 = vm.call @hal.fence.create(%__device_0, %zero) : (!vm.ref<!hal.device>, i32) -> !vm.ref<!hal.fence>
    %ref_7 = vm.call @hal.device.queue.alloca(%__device_0, %c-1, %null, %ref_6, %zero, %c48, %c3075, %c40) : (!vm.ref<!hal.device>, i64, !vm.ref<!hal.fence>, !vm.ref<!hal.fence>, i32, i32, i32, i64) -> !vm.ref<!hal.buffer>
    %ref_8 = vm.call @hal.fence.create(%__device_0, %zero) : (!vm.ref<!hal.device>, i32) -> !vm.ref<!hal.fence>
    vm.call.variadic @hal.device.queue.execute.indirect(%__device_0, %c-1, %ref_6, %ref_8, %__main_memoize_result_0_device_0, [(%ref, %zero_1, %c3136), (%ref_4, %zero_1, %c31360), (%ref_5, %zero_1, %c40), (%ref_7, %zero_1, %c40)]) : (!vm.ref<!hal.device>, i64, !vm.ref<!hal.fence>, !vm.ref<!hal.fence>, !vm.ref<!hal.command_buffer>, tuple<!vm.ref<!hal.buffer>, i64, i64> ...)
    %0 = vm.call.variadic @hal.fence.await(%c-1_2, [%ref_8]) : (i32, !vm.ref<!hal.fence> ...) -> i32
    vm.cond_br %0, ^bb2, ^bb1
  ^bb1:  // pred: ^bb0
    %ref_9 = vm.call.variadic @hal.buffer_view.create(%ref_7, %zero_1, %c40, %c553648160, %c1, [%c1_0, %c10]) {nosideeffects} : (!vm.ref<!hal.buffer>, i64, i64, i32, i32, i64 ...) -> !vm.ref<!hal.buffer_view>
    vm.return %ref_9 : !vm.ref<!hal.buffer_view>
  ^bb2:  // pred: ^bb0
    vm.fail %0, "failed to wait on timepoint"
  }
  vm.export @main attributes {iree.abi.stub, iree.reflection = {iree.abi.declaration = "sync func @main(%input0: tensor<28x28xf32>, %input1: tensor<784x10xf32>, %input2: tensor<1x10xf32>) -> (%output0: tensor<1x10xf32>)"}}
  vm.export @__init
  vm.func private @__init() {
    %c1 = vm.const.i32 1
    %null = vm.const.ref.zero : !vm.buffer
    %c14 = vm.const.i32 14
    %c-1 = vm.const.i64 -1
    %c18 = vm.const.i32 18
    %zero = vm.const.i32.zero
    %zero_0 = vm.const.i64.zero
    %c1_1 = vm.const.i64 1
    %null_2 = vm.const.ref.zero : !vm.ref<!hal.device>
    %0 = vm.call @hal.devices.count() {nosideeffects} : () -> i32
    %1 = vm.ext.i32.i64.s %0 : i32 -> i64
    vm.br ^bb1(%zero_0, %zero_0, %null_2 : i64, i64, !vm.ref<!hal.device>)
  ^bb1(%2: i64, %3: i64, %4: !vm.ref<!hal.device>):  // 2 preds: ^bb0, ^bb4
    %rnz = vm.cmp.nz.ref %4 : !vm.ref<!hal.device>
    %5 = vm.xor.i32 %rnz, %c1 : i32
    %slt = vm.cmp.lt.i64.s %2, %1 : i64
    %6 = vm.and.i32 %5, %slt : i32
    vm.cond_br %6, ^bb2, ^bb5
  ^bb2:  // pred: ^bb1
    %7 = vm.trunc.i64.i32 %2 : i64 -> i32
    %ref = vm.call @hal.devices.get(%7) {nosideeffects} : (i32) -> !vm.ref<!hal.device>
    %_utf8_hal_device_id_C1DCB7DBC4F49AE6 = vm.const.ref.rodata @_utf8_hal_device_id_C1DCB7DBC4F49AE6 : !vm.buffer
    %_utf8_cuda_EC9D846C9E731CDE = vm.const.ref.rodata @_utf8_cuda_EC9D846C9E731CDE : !vm.buffer
    %8:2 = vm.call @hal.device.query.i64(%ref, %_utf8_hal_device_id_C1DCB7DBC4F49AE6, %_utf8_cuda_EC9D846C9E731CDE) {nosideeffects} : (!vm.ref<!hal.device>, !vm.buffer, !vm.buffer) -> (i32, i64)
    %nz = vm.cmp.nz.i64 %8#1 : i64
    %9 = vm.select.i32 %8#0, %nz, %zero : i32
    vm.cond_br %9, ^bb3, ^bb4(%zero : i32)
  ^bb3:  // pred: ^bb2
    %_utf8_hal_executable_format_EAB228F999C2D3A1 = vm.const.ref.rodata @_utf8_hal_executable_format_EAB228F999C2D3A1 : !vm.buffer
    %_utf8_cuda_nvptx_fb_B15B42B96FDBACC = vm.const.ref.rodata @_utf8_cuda_nvptx_fb_B15B42B96FDBACC : !vm.buffer
    %10:2 = vm.call @hal.device.query.i64(%ref, %_utf8_hal_executable_format_EAB228F999C2D3A1, %_utf8_cuda_nvptx_fb_B15B42B96FDBACC) {nosideeffects} : (!vm.ref<!hal.device>, !vm.buffer, !vm.buffer) -> (i32, i64)
    %nz_3 = vm.cmp.nz.i64 %10#1 : i64
    %11 = vm.select.i32 %10#0, %nz_3, %zero : i32
    vm.br ^bb4(%11 : i32)
  ^bb4(%12: i32):  // 2 preds: ^bb2, ^bb3
    %eq = vm.cmp.eq.i64 %3, %zero_0 : i64
    %13 = vm.select.i64 %12, %c1_1, %zero_0 : i64
    %14 = vm.add.i64 %3, %13 : i64
    %15 = vm.and.i32 %12, %eq : i32
    %ref_4 = vm.select.ref %15, %ref, %null_2 : !vm.ref<!hal.device>
    %16 = vm.add.i64 %2, %c1_1 : i64
    vm.br ^bb1(%16, %14, %ref_4 : i64, i64, !vm.ref<!hal.device>)
  ^bb5:  // pred: ^bb1
    vm.cond_br %5, ^bb6, ^bb7
  ^bb6:  // pred: ^bb5
    vm.fail %c18, "HAL device `__device_0` not found or unavailable: #hal.device.target<\22cuda\22, [#hal.executable.target<\22cuda\22, \22cuda-nvptx-fb\22, {iree.gpu.target = #iree_gpu.target<arch = \22sm_86\22, features = \22+ptx76\22, wgp = <compute =  fp64|fp32|fp16|int64|int32|int16|int8, storage =  b64|b32|b16|b8, subgroup =  shuffle|arithmetic, dot =  dp4xi8toi32, mma = [<WMMA_F32_16x16x16_F16>, <WMMA_F16_16x16x16_F16>], subgroup_size_choices = [32], max_workgroup_sizes = [1024, 1024, 1024], max_thread_count_per_workgroup = 1024, max_workgroup_memory_bytes = 166912, max_workgroup_counts = [2147483647, 65535, 65535]>>}>]>"
  ^bb7:  // pred: ^bb5
    %_utf8_hal_executable_format_EAB228F999C2D3A1_5 = vm.const.ref.rodata @_utf8_hal_executable_format_EAB228F999C2D3A1 : !vm.buffer
    %_utf8_cuda_nvptx_fb_B15B42B96FDBACC_6 = vm.const.ref.rodata @_utf8_cuda_nvptx_fb_B15B42B96FDBACC : !vm.buffer
    %17:2 = vm.call @hal.device.query.i64(%4, %_utf8_hal_executable_format_EAB228F999C2D3A1_5, %_utf8_cuda_nvptx_fb_B15B42B96FDBACC_6) {nosideeffects} : (!vm.ref<!hal.device>, !vm.buffer, !vm.buffer) -> (i32, i64)
    %nz_7 = vm.cmp.nz.i64 %17#1 : i64
    %18 = vm.select.i32 %17#0, %nz_7, %zero : i32
    %19 = vm.select.i64 %18, %zero_0, %c-1 : i64
    %eq_8 = vm.cmp.eq.i64 %19, %zero_0 : i64
    vm.global.store.ref %4, @__device_0 : !vm.ref<!hal.device>
    vm.cond_br %eq_8, ^bb8, ^bb9
  ^bb8:  // pred: ^bb7
    %main_dispatch_0_cuda_nvptx_fb = vm.const.ref.rodata @main_dispatch_0_cuda_nvptx_fb : !vm.buffer
    %ref_9 = vm.call @hal.executable.create(%4, %_utf8_cuda_nvptx_fb_B15B42B96FDBACC_6, %main_dispatch_0_cuda_nvptx_fb, %null) {nosideeffects} : (!vm.ref<!hal.device>, !vm.buffer, !vm.buffer, !vm.buffer) -> !vm.ref<!hal.executable>
    vm.global.store.ref %ref_9, @__device_0_executable_0_main_dispatch_0 : !vm.ref<!hal.executable>
    %ref_10 = vm.call @__main_memoize_apply() : () -> !vm.ref<!hal.command_buffer>
    vm.global.store.ref %ref_10, @__main_memoize_result_0_device_0 : !vm.ref<!hal.command_buffer>
    vm.return
  ^bb9:  // pred: ^bb7
    vm.fail %c14, "HAL device `__device_0` does not support any variant of executable `main_dispatch_0`; available formats: [cuda-nvptx-fb]"
  }
}

// -----// IR Dump After mlir::iree_compiler::IREE::VM::OrdinalAllocationPass (iree-vm-ordinal-allocation) //----- //
vm.module public @module attributes {ordinal_counts = #vm.ordinal_counts<import_funcs = 17, export_funcs = 2, internal_funcs = 3, global_bytes = 0, global_refs = 3, rodatas = 9, rwdatas = 0>} {
  vm.global.ref private mutable @__device_0 {ordinal = 0 : i32} : !vm.ref<!hal.device>
  vm.rodata private @_utf8_hal_device_id_C1DCB7DBC4F49AE6 {alignment = 1 : i64, ordinal = 0 : i32} "hal.device.id"
  vm.rodata private @_utf8_cuda_EC9D846C9E731CDE {alignment = 1 : i64, ordinal = 1 : i32} "cuda"
  vm.rodata private @_utf8_hal_executable_format_EAB228F999C2D3A1 {alignment = 1 : i64, ordinal = 2 : i32} "hal.executable.format"
  vm.rodata private @_utf8_cuda_nvptx_fb_B15B42B96FDBACC {alignment = 1 : i64, ordinal = 3 : i32} "cuda-nvptx-fb"
  vm.rodata private @main_dispatch_0_cuda_nvptx_fb {alignment = 16 : i64, ordinal = 4 : i32} dense<"…"> : vector<2080xi8>
  vm.global.ref private mutable @__device_0_executable_0_main_dispatch_0 {ordinal = 1 : i32} : !vm.ref<!hal.executable>
  vm.func private @__main_memoize_apply() -> !vm.ref<!hal.command_buffer> attributes {inlining_policy = #util.inline.never, ordinal = 0 : i32} {
    %c13 = vm.const.i32 13
    %c28 = vm.const.i32 28
    %c2 = vm.const.i32 2
    %null = vm.const.ref.zero : !vm.ref<!hal.buffer>
    %c1 = vm.const.i32 1
    %c4 = vm.const.i32 4
    %c3 = vm.const.i32 3
    %zero = vm.const.i32.zero
    %c40 = vm.const.i64 40
    %c31360 = vm.const.i64 31360
    %c3136 = vm.const.i64 3136
    %zero_0 = vm.const.i64.zero
    %c-1 = vm.const.i64 -1
    %__device_0 = vm.global.load.ref @__device_0 : !vm.ref<!hal.device>
    %__device_0_executable_0_main_dispatch_0 = vm.global.load.ref @__device_0_executable_0_main_dispatch_0 : !vm.ref<!hal.executable>
    %ref = vm.call @hal.command_buffer.create(%__device_0, %zero, %c3, %c-1, %c4) : (!vm.ref<!hal.device>, i32, i32, i64, i32) -> !vm.ref<!hal.command_buffer>
    vm.call.variadic @hal.command_buffer.dispatch(%ref, %__device_0_executable_0_main_dispatch_0, %zero, %c1, %c1, %c1, %zero_0, [], [(%zero, %zero, %null, %zero_0, %c3136), (%zero, %c1, %null, %zero_0, %c31360), (%zero, %c2, %null, %zero_0, %c40), (%zero, %c3, %null, %zero_0, %c40)]) : (!vm.ref<!hal.command_buffer>, !vm.ref<!hal.executable>, i32, i32, i32, i32, i64, i32 ..., tuple<i32, i32, !vm.ref<!hal.buffer>, i64, i64> ...)
    vm.call @hal.command_buffer.execution_barrier(%ref, %c28, %c13, %zero) : (!vm.ref<!hal.command_buffer>, i32, i32, i32) -> ()
    vm.call @hal.command_buffer.finalize(%ref) : (!vm.ref<!hal.command_buffer>) -> ()
    vm.return %ref : !vm.ref<!hal.command_buffer>
  }
  vm.global.ref private mutable @__main_memoize_result_0_device_0 {ordinal = 2 : i32} : !vm.ref<!hal.command_buffer>
  vm.import private @hal.buffer.assert(%buffer : !vm.ref<!hal.buffer>, %message : !vm.buffer, %allocator : !vm.ref<!hal.allocator>, %minimum_length : i64, %memory_types : i32, %buffer_usage : i32) attributes {ordinal = 0 : i32}
  vm.import private @hal.buffer_view.create(%buffer : !vm.ref<!hal.buffer>, %source_offset : i64, %source_length : i64, %element_type : i32, %encoding_type : i32, %shape : i64 ...) -> !vm.ref<!hal.buffer_view> attributes {nosideeffects, ordinal = 1 : i32}
  vm.import private @hal.buffer_view.assert(%buffer_view : !vm.ref<!hal.buffer_view>, %message : !vm.buffer, %element_type : i32, %encoding_type : i32, %shape : i64 ...) attributes {ordinal = 2 : i32}
  vm.import private @hal.buffer_view.buffer(%buffer_view : !vm.ref<!hal.buffer_view>) -> !vm.ref<!hal.buffer> attributes {nosideeffects, ordinal = 3 : i32}
  vm.import private @hal.command_buffer.create(%device : !vm.ref<!hal.device>, %modes : i32, %command_categories : i32, %queue_affinity : i64, %binding_capacity : i32) -> !vm.ref<!hal.command_buffer> attributes {minimum_version = 5 : i32, ordinal = 4 : i32}
  vm.import private @hal.command_buffer.finalize(%command_buffer : !vm.ref<!hal.command_buffer>) attributes {ordinal = 5 : i32}
  vm.import private @hal.command_buffer.execution_barrier(%command_buffer : !vm.ref<!hal.command_buffer>, %source_stage_mask : i32, %target_stage_mask : i32, %flags : i32) attributes {ordinal = 6 : i32}
  vm.import private @hal.command_buffer.dispatch(%command_buffer : !vm.ref<!hal.command_buffer>, %executable : !vm.ref<!hal.executable>, %entry_point : i32, %workgroup_x : i32, %workgroup_y : i32, %workgroup_z : i32, %flags : i64, %constants : i32 ..., %bindings : tuple<i32, i32, !vm.ref<!hal.buffer>, i64, i64> ...) attributes {ordinal = 7 : i32}
  vm.import private @hal.device.allocator(%device : !vm.ref<!hal.device>) -> !vm.ref<!hal.allocator> attributes {nosideeffects, ordinal = 8 : i32}
  vm.import private @hal.device.query.i64(%device : !vm.ref<!hal.device>, %category : !vm.buffer, %key : !vm.buffer) -> (i32, i64) attributes {nosideeffects, ordinal = 9 : i32}
  vm.import private @hal.device.queue.alloca(%device : !vm.ref<!hal.device>, %queue_affinity : i64, %wait_fence : !vm.ref<!hal.fence>, %signal_fence : !vm.ref<!hal.fence>, %pool : i32, %memory_types : i32, %buffer_usage : i32, %allocation_size : i64) -> !vm.ref<!hal.buffer> attributes {ordinal = 10 : i32}
  vm.import private @hal.device.queue.execute.indirect(%device : !vm.ref<!hal.device>, %queue_affinity : i64, %wait_fence : !vm.ref<!hal.fence>, %signal_fence : !vm.ref<!hal.fence>, %command_buffer : !vm.ref<!hal.command_buffer>, %binding_table : tuple<!vm.ref<!hal.buffer>, i64, i64> ...) attributes {ordinal = 11 : i32}
  vm.import private @hal.devices.count() -> i32 attributes {nosideeffects, ordinal = 12 : i32}
  vm.import private @hal.devices.get(%index : i32) -> !vm.ref<!hal.device> attributes {nosideeffects, ordinal = 13 : i32}
  vm.import private @hal.executable.create(%device : !vm.ref<!hal.device>, %executable_format : !vm.buffer, %executable_data : !vm.buffer, %constants : !vm.buffer) -> !vm.ref<!hal.executable> attributes {nosideeffects, ordinal = 14 : i32}
  vm.import private @hal.fence.create(%device : !vm.ref<!hal.device>, %flags : i32) -> !vm.ref<!hal.fence> attributes {ordinal = 15 : i32}
  vm.import private @hal.fence.await(%timeout_millis : i32, %fences : !vm.ref<!hal.fence> ...) -> i32 attributes {ordinal = 16 : i32, vm.yield}
  vm.rodata private @_utf8_input0_F74E046E5FFA3735 {alignment = 1 : i64, ordinal = 5 : i32} "input0"
  vm.rodata private @_utf8_tensor_3C6209B4FD120BDC {alignment = 1 : i64, ordinal = 6 : i32} "tensor"
  vm.rodata private @_utf8_input1_E2E5222C371315B9 {alignment = 1 : i64, ordinal = 7 : i32} "input1"
  vm.rodata private @_utf8_input2_18A68D379CE18F1A {alignment = 1 : i64, ordinal = 8 : i32} "input2"
  vm.func private @main(%arg0: !vm.ref<!hal.buffer_view>, %arg1: !vm.ref<!hal.buffer_view>, %arg2: !vm.ref<!hal.buffer_view>) -> !vm.ref<!hal.buffer_view> attributes {iree.reflection = {iree.abi.declaration = "sync func @main(%input0: tensor<28x28xf32>, %input1: tensor<784x10xf32>, %input2: tensor<1x10xf32>) -> (%output0: tensor<1x10xf32>)"}, ordinal = 1 : i32} {
    %c48 = vm.const.i32 48
    %zero = vm.const.i32.zero
    %c3075 = vm.const.i32 3075
    %c16 = vm.const.i32 16
    %c1 = vm.const.i32 1
    %c553648160 = vm.const.i32 553648160
    %c28 = vm.const.i64 28
    %c784 = vm.const.i64 784
    %c10 = vm.const.i64 10
    %c1_0 = vm.const.i64 1
    %zero_1 = vm.const.i64.zero
    %c3136 = vm.const.i64 3136
    %c31360 = vm.const.i64 31360
    %c40 = vm.const.i64 40
    %c-1 = vm.const.i64 -1
    %null = vm.const.ref.zero : !vm.ref<!hal.fence>
    %c-1_2 = vm.const.i32 -1
    %__device_0 = vm.global.load.ref @__device_0 : !vm.ref<!hal.device>
    %__main_memoize_result_0_device_0 = vm.global.load.ref @__main_memoize_result_0_device_0 : !vm.ref<!hal.command_buffer>
    %_utf8_input0_F74E046E5FFA3735 = vm.const.ref.rodata @_utf8_input0_F74E046E5FFA3735 : !vm.buffer
    vm.call.variadic @hal.buffer_view.assert(%arg0, %_utf8_input0_F74E046E5FFA3735, %c553648160, %c1, [%c28, %c28]) : (!vm.ref<!hal.buffer_view>, !vm.buffer, i32, i32, i64 ...)
    %ref = vm.call @hal.buffer_view.buffer(%arg0) {nosideeffects} : (!vm.ref<!hal.buffer_view>) -> !vm.ref<!hal.buffer>
    %ref_3 = vm.call @hal.device.allocator(%__device_0) {nosideeffects} : (!vm.ref<!hal.device>) -> !vm.ref<!hal.allocator>
    %_utf8_tensor_3C6209B4FD120BDC = vm.const.ref.rodata @_utf8_tensor_3C6209B4FD120BDC : !vm.buffer
    vm.call @hal.buffer.assert(%ref, %_utf8_tensor_3C6209B4FD120BDC, %ref_3, %c3136, %c16, %c3075) : (!vm.ref<!hal.buffer>, !vm.buffer, !vm.ref<!hal.allocator>, i64, i32, i32) -> ()
    %_utf8_input1_E2E5222C371315B9 = vm.const.ref.rodata @_utf8_input1_E2E5222C371315B9 : !vm.buffer
    vm.call.variadic @hal.buffer_view.assert(%arg1, %_utf8_input1_E2E5222C371315B9, %c553648160, %c1, [%c784, %c10]) : (!vm.ref<!hal.buffer_view>, !vm.buffer, i32, i32, i64 ...)
    %ref_4 = vm.call @hal.buffer_view.buffer(%arg1) {nosideeffects} : (!vm.ref<!hal.buffer_view>) -> !vm.ref<!hal.buffer>
    vm.call @hal.buffer.assert(%ref_4, %_utf8_tensor_3C6209B4FD120BDC, %ref_3, %c31360, %c16, %c3075) : (!vm.ref<!hal.buffer>, !vm.buffer, !vm.ref<!hal.allocator>, i64, i32, i32) -> ()
    %_utf8_input2_18A68D379CE18F1A = vm.const.ref.rodata @_utf8_input2_18A68D379CE18F1A : !vm.buffer
    vm.call.variadic @hal.buffer_view.assert(%arg2, %_utf8_input2_18A68D379CE18F1A, %c553648160, %c1, [%c1_0, %c10]) : (!vm.ref<!hal.buffer_view>, !vm.buffer, i32, i32, i64 ...)
    %ref_5 = vm.call @hal.buffer_view.buffer(%arg2) {nosideeffects} : (!vm.ref<!hal.buffer_view>) -> !vm.ref<!hal.buffer>
    vm.call @hal.buffer.assert(%ref_5, %_utf8_tensor_3C6209B4FD120BDC, %ref_3, %c40, %c16, %c3075) : (!vm.ref<!hal.buffer>, !vm.buffer, !vm.ref<!hal.allocator>, i64, i32, i32) -> ()
    %ref_6 = vm.call @hal.fence.create(%__device_0, %zero) : (!vm.ref<!hal.device>, i32) -> !vm.ref<!hal.fence>
    %ref_7 = vm.call @hal.device.queue.alloca(%__device_0, %c-1, %null, %ref_6, %zero, %c48, %c3075, %c40) : (!vm.ref<!hal.device>, i64, !vm.ref<!hal.fence>, !vm.ref<!hal.fence>, i32, i32, i32, i64) -> !vm.ref<!hal.buffer>
    %ref_8 = vm.call @hal.fence.create(%__device_0, %zero) : (!vm.ref<!hal.device>, i32) -> !vm.ref<!hal.fence>
    vm.call.variadic @hal.device.queue.execute.indirect(%__device_0, %c-1, %ref_6, %ref_8, %__main_memoize_result_0_device_0, [(%ref, %zero_1, %c3136), (%ref_4, %zero_1, %c31360), (%ref_5, %zero_1, %c40), (%ref_7, %zero_1, %c40)]) : (!vm.ref<!hal.device>, i64, !vm.ref<!hal.fence>, !vm.ref<!hal.fence>, !vm.ref<!hal.command_buffer>, tuple<!vm.ref<!hal.buffer>, i64, i64> ...)
    %0 = vm.call.variadic @hal.fence.await(%c-1_2, [%ref_8]) : (i32, !vm.ref<!hal.fence> ...) -> i32
    vm.cond_br %0, ^bb2, ^bb1
  ^bb1:  // pred: ^bb0
    %ref_9 = vm.call.variadic @hal.buffer_view.create(%ref_7, %zero_1, %c40, %c553648160, %c1, [%c1_0, %c10]) {nosideeffects} : (!vm.ref<!hal.buffer>, i64, i64, i32, i32, i64 ...) -> !vm.ref<!hal.buffer_view>
    vm.return %ref_9 : !vm.ref<!hal.buffer_view>
  ^bb2:  // pred: ^bb0
    vm.fail %0, "failed to wait on timepoint"
  }
  vm.export @main attributes {iree.abi.stub, iree.reflection = {iree.abi.declaration = "sync func @main(%input0: tensor<28x28xf32>, %input1: tensor<784x10xf32>, %input2: tensor<1x10xf32>) -> (%output0: tensor<1x10xf32>)"}, ordinal = 0 : i32}
  vm.export @__init attributes {ordinal = 1 : i32}
  vm.func private @__init() attributes {ordinal = 2 : i32} {
    %c1 = vm.const.i32 1
    %null = vm.const.ref.zero : !vm.buffer
    %c14 = vm.const.i32 14
    %c-1 = vm.const.i64 -1
    %c18 = vm.const.i32 18
    %zero = vm.const.i32.zero
    %zero_0 = vm.const.i64.zero
    %c1_1 = vm.const.i64 1
    %null_2 = vm.const.ref.zero : !vm.ref<!hal.device>
    %0 = vm.call @hal.devices.count() {nosideeffects} : () -> i32
    %1 = vm.ext.i32.i64.s %0 : i32 -> i64
    vm.br ^bb1(%zero_0, %zero_0, %null_2 : i64, i64, !vm.ref<!hal.device>)
  ^bb1(%2: i64, %3: i64, %4: !vm.ref<!hal.device>):  // 2 preds: ^bb0, ^bb4
    %rnz = vm.cmp.nz.ref %4 : !vm.ref<!hal.device>
    %5 = vm.xor.i32 %rnz, %c1 : i32
    %slt = vm.cmp.lt.i64.s %2, %1 : i64
    %6 = vm.and.i32 %5, %slt : i32
    vm.cond_br %6, ^bb2, ^bb5
  ^bb2:  // pred: ^bb1
    %7 = vm.trunc.i64.i32 %2 : i64 -> i32
    %ref = vm.call @hal.devices.get(%7) {nosideeffects} : (i32) -> !vm.ref<!hal.device>
    %_utf8_hal_device_id_C1DCB7DBC4F49AE6 = vm.const.ref.rodata @_utf8_hal_device_id_C1DCB7DBC4F49AE6 : !vm.buffer
    %_utf8_cuda_EC9D846C9E731CDE = vm.const.ref.rodata @_utf8_cuda_EC9D846C9E731CDE : !vm.buffer
    %8:2 = vm.call @hal.device.query.i64(%ref, %_utf8_hal_device_id_C1DCB7DBC4F49AE6, %_utf8_cuda_EC9D846C9E731CDE) {nosideeffects} : (!vm.ref<!hal.device>, !vm.buffer, !vm.buffer) -> (i32, i64)
    %nz = vm.cmp.nz.i64 %8#1 : i64
    %9 = vm.select.i32 %8#0, %nz, %zero : i32
    vm.cond_br %9, ^bb3, ^bb4(%zero : i32)
  ^bb3:  // pred: ^bb2
    %_utf8_hal_executable_format_EAB228F999C2D3A1 = vm.const.ref.rodata @_utf8_hal_executable_format_EAB228F999C2D3A1 : !vm.buffer
    %_utf8_cuda_nvptx_fb_B15B42B96FDBACC = vm.const.ref.rodata @_utf8_cuda_nvptx_fb_B15B42B96FDBACC : !vm.buffer
    %10:2 = vm.call @hal.device.query.i64(%ref, %_utf8_hal_executable_format_EAB228F999C2D3A1, %_utf8_cuda_nvptx_fb_B15B42B96FDBACC) {nosideeffects} : (!vm.ref<!hal.device>, !vm.buffer, !vm.buffer) -> (i32, i64)
    %nz_3 = vm.cmp.nz.i64 %10#1 : i64
    %11 = vm.select.i32 %10#0, %nz_3, %zero : i32
    vm.br ^bb4(%11 : i32)
  ^bb4(%12: i32):  // 2 preds: ^bb2, ^bb3
    %eq = vm.cmp.eq.i64 %3, %zero_0 : i64
    %13 = vm.select.i64 %12, %c1_1, %zero_0 : i64
    %14 = vm.add.i64 %3, %13 : i64
    %15 = vm.and.i32 %12, %eq : i32
    %ref_4 = vm.select.ref %15, %ref, %null_2 : !vm.ref<!hal.device>
    %16 = vm.add.i64 %2, %c1_1 : i64
    vm.br ^bb1(%16, %14, %ref_4 : i64, i64, !vm.ref<!hal.device>)
  ^bb5:  // pred: ^bb1
    vm.cond_br %5, ^bb6, ^bb7
  ^bb6:  // pred: ^bb5
    vm.fail %c18, "HAL device `__device_0` not found or unavailable: #hal.device.target<\22cuda\22, [#hal.executable.target<\22cuda\22, \22cuda-nvptx-fb\22, {iree.gpu.target = #iree_gpu.target<arch = \22sm_86\22, features = \22+ptx76\22, wgp = <compute =  fp64|fp32|fp16|int64|int32|int16|int8, storage =  b64|b32|b16|b8, subgroup =  shuffle|arithmetic, dot =  dp4xi8toi32, mma = [<WMMA_F32_16x16x16_F16>, <WMMA_F16_16x16x16_F16>], subgroup_size_choices = [32], max_workgroup_sizes = [1024, 1024, 1024], max_thread_count_per_workgroup = 1024, max_workgroup_memory_bytes = 166912, max_workgroup_counts = [2147483647, 65535, 65535]>>}>]>"
  ^bb7:  // pred: ^bb5
    %_utf8_hal_executable_format_EAB228F999C2D3A1_5 = vm.const.ref.rodata @_utf8_hal_executable_format_EAB228F999C2D3A1 : !vm.buffer
    %_utf8_cuda_nvptx_fb_B15B42B96FDBACC_6 = vm.const.ref.rodata @_utf8_cuda_nvptx_fb_B15B42B96FDBACC : !vm.buffer
    %17:2 = vm.call @hal.device.query.i64(%4, %_utf8_hal_executable_format_EAB228F999C2D3A1_5, %_utf8_cuda_nvptx_fb_B15B42B96FDBACC_6) {nosideeffects} : (!vm.ref<!hal.device>, !vm.buffer, !vm.buffer) -> (i32, i64)
    %nz_7 = vm.cmp.nz.i64 %17#1 : i64
    %18 = vm.select.i32 %17#0, %nz_7, %zero : i32
    %19 = vm.select.i64 %18, %zero_0, %c-1 : i64
    %eq_8 = vm.cmp.eq.i64 %19, %zero_0 : i64
    vm.global.store.ref %4, @__device_0 : !vm.ref<!hal.device>
    vm.cond_br %eq_8, ^bb8, ^bb9
  ^bb8:  // pred: ^bb7
    %main_dispatch_0_cuda_nvptx_fb = vm.const.ref.rodata @main_dispatch_0_cuda_nvptx_fb : !vm.buffer
    %ref_9 = vm.call @hal.executable.create(%4, %_utf8_cuda_nvptx_fb_B15B42B96FDBACC_6, %main_dispatch_0_cuda_nvptx_fb, %null) {nosideeffects} : (!vm.ref<!hal.device>, !vm.buffer, !vm.buffer, !vm.buffer) -> !vm.ref<!hal.executable>
    vm.global.store.ref %ref_9, @__device_0_executable_0_main_dispatch_0 : !vm.ref<!hal.executable>
    %ref_10 = vm.call @__main_memoize_apply() : () -> !vm.ref<!hal.command_buffer>
    vm.global.store.ref %ref_10, @__main_memoize_result_0_device_0 : !vm.ref<!hal.command_buffer>
    vm.return
  ^bb9:  // pred: ^bb7
    vm.fail %c14, "HAL device `__device_0` does not support any variant of executable `main_dispatch_0`; available formats: [cuda-nvptx-fb]"
  }
}

