// -----// IR Dump After AutoInputConversionPipelinePass (iree-auto-input-conversion) //----- //
#config = #iree_codegen.lowering_config<tile_sizes = [[32, 32, 16]]>
#translation = #iree_codegen.translation_info<pipeline = LLVMGPUMatmulTensorCore workgroup_size = [64, 2, 1], {pipeline_depth = 3 : i64, store_stage = 1 : i64}>
#compilation = #iree_codegen.compilation_info<lowering_config = #config, translation_info = #translation>
module {
  func.func @matmul_accumulate_512x128xf16_times_128x512xf16_into_512x512xf16_for_LLVMGPUMatmulTensorCore_32_32_16_64_2_1(%arg0: tensor<512x128xf16>, %arg1: tensor<128x512xf16>, %arg2: tensor<512x512xf16>) -> tensor<512x512xf16> {
    %0 = linalg.matmul {compilation_info = #compilation} ins(%arg0, %arg1 : tensor<512x128xf16>, tensor<128x512xf16>) outs(%arg2 : tensor<512x512xf16>) -> tensor<512x512xf16>
    return %0 : tensor<512x512xf16>
  }
}


// -----// IR Dump After IREEImportPublicPass (iree-import-public) //----- //
#config = #iree_codegen.lowering_config<tile_sizes = [[32, 32, 16]]>
#translation = #iree_codegen.translation_info<pipeline = LLVMGPUMatmulTensorCore workgroup_size = [64, 2, 1], {pipeline_depth = 3 : i64, store_stage = 1 : i64}>
#compilation = #iree_codegen.compilation_info<lowering_config = #config, translation_info = #translation>
module {
  util.func public @matmul_accumulate_512x128xf16_times_128x512xf16_into_512x512xf16_for_LLVMGPUMatmulTensorCore_32_32_16_64_2_1(%arg0: tensor<512x128xf16>, %arg1: tensor<128x512xf16>, %arg2: tensor<512x512xf16>) -> tensor<512x512xf16> {
    %0 = linalg.matmul {compilation_info = #compilation} ins(%arg0, %arg1 : tensor<512x128xf16>, tensor<128x512xf16>) outs(%arg2 : tensor<512x512xf16>) -> tensor<512x512xf16>
    util.return %0 : tensor<512x512xf16>
  }
}


// -----// IR Dump After ImportMLProgramPass (iree-import-ml-program) //----- //
#config = #iree_codegen.lowering_config<tile_sizes = [[32, 32, 16]]>
#translation = #iree_codegen.translation_info<pipeline = LLVMGPUMatmulTensorCore workgroup_size = [64, 2, 1], {pipeline_depth = 3 : i64, store_stage = 1 : i64}>
#compilation = #iree_codegen.compilation_info<lowering_config = #config, translation_info = #translation>
module {
  util.func public @matmul_accumulate_512x128xf16_times_128x512xf16_into_512x512xf16_for_LLVMGPUMatmulTensorCore_32_32_16_64_2_1(%arg0: tensor<512x128xf16>, %arg1: tensor<128x512xf16>, %arg2: tensor<512x512xf16>) -> tensor<512x512xf16> {
    %0 = linalg.matmul {compilation_info = #compilation} ins(%arg0, %arg1 : tensor<512x128xf16>, tensor<128x512xf16>) outs(%arg2 : tensor<512x512xf16>) -> tensor<512x512xf16>
    util.return %0 : tensor<512x512xf16>
  }
}


// -----// IR Dump After SanitizeModuleNamesPass (iree-sanitize-module-names) //----- //
#config = #iree_codegen.lowering_config<tile_sizes = [[32, 32, 16]]>
#translation = #iree_codegen.translation_info<pipeline = LLVMGPUMatmulTensorCore workgroup_size = [64, 2, 1], {pipeline_depth = 3 : i64, store_stage = 1 : i64}>
#compilation = #iree_codegen.compilation_info<lowering_config = #config, translation_info = #translation>
module {
  util.func public @matmul_accumulate_512x128xf16_times_128x512xf16_into_512x512xf16_for_LLVMGPUMatmulTensorCore_32_32_16_64_2_1(%arg0: tensor<512x128xf16>, %arg1: tensor<128x512xf16>, %arg2: tensor<512x512xf16>) -> tensor<512x512xf16> {
    %0 = linalg.matmul {compilation_info = #compilation} ins(%arg0, %arg1 : tensor<512x128xf16>, tensor<128x512xf16>) outs(%arg2 : tensor<512x512xf16>) -> tensor<512x512xf16>
    util.return %0 : tensor<512x512xf16>
  }
}


// -----// IR Dump After ConvertMeshToFlowPass (iree-convert-mesh-to-flow) //----- //
#config = #iree_codegen.lowering_config<tile_sizes = [[32, 32, 16]]>
#translation = #iree_codegen.translation_info<pipeline = LLVMGPUMatmulTensorCore workgroup_size = [64, 2, 1], {pipeline_depth = 3 : i64, store_stage = 1 : i64}>
#compilation = #iree_codegen.compilation_info<lowering_config = #config, translation_info = #translation>
module {
  util.func public @matmul_accumulate_512x128xf16_times_128x512xf16_into_512x512xf16_for_LLVMGPUMatmulTensorCore_32_32_16_64_2_1(%arg0: tensor<512x128xf16>, %arg1: tensor<128x512xf16>, %arg2: tensor<512x512xf16>) -> tensor<512x512xf16> {
    %0 = linalg.matmul {compilation_info = #compilation} ins(%arg0, %arg1 : tensor<512x128xf16>, tensor<128x512xf16>) outs(%arg2 : tensor<512x512xf16>) -> tensor<512x512xf16>
    util.return %0 : tensor<512x512xf16>
  }
}


// -----// IR Dump After DemoteF64ToF32Pass (iree-input-conversion-demote-f64-to-f32) //----- //
#config = #iree_codegen.lowering_config<tile_sizes = [[32, 32, 16]]>
#translation = #iree_codegen.translation_info<pipeline = LLVMGPUMatmulTensorCore workgroup_size = [64, 2, 1], {pipeline_depth = 3 : i64, store_stage = 1 : i64}>
#compilation = #iree_codegen.compilation_info<lowering_config = #config, translation_info = #translation>
module {
  util.func public @matmul_accumulate_512x128xf16_times_128x512xf16_into_512x512xf16_for_LLVMGPUMatmulTensorCore_32_32_16_64_2_1(%arg0: tensor<512x128xf16>, %arg1: tensor<128x512xf16>, %arg2: tensor<512x512xf16>) -> tensor<512x512xf16> {
    %0 = linalg.matmul {compilation_info = #compilation} ins(%arg0, %arg1 : tensor<512x128xf16>, tensor<128x512xf16>) outs(%arg2 : tensor<512x512xf16>) -> tensor<512x512xf16>
    util.return %0 : tensor<512x512xf16>
  }
}


// -----// IR Dump After mlir::iree_compiler::IREE::ABI::ConvertStreamableOpsPass (iree-abi-convert-streamable-ops) //----- //
#config = #iree_codegen.lowering_config<tile_sizes = [[32, 32, 16]]>
#translation = #iree_codegen.translation_info<pipeline = LLVMGPUMatmulTensorCore workgroup_size = [64, 2, 1], {pipeline_depth = 3 : i64, store_stage = 1 : i64}>
#compilation = #iree_codegen.compilation_info<lowering_config = #config, translation_info = #translation>
module {
  util.func public @matmul_accumulate_512x128xf16_times_128x512xf16_into_512x512xf16_for_LLVMGPUMatmulTensorCore_32_32_16_64_2_1(%arg0: tensor<512x128xf16>, %arg1: tensor<128x512xf16>, %arg2: tensor<512x512xf16>) -> tensor<512x512xf16> {
    %0 = linalg.matmul {compilation_info = #compilation} ins(%arg0, %arg1 : tensor<512x128xf16>, tensor<128x512xf16>) outs(%arg2 : tensor<512x512xf16>) -> tensor<512x512xf16>
    util.return %0 : tensor<512x512xf16>
  }
}


// -----// IR Dump After mlir::iree_compiler::IREE::ABI::WrapEntryPointsPass (iree-abi-wrap-entry-points) //----- //
#config = #iree_codegen.lowering_config<tile_sizes = [[32, 32, 16]]>
#translation = #iree_codegen.translation_info<pipeline = LLVMGPUMatmulTensorCore workgroup_size = [64, 2, 1], {pipeline_depth = 3 : i64, store_stage = 1 : i64}>
#compilation = #iree_codegen.compilation_info<lowering_config = #config, translation_info = #translation>
module {
  util.func public @matmul_accumulate_512x128xf16_times_128x512xf16_into_512x512xf16_for_LLVMGPUMatmulTensorCore_32_32_16_64_2_1(%arg0: !hal.buffer_view, %arg1: !hal.buffer_view, %arg2: !hal.buffer_view) -> !hal.buffer_view attributes {iree.abi.stub, iree.reflection = {iree.abi.declaration = "sync func @matmul_accumulate_512x128xf16_times_128x512xf16_into_512x512xf16_for_LLVMGPUMatmulTensorCore_32_32_16_64_2_1(%input0: tensor<512x128xf16>, %input1: tensor<128x512xf16>, %input2: tensor<512x512xf16>) -> (%output0: tensor<512x512xf16>)"}} {
    %0 = hal.tensor.import %arg0 "input0" : !hal.buffer_view -> tensor<512x128xf16>
    %1 = hal.tensor.import %arg1 "input1" : !hal.buffer_view -> tensor<128x512xf16>
    %2 = hal.tensor.import %arg2 "input2" : !hal.buffer_view -> tensor<512x512xf16>
    %3 = util.call @_matmul_accumulate_512x128xf16_times_128x512xf16_into_512x512xf16_for_LLVMGPUMatmulTensorCore_32_32_16_64_2_1(%0, %1, %2) : (tensor<512x128xf16>, tensor<128x512xf16>, tensor<512x512xf16>) -> tensor<512x512xf16>
    %4 = hal.tensor.export %3 "output0" : tensor<512x512xf16> -> !hal.buffer_view
    util.return %4 : !hal.buffer_view
  }
  util.func private @_matmul_accumulate_512x128xf16_times_128x512xf16_into_512x512xf16_for_LLVMGPUMatmulTensorCore_32_32_16_64_2_1(%arg0: tensor<512x128xf16>, %arg1: tensor<128x512xf16>, %arg2: tensor<512x512xf16>) -> tensor<512x512xf16> {
    %0 = linalg.matmul {compilation_info = #compilation} ins(%arg0, %arg1 : tensor<512x128xf16>, tensor<128x512xf16>) outs(%arg2 : tensor<512x512xf16>) -> tensor<512x512xf16>
    util.return %0 : tensor<512x512xf16>
  }
}


// -----// IR Dump After Canonicalizer (canonicalize) //----- //
util.func private @_matmul_accumulate_512x128xf16_times_128x512xf16_into_512x512xf16_for_LLVMGPUMatmulTensorCore_32_32_16_64_2_1(%arg0: tensor<512x128xf16>, %arg1: tensor<128x512xf16>, %arg2: tensor<512x512xf16>) -> tensor<512x512xf16> {
  %0 = linalg.matmul {compilation_info = #iree_codegen.compilation_info<lowering_config = #iree_codegen.lowering_config<tile_sizes = [[32, 32, 16]]>, translation_info = <pipeline = LLVMGPUMatmulTensorCore workgroup_size = [64, 2, 1], {pipeline_depth = 3 : i64, store_stage = 1 : i64}>>} ins(%arg0, %arg1 : tensor<512x128xf16>, tensor<128x512xf16>) outs(%arg2 : tensor<512x512xf16>) -> tensor<512x512xf16>
  util.return %0 : tensor<512x512xf16>
}

// -----// IR Dump After Canonicalizer (canonicalize) //----- //
util.func public @matmul_accumulate_512x128xf16_times_128x512xf16_into_512x512xf16_for_LLVMGPUMatmulTensorCore_32_32_16_64_2_1(%arg0: !hal.buffer_view, %arg1: !hal.buffer_view, %arg2: !hal.buffer_view) -> !hal.buffer_view attributes {iree.abi.stub, iree.reflection = {iree.abi.declaration = "sync func @matmul_accumulate_512x128xf16_times_128x512xf16_into_512x512xf16_for_LLVMGPUMatmulTensorCore_32_32_16_64_2_1(%input0: tensor<512x128xf16>, %input1: tensor<128x512xf16>, %input2: tensor<512x512xf16>) -> (%output0: tensor<512x512xf16>)"}} {
  %0 = hal.tensor.import %arg0 "input0" : !hal.buffer_view -> tensor<512x128xf16>
  %1 = hal.tensor.import %arg1 "input1" : !hal.buffer_view -> tensor<128x512xf16>
  %2 = hal.tensor.import %arg2 "input2" : !hal.buffer_view -> tensor<512x512xf16>
  %3 = util.call @_matmul_accumulate_512x128xf16_times_128x512xf16_into_512x512xf16_for_LLVMGPUMatmulTensorCore_32_32_16_64_2_1(%0, %1, %2) : (tensor<512x128xf16>, tensor<128x512xf16>, tensor<512x512xf16>) -> tensor<512x512xf16>
  %4 = hal.tensor.export %3 "output0" : tensor<512x512xf16> -> !hal.buffer_view
  util.return %4 : !hal.buffer_view
}

// -----// IR Dump After Canonicalizer (canonicalize) //----- //
util.func public @matmul_accumulate_512x128xf16_times_128x512xf16_into_512x512xf16_for_LLVMGPUMatmulTensorCore_32_32_16_64_2_1(%arg0: !hal.buffer_view, %arg1: !hal.buffer_view, %arg2: !hal.buffer_view) -> !hal.buffer_view attributes {iree.abi.stub, iree.reflection = {iree.abi.declaration = "sync func @matmul_accumulate_512x128xf16_times_128x512xf16_into_512x512xf16_for_LLVMGPUMatmulTensorCore_32_32_16_64_2_1(%input0: tensor<512x128xf16>, %input1: tensor<128x512xf16>, %input2: tensor<512x512xf16>) -> (%output0: tensor<512x512xf16>)"}} {
  %0 = hal.tensor.import %arg0 "input0" : !hal.buffer_view -> tensor<512x128xf16>
  %1 = hal.tensor.import %arg1 "input1" : !hal.buffer_view -> tensor<128x512xf16>
  %2 = hal.tensor.import %arg2 "input2" : !hal.buffer_view -> tensor<512x512xf16>
  %3 = linalg.matmul {compilation_info = #iree_codegen.compilation_info<lowering_config = #iree_codegen.lowering_config<tile_sizes = [[32, 32, 16]]>, translation_info = <pipeline = LLVMGPUMatmulTensorCore workgroup_size = [64, 2, 1], {pipeline_depth = 3 : i64, store_stage = 1 : i64}>>} ins(%0, %1 : tensor<512x128xf16>, tensor<128x512xf16>) outs(%2 : tensor<512x512xf16>) -> tensor<512x512xf16>
  %4 = hal.tensor.export %3 "output0" : tensor<512x512xf16> -> !hal.buffer_view
  util.return %4 : !hal.buffer_view
}

// -----// IR Dump After Inliner (inline) //----- //
#config = #iree_codegen.lowering_config<tile_sizes = [[32, 32, 16]]>
#translation = #iree_codegen.translation_info<pipeline = LLVMGPUMatmulTensorCore workgroup_size = [64, 2, 1], {pipeline_depth = 3 : i64, store_stage = 1 : i64}>
#compilation = #iree_codegen.compilation_info<lowering_config = #config, translation_info = #translation>
module {
  util.func public @matmul_accumulate_512x128xf16_times_128x512xf16_into_512x512xf16_for_LLVMGPUMatmulTensorCore_32_32_16_64_2_1(%arg0: !hal.buffer_view, %arg1: !hal.buffer_view, %arg2: !hal.buffer_view) -> !hal.buffer_view attributes {iree.abi.stub, iree.reflection = {iree.abi.declaration = "sync func @matmul_accumulate_512x128xf16_times_128x512xf16_into_512x512xf16_for_LLVMGPUMatmulTensorCore_32_32_16_64_2_1(%input0: tensor<512x128xf16>, %input1: tensor<128x512xf16>, %input2: tensor<512x512xf16>) -> (%output0: tensor<512x512xf16>)"}} {
    %0 = hal.tensor.import %arg0 "input0" : !hal.buffer_view -> tensor<512x128xf16>
    %1 = hal.tensor.import %arg1 "input1" : !hal.buffer_view -> tensor<128x512xf16>
    %2 = hal.tensor.import %arg2 "input2" : !hal.buffer_view -> tensor<512x512xf16>
    %3 = linalg.matmul {compilation_info = #compilation} ins(%0, %1 : tensor<512x128xf16>, tensor<128x512xf16>) outs(%2 : tensor<512x512xf16>) -> tensor<512x512xf16>
    %4 = hal.tensor.export %3 "output0" : tensor<512x512xf16> -> !hal.buffer_view
    util.return %4 : !hal.buffer_view
  }
}


// -----// IR Dump After Canonicalizer (canonicalize) //----- //
util.func public @matmul_accumulate_512x128xf16_times_128x512xf16_into_512x512xf16_for_LLVMGPUMatmulTensorCore_32_32_16_64_2_1(%arg0: !hal.buffer_view, %arg1: !hal.buffer_view, %arg2: !hal.buffer_view) -> !hal.buffer_view attributes {iree.abi.stub, iree.reflection = {iree.abi.declaration = "sync func @matmul_accumulate_512x128xf16_times_128x512xf16_into_512x512xf16_for_LLVMGPUMatmulTensorCore_32_32_16_64_2_1(%input0: tensor<512x128xf16>, %input1: tensor<128x512xf16>, %input2: tensor<512x512xf16>) -> (%output0: tensor<512x512xf16>)"}} {
  %0 = hal.tensor.import %arg0 "input0" : !hal.buffer_view -> tensor<512x128xf16>
  %1 = hal.tensor.import %arg1 "input1" : !hal.buffer_view -> tensor<128x512xf16>
  %2 = hal.tensor.import %arg2 "input2" : !hal.buffer_view -> tensor<512x512xf16>
  %3 = linalg.matmul {compilation_info = #iree_codegen.compilation_info<lowering_config = #iree_codegen.lowering_config<tile_sizes = [[32, 32, 16]]>, translation_info = <pipeline = LLVMGPUMatmulTensorCore workgroup_size = [64, 2, 1], {pipeline_depth = 3 : i64, store_stage = 1 : i64}>>} ins(%0, %1 : tensor<512x128xf16>, tensor<128x512xf16>) outs(%2 : tensor<512x512xf16>) -> tensor<512x512xf16>
  %4 = hal.tensor.export %3 "output0" : tensor<512x512xf16> -> !hal.buffer_view
  util.return %4 : !hal.buffer_view
}

// -----// IR Dump After CSE (cse) //----- //
util.func public @matmul_accumulate_512x128xf16_times_128x512xf16_into_512x512xf16_for_LLVMGPUMatmulTensorCore_32_32_16_64_2_1(%arg0: !hal.buffer_view, %arg1: !hal.buffer_view, %arg2: !hal.buffer_view) -> !hal.buffer_view attributes {iree.abi.stub, iree.reflection = {iree.abi.declaration = "sync func @matmul_accumulate_512x128xf16_times_128x512xf16_into_512x512xf16_for_LLVMGPUMatmulTensorCore_32_32_16_64_2_1(%input0: tensor<512x128xf16>, %input1: tensor<128x512xf16>, %input2: tensor<512x512xf16>) -> (%output0: tensor<512x512xf16>)"}} {
  %0 = hal.tensor.import %arg0 "input0" : !hal.buffer_view -> tensor<512x128xf16>
  %1 = hal.tensor.import %arg1 "input1" : !hal.buffer_view -> tensor<128x512xf16>
  %2 = hal.tensor.import %arg2 "input2" : !hal.buffer_view -> tensor<512x512xf16>
  %3 = linalg.matmul {compilation_info = #iree_codegen.compilation_info<lowering_config = #iree_codegen.lowering_config<tile_sizes = [[32, 32, 16]]>, translation_info = <pipeline = LLVMGPUMatmulTensorCore workgroup_size = [64, 2, 1], {pipeline_depth = 3 : i64, store_stage = 1 : i64}>>} ins(%0, %1 : tensor<512x128xf16>, tensor<128x512xf16>) outs(%2 : tensor<512x512xf16>) -> tensor<512x512xf16>
  %4 = hal.tensor.export %3 "output0" : tensor<512x512xf16> -> !hal.buffer_view
  util.return %4 : !hal.buffer_view
}

// -----// IR Dump After SymbolDCE (symbol-dce) //----- //
#config = #iree_codegen.lowering_config<tile_sizes = [[32, 32, 16]]>
#translation = #iree_codegen.translation_info<pipeline = LLVMGPUMatmulTensorCore workgroup_size = [64, 2, 1], {pipeline_depth = 3 : i64, store_stage = 1 : i64}>
#compilation = #iree_codegen.compilation_info<lowering_config = #config, translation_info = #translation>
module {
  util.func public @matmul_accumulate_512x128xf16_times_128x512xf16_into_512x512xf16_for_LLVMGPUMatmulTensorCore_32_32_16_64_2_1(%arg0: !hal.buffer_view, %arg1: !hal.buffer_view, %arg2: !hal.buffer_view) -> !hal.buffer_view attributes {iree.abi.stub, iree.reflection = {iree.abi.declaration = "sync func @matmul_accumulate_512x128xf16_times_128x512xf16_into_512x512xf16_for_LLVMGPUMatmulTensorCore_32_32_16_64_2_1(%input0: tensor<512x128xf16>, %input1: tensor<128x512xf16>, %input2: tensor<512x512xf16>) -> (%output0: tensor<512x512xf16>)"}} {
    %0 = hal.tensor.import %arg0 "input0" : !hal.buffer_view -> tensor<512x128xf16>
    %1 = hal.tensor.import %arg1 "input1" : !hal.buffer_view -> tensor<128x512xf16>
    %2 = hal.tensor.import %arg2 "input2" : !hal.buffer_view -> tensor<512x512xf16>
    %3 = linalg.matmul {compilation_info = #compilation} ins(%0, %1 : tensor<512x128xf16>, tensor<128x512xf16>) outs(%2 : tensor<512x512xf16>) -> tensor<512x512xf16>
    %4 = hal.tensor.export %3 "output0" : tensor<512x512xf16> -> !hal.buffer_view
    util.return %4 : !hal.buffer_view
  }
}


// -----// IR Dump After AssignLegacyTargetDevicesPass (iree-hal-assign-legacy-target-devices) //----- //
#config = #iree_codegen.lowering_config<tile_sizes = [[32, 32, 16]]>
#executable_target_cuda_nvptx_fb = #hal.executable.target<"cuda", "cuda-nvptx-fb", {iree.gpu.target = #iree_gpu.target<arch = "sm_86", features = "+ptx76", wgp = <compute =  fp64|fp32|fp16|int64|int32|int16|int8, storage =  b64|b32|b16|b8, subgroup =  shuffle|arithmetic, dot =  dp4xi8toi32, mma = [<WMMA_F32_16x16x16_F16>, <WMMA_F16_16x16x16_F16>], subgroup_size_choices = [32], max_workgroup_sizes = [1024, 1024, 1024], max_thread_count_per_workgroup = 1024, max_workgroup_memory_bytes = 166912, max_workgroup_counts = [2147483647, 65535, 65535]>>}>
#translation = #iree_codegen.translation_info<pipeline = LLVMGPUMatmulTensorCore workgroup_size = [64, 2, 1], {pipeline_depth = 3 : i64, store_stage = 1 : i64}>
#compilation = #iree_codegen.compilation_info<lowering_config = #config, translation_info = #translation>
#device_target_cuda = #hal.device.target<"cuda", [#executable_target_cuda_nvptx_fb]> : !hal.device
module attributes {hal.device.targets = [#device_target_cuda]} {
  util.func public @matmul_accumulate_512x128xf16_times_128x512xf16_into_512x512xf16_for_LLVMGPUMatmulTensorCore_32_32_16_64_2_1(%arg0: !hal.buffer_view, %arg1: !hal.buffer_view, %arg2: !hal.buffer_view) -> !hal.buffer_view attributes {iree.abi.stub, iree.reflection = {iree.abi.declaration = "sync func @matmul_accumulate_512x128xf16_times_128x512xf16_into_512x512xf16_for_LLVMGPUMatmulTensorCore_32_32_16_64_2_1(%input0: tensor<512x128xf16>, %input1: tensor<128x512xf16>, %input2: tensor<512x512xf16>) -> (%output0: tensor<512x512xf16>)"}} {
    %0 = hal.tensor.import %arg0 "input0" : !hal.buffer_view -> tensor<512x128xf16>
    %1 = hal.tensor.import %arg1 "input1" : !hal.buffer_view -> tensor<128x512xf16>
    %2 = hal.tensor.import %arg2 "input2" : !hal.buffer_view -> tensor<512x512xf16>
    %3 = linalg.matmul {compilation_info = #compilation} ins(%0, %1 : tensor<512x128xf16>, tensor<128x512xf16>) outs(%2 : tensor<512x512xf16>) -> tensor<512x512xf16>
    %4 = hal.tensor.export %3 "output0" : tensor<512x512xf16> -> !hal.buffer_view
    util.return %4 : !hal.buffer_view
  }
}


// -----// IR Dump After MaterializeTargetDevicesPass (iree-hal-materialize-target-devices) //----- //
#config = #iree_codegen.lowering_config<tile_sizes = [[32, 32, 16]]>
#executable_target_cuda_nvptx_fb = #hal.executable.target<"cuda", "cuda-nvptx-fb", {iree.gpu.target = #iree_gpu.target<arch = "sm_86", features = "+ptx76", wgp = <compute =  fp64|fp32|fp16|int64|int32|int16|int8, storage =  b64|b32|b16|b8, subgroup =  shuffle|arithmetic, dot =  dp4xi8toi32, mma = [<WMMA_F32_16x16x16_F16>, <WMMA_F16_16x16x16_F16>], subgroup_size_choices = [32], max_workgroup_sizes = [1024, 1024, 1024], max_thread_count_per_workgroup = 1024, max_workgroup_memory_bytes = 166912, max_workgroup_counts = [2147483647, 65535, 65535]>>}>
#translation = #iree_codegen.translation_info<pipeline = LLVMGPUMatmulTensorCore workgroup_size = [64, 2, 1], {pipeline_depth = 3 : i64, store_stage = 1 : i64}>
#compilation = #iree_codegen.compilation_info<lowering_config = #config, translation_info = #translation>
#device_target_cuda = #hal.device.target<"cuda", [#executable_target_cuda_nvptx_fb]> : !hal.device
module attributes {stream.affinity.default = #hal.device.affinity<@__device_0>} {
  util.global private @__device_0 = #device_target_cuda
  util.func public @matmul_accumulate_512x128xf16_times_128x512xf16_into_512x512xf16_for_LLVMGPUMatmulTensorCore_32_32_16_64_2_1(%arg0: !hal.buffer_view, %arg1: !hal.buffer_view, %arg2: !hal.buffer_view) -> !hal.buffer_view attributes {iree.abi.stub, iree.reflection = {iree.abi.declaration = "sync func @matmul_accumulate_512x128xf16_times_128x512xf16_into_512x512xf16_for_LLVMGPUMatmulTensorCore_32_32_16_64_2_1(%input0: tensor<512x128xf16>, %input1: tensor<128x512xf16>, %input2: tensor<512x512xf16>) -> (%output0: tensor<512x512xf16>)"}} {
    %0 = hal.tensor.import %arg0 "input0" : !hal.buffer_view -> tensor<512x128xf16>
    %1 = hal.tensor.import %arg1 "input1" : !hal.buffer_view -> tensor<128x512xf16>
    %2 = hal.tensor.import %arg2 "input2" : !hal.buffer_view -> tensor<512x512xf16>
    %3 = linalg.matmul {compilation_info = #compilation} ins(%0, %1 : tensor<512x128xf16>, tensor<128x512xf16>) outs(%2 : tensor<512x512xf16>) -> tensor<512x512xf16>
    %4 = hal.tensor.export %3 "output0" : tensor<512x512xf16> -> !hal.buffer_view
    util.return %4 : !hal.buffer_view
  }
}


// -----// IR Dump After ResolveDevicePromisesPass (iree-hal-resolve-device-promises) //----- //
#config = #iree_codegen.lowering_config<tile_sizes = [[32, 32, 16]]>
#executable_target_cuda_nvptx_fb = #hal.executable.target<"cuda", "cuda-nvptx-fb", {iree.gpu.target = #iree_gpu.target<arch = "sm_86", features = "+ptx76", wgp = <compute =  fp64|fp32|fp16|int64|int32|int16|int8, storage =  b64|b32|b16|b8, subgroup =  shuffle|arithmetic, dot =  dp4xi8toi32, mma = [<WMMA_F32_16x16x16_F16>, <WMMA_F16_16x16x16_F16>], subgroup_size_choices = [32], max_workgroup_sizes = [1024, 1024, 1024], max_thread_count_per_workgroup = 1024, max_workgroup_memory_bytes = 166912, max_workgroup_counts = [2147483647, 65535, 65535]>>}>
#translation = #iree_codegen.translation_info<pipeline = LLVMGPUMatmulTensorCore workgroup_size = [64, 2, 1], {pipeline_depth = 3 : i64, store_stage = 1 : i64}>
#compilation = #iree_codegen.compilation_info<lowering_config = #config, translation_info = #translation>
#device_target_cuda = #hal.device.target<"cuda", [#executable_target_cuda_nvptx_fb]> : !hal.device
module attributes {stream.affinity.default = #hal.device.affinity<@__device_0>} {
  util.global private @__device_0 = #device_target_cuda
  util.func public @matmul_accumulate_512x128xf16_times_128x512xf16_into_512x512xf16_for_LLVMGPUMatmulTensorCore_32_32_16_64_2_1(%arg0: !hal.buffer_view, %arg1: !hal.buffer_view, %arg2: !hal.buffer_view) -> !hal.buffer_view attributes {iree.abi.stub, iree.reflection = {iree.abi.declaration = "sync func @matmul_accumulate_512x128xf16_times_128x512xf16_into_512x512xf16_for_LLVMGPUMatmulTensorCore_32_32_16_64_2_1(%input0: tensor<512x128xf16>, %input1: tensor<128x512xf16>, %input2: tensor<512x512xf16>) -> (%output0: tensor<512x512xf16>)"}} {
    %0 = hal.tensor.import %arg0 "input0" : !hal.buffer_view -> tensor<512x128xf16>
    %1 = hal.tensor.import %arg1 "input1" : !hal.buffer_view -> tensor<128x512xf16>
    %2 = hal.tensor.import %arg2 "input2" : !hal.buffer_view -> tensor<512x512xf16>
    %3 = linalg.matmul {compilation_info = #compilation} ins(%0, %1 : tensor<512x128xf16>, tensor<128x512xf16>) outs(%2 : tensor<512x512xf16>) -> tensor<512x512xf16>
    %4 = hal.tensor.export %3 "output0" : tensor<512x512xf16> -> !hal.buffer_view
    util.return %4 : !hal.buffer_view
  }
}


// -----// IR Dump After ResolveDeviceAliasesPass (iree-hal-resolve-device-aliases) //----- //
#config = #iree_codegen.lowering_config<tile_sizes = [[32, 32, 16]]>
#executable_target_cuda_nvptx_fb = #hal.executable.target<"cuda", "cuda-nvptx-fb", {iree.gpu.target = #iree_gpu.target<arch = "sm_86", features = "+ptx76", wgp = <compute =  fp64|fp32|fp16|int64|int32|int16|int8, storage =  b64|b32|b16|b8, subgroup =  shuffle|arithmetic, dot =  dp4xi8toi32, mma = [<WMMA_F32_16x16x16_F16>, <WMMA_F16_16x16x16_F16>], subgroup_size_choices = [32], max_workgroup_sizes = [1024, 1024, 1024], max_thread_count_per_workgroup = 1024, max_workgroup_memory_bytes = 166912, max_workgroup_counts = [2147483647, 65535, 65535]>>}>
#translation = #iree_codegen.translation_info<pipeline = LLVMGPUMatmulTensorCore workgroup_size = [64, 2, 1], {pipeline_depth = 3 : i64, store_stage = 1 : i64}>
#compilation = #iree_codegen.compilation_info<lowering_config = #config, translation_info = #translation>
#device_target_cuda = #hal.device.target<"cuda", [#executable_target_cuda_nvptx_fb]> : !hal.device
module attributes {stream.affinity.default = #hal.device.affinity<@__device_0>} {
  util.global private @__device_0 = #device_target_cuda
  util.func public @matmul_accumulate_512x128xf16_times_128x512xf16_into_512x512xf16_for_LLVMGPUMatmulTensorCore_32_32_16_64_2_1(%arg0: !hal.buffer_view, %arg1: !hal.buffer_view, %arg2: !hal.buffer_view) -> !hal.buffer_view attributes {iree.abi.stub, iree.reflection = {iree.abi.declaration = "sync func @matmul_accumulate_512x128xf16_times_128x512xf16_into_512x512xf16_for_LLVMGPUMatmulTensorCore_32_32_16_64_2_1(%input0: tensor<512x128xf16>, %input1: tensor<128x512xf16>, %input2: tensor<512x512xf16>) -> (%output0: tensor<512x512xf16>)"}} {
    %0 = hal.tensor.import %arg0 "input0" : !hal.buffer_view -> tensor<512x128xf16>
    %1 = hal.tensor.import %arg1 "input1" : !hal.buffer_view -> tensor<128x512xf16>
    %2 = hal.tensor.import %arg2 "input2" : !hal.buffer_view -> tensor<512x512xf16>
    %3 = linalg.matmul {compilation_info = #compilation} ins(%0, %1 : tensor<512x128xf16>, tensor<128x512xf16>) outs(%2 : tensor<512x512xf16>) -> tensor<512x512xf16>
    %4 = hal.tensor.export %3 "output0" : tensor<512x512xf16> -> !hal.buffer_view
    util.return %4 : !hal.buffer_view
  }
}


// -----// IR Dump After VerifyDevicesPass (iree-hal-verify-devices) //----- //
#config = #iree_codegen.lowering_config<tile_sizes = [[32, 32, 16]]>
#executable_target_cuda_nvptx_fb = #hal.executable.target<"cuda", "cuda-nvptx-fb", {iree.gpu.target = #iree_gpu.target<arch = "sm_86", features = "+ptx76", wgp = <compute =  fp64|fp32|fp16|int64|int32|int16|int8, storage =  b64|b32|b16|b8, subgroup =  shuffle|arithmetic, dot =  dp4xi8toi32, mma = [<WMMA_F32_16x16x16_F16>, <WMMA_F16_16x16x16_F16>], subgroup_size_choices = [32], max_workgroup_sizes = [1024, 1024, 1024], max_thread_count_per_workgroup = 1024, max_workgroup_memory_bytes = 166912, max_workgroup_counts = [2147483647, 65535, 65535]>>}>
#translation = #iree_codegen.translation_info<pipeline = LLVMGPUMatmulTensorCore workgroup_size = [64, 2, 1], {pipeline_depth = 3 : i64, store_stage = 1 : i64}>
#compilation = #iree_codegen.compilation_info<lowering_config = #config, translation_info = #translation>
#device_target_cuda = #hal.device.target<"cuda", [#executable_target_cuda_nvptx_fb]> : !hal.device
module attributes {stream.affinity.default = #hal.device.affinity<@__device_0>} {
  util.global private @__device_0 = #device_target_cuda
  util.func public @matmul_accumulate_512x128xf16_times_128x512xf16_into_512x512xf16_for_LLVMGPUMatmulTensorCore_32_32_16_64_2_1(%arg0: !hal.buffer_view, %arg1: !hal.buffer_view, %arg2: !hal.buffer_view) -> !hal.buffer_view attributes {iree.abi.stub, iree.reflection = {iree.abi.declaration = "sync func @matmul_accumulate_512x128xf16_times_128x512xf16_into_512x512xf16_for_LLVMGPUMatmulTensorCore_32_32_16_64_2_1(%input0: tensor<512x128xf16>, %input1: tensor<128x512xf16>, %input2: tensor<512x512xf16>) -> (%output0: tensor<512x512xf16>)"}} {
    %0 = hal.tensor.import %arg0 "input0" : !hal.buffer_view -> tensor<512x128xf16>
    %1 = hal.tensor.import %arg1 "input1" : !hal.buffer_view -> tensor<128x512xf16>
    %2 = hal.tensor.import %arg2 "input2" : !hal.buffer_view -> tensor<512x512xf16>
    %3 = linalg.matmul {compilation_info = #compilation} ins(%0, %1 : tensor<512x128xf16>, tensor<128x512xf16>) outs(%2 : tensor<512x512xf16>) -> tensor<512x512xf16>
    %4 = hal.tensor.export %3 "output0" : tensor<512x512xf16> -> !hal.buffer_view
    util.return %4 : !hal.buffer_view
  }
}


// -----// IR Dump After OptimizeIntArithmetic (iree-util-optimize-int-arithmetic) //----- //
util.func public @matmul_accumulate_512x128xf16_times_128x512xf16_into_512x512xf16_for_LLVMGPUMatmulTensorCore_32_32_16_64_2_1(%arg0: !hal.buffer_view, %arg1: !hal.buffer_view, %arg2: !hal.buffer_view) -> !hal.buffer_view attributes {iree.abi.stub, iree.reflection = {iree.abi.declaration = "sync func @matmul_accumulate_512x128xf16_times_128x512xf16_into_512x512xf16_for_LLVMGPUMatmulTensorCore_32_32_16_64_2_1(%input0: tensor<512x128xf16>, %input1: tensor<128x512xf16>, %input2: tensor<512x512xf16>) -> (%output0: tensor<512x512xf16>)"}} {
  %0 = hal.tensor.import %arg0 "input0" : !hal.buffer_view -> tensor<512x128xf16>
  %1 = hal.tensor.import %arg1 "input1" : !hal.buffer_view -> tensor<128x512xf16>
  %2 = hal.tensor.import %arg2 "input2" : !hal.buffer_view -> tensor<512x512xf16>
  %3 = linalg.matmul {compilation_info = #iree_codegen.compilation_info<lowering_config = #iree_codegen.lowering_config<tile_sizes = [[32, 32, 16]]>, translation_info = <pipeline = LLVMGPUMatmulTensorCore workgroup_size = [64, 2, 1], {pipeline_depth = 3 : i64, store_stage = 1 : i64}>>} ins(%0, %1 : tensor<512x128xf16>, tensor<128x512xf16>) outs(%2 : tensor<512x512xf16>) -> tensor<512x512xf16>
  %4 = hal.tensor.export %3 "output0" : tensor<512x512xf16> -> !hal.buffer_view
  util.return %4 : !hal.buffer_view
}

// -----// IR Dump After LinalgQuantizedConvToConvPass (iree-global-opt-quantized-conv-to-conv) //----- //
util.func public @matmul_accumulate_512x128xf16_times_128x512xf16_into_512x512xf16_for_LLVMGPUMatmulTensorCore_32_32_16_64_2_1(%arg0: !hal.buffer_view, %arg1: !hal.buffer_view, %arg2: !hal.buffer_view) -> !hal.buffer_view attributes {iree.abi.stub, iree.reflection = {iree.abi.declaration = "sync func @matmul_accumulate_512x128xf16_times_128x512xf16_into_512x512xf16_for_LLVMGPUMatmulTensorCore_32_32_16_64_2_1(%input0: tensor<512x128xf16>, %input1: tensor<128x512xf16>, %input2: tensor<512x512xf16>) -> (%output0: tensor<512x512xf16>)"}} {
  %0 = hal.tensor.import %arg0 "input0" : !hal.buffer_view -> tensor<512x128xf16>
  %1 = hal.tensor.import %arg1 "input1" : !hal.buffer_view -> tensor<128x512xf16>
  %2 = hal.tensor.import %arg2 "input2" : !hal.buffer_view -> tensor<512x512xf16>
  %3 = linalg.matmul {compilation_info = #iree_codegen.compilation_info<lowering_config = #iree_codegen.lowering_config<tile_sizes = [[32, 32, 16]]>, translation_info = <pipeline = LLVMGPUMatmulTensorCore workgroup_size = [64, 2, 1], {pipeline_depth = 3 : i64, store_stage = 1 : i64}>>} ins(%0, %1 : tensor<512x128xf16>, tensor<128x512xf16>) outs(%2 : tensor<512x512xf16>) -> tensor<512x512xf16>
  %4 = hal.tensor.export %3 "output0" : tensor<512x512xf16> -> !hal.buffer_view
  util.return %4 : !hal.buffer_view
}

// -----// IR Dump After LinalgQuantizedMatmulToMatmulPass (iree-global-opt-quantized-matmul-to-matmul) //----- //
util.func public @matmul_accumulate_512x128xf16_times_128x512xf16_into_512x512xf16_for_LLVMGPUMatmulTensorCore_32_32_16_64_2_1(%arg0: !hal.buffer_view, %arg1: !hal.buffer_view, %arg2: !hal.buffer_view) -> !hal.buffer_view attributes {iree.abi.stub, iree.reflection = {iree.abi.declaration = "sync func @matmul_accumulate_512x128xf16_times_128x512xf16_into_512x512xf16_for_LLVMGPUMatmulTensorCore_32_32_16_64_2_1(%input0: tensor<512x128xf16>, %input1: tensor<128x512xf16>, %input2: tensor<512x512xf16>) -> (%output0: tensor<512x512xf16>)"}} {
  %0 = hal.tensor.import %arg0 "input0" : !hal.buffer_view -> tensor<512x128xf16>
  %1 = hal.tensor.import %arg1 "input1" : !hal.buffer_view -> tensor<128x512xf16>
  %2 = hal.tensor.import %arg2 "input2" : !hal.buffer_view -> tensor<512x512xf16>
  %3 = linalg.matmul {compilation_info = #iree_codegen.compilation_info<lowering_config = #iree_codegen.lowering_config<tile_sizes = [[32, 32, 16]]>, translation_info = <pipeline = LLVMGPUMatmulTensorCore workgroup_size = [64, 2, 1], {pipeline_depth = 3 : i64, store_stage = 1 : i64}>>} ins(%0, %1 : tensor<512x128xf16>, tensor<128x512xf16>) outs(%2 : tensor<512x512xf16>) -> tensor<512x512xf16>
  %4 = hal.tensor.export %3 "output0" : tensor<512x512xf16> -> !hal.buffer_view
  util.return %4 : !hal.buffer_view
}

// -----// IR Dump After CanonicalizerPass (iree-flow-canonicalize) //----- //
util.func public @matmul_accumulate_512x128xf16_times_128x512xf16_into_512x512xf16_for_LLVMGPUMatmulTensorCore_32_32_16_64_2_1(%arg0: !hal.buffer_view, %arg1: !hal.buffer_view, %arg2: !hal.buffer_view) -> !hal.buffer_view attributes {iree.abi.stub, iree.reflection = {iree.abi.declaration = "sync func @matmul_accumulate_512x128xf16_times_128x512xf16_into_512x512xf16_for_LLVMGPUMatmulTensorCore_32_32_16_64_2_1(%input0: tensor<512x128xf16>, %input1: tensor<128x512xf16>, %input2: tensor<512x512xf16>) -> (%output0: tensor<512x512xf16>)"}} {
  %0 = hal.tensor.import %arg0 "input0" : !hal.buffer_view -> tensor<512x128xf16>
  %1 = hal.tensor.import %arg1 "input1" : !hal.buffer_view -> tensor<128x512xf16>
  %2 = hal.tensor.import %arg2 "input2" : !hal.buffer_view -> tensor<512x512xf16>
  %3 = linalg.matmul {compilation_info = #iree_codegen.compilation_info<lowering_config = #iree_codegen.lowering_config<tile_sizes = [[32, 32, 16]]>, translation_info = <pipeline = LLVMGPUMatmulTensorCore workgroup_size = [64, 2, 1], {pipeline_depth = 3 : i64, store_stage = 1 : i64}>>} ins(%0, %1 : tensor<512x128xf16>, tensor<128x512xf16>) outs(%2 : tensor<512x512xf16>) -> tensor<512x512xf16>
  %4 = hal.tensor.export %3 "output0" : tensor<512x512xf16> -> !hal.buffer_view
  util.return %4 : !hal.buffer_view
}

// -----// IR Dump After RemoveZeroExtentTensorsPass (iree-global-opt-remove-zero-extent-tensors) //----- //
util.func public @matmul_accumulate_512x128xf16_times_128x512xf16_into_512x512xf16_for_LLVMGPUMatmulTensorCore_32_32_16_64_2_1(%arg0: !hal.buffer_view, %arg1: !hal.buffer_view, %arg2: !hal.buffer_view) -> !hal.buffer_view attributes {iree.abi.stub, iree.reflection = {iree.abi.declaration = "sync func @matmul_accumulate_512x128xf16_times_128x512xf16_into_512x512xf16_for_LLVMGPUMatmulTensorCore_32_32_16_64_2_1(%input0: tensor<512x128xf16>, %input1: tensor<128x512xf16>, %input2: tensor<512x512xf16>) -> (%output0: tensor<512x512xf16>)"}} {
  %0 = hal.tensor.import %arg0 "input0" : !hal.buffer_view -> tensor<512x128xf16>
  %1 = hal.tensor.import %arg1 "input1" : !hal.buffer_view -> tensor<128x512xf16>
  %2 = hal.tensor.import %arg2 "input2" : !hal.buffer_view -> tensor<512x512xf16>
  %3 = linalg.matmul {compilation_info = #iree_codegen.compilation_info<lowering_config = #iree_codegen.lowering_config<tile_sizes = [[32, 32, 16]]>, translation_info = <pipeline = LLVMGPUMatmulTensorCore workgroup_size = [64, 2, 1], {pipeline_depth = 3 : i64, store_stage = 1 : i64}>>} ins(%0, %1 : tensor<512x128xf16>, tensor<128x512xf16>) outs(%2 : tensor<512x512xf16>) -> tensor<512x512xf16>
  %4 = hal.tensor.export %3 "output0" : tensor<512x512xf16> -> !hal.buffer_view
  util.return %4 : !hal.buffer_view
}

// -----// IR Dump After DetachElementwiseFromNamedOpsPass (iree-global-opt-detach-elementwise-from-named-ops) //----- //
util.func public @matmul_accumulate_512x128xf16_times_128x512xf16_into_512x512xf16_for_LLVMGPUMatmulTensorCore_32_32_16_64_2_1(%arg0: !hal.buffer_view, %arg1: !hal.buffer_view, %arg2: !hal.buffer_view) -> !hal.buffer_view attributes {iree.abi.stub, iree.reflection = {iree.abi.declaration = "sync func @matmul_accumulate_512x128xf16_times_128x512xf16_into_512x512xf16_for_LLVMGPUMatmulTensorCore_32_32_16_64_2_1(%input0: tensor<512x128xf16>, %input1: tensor<128x512xf16>, %input2: tensor<512x512xf16>) -> (%output0: tensor<512x512xf16>)"}} {
  %0 = hal.tensor.import %arg0 "input0" : !hal.buffer_view -> tensor<512x128xf16>
  %1 = hal.tensor.import %arg1 "input1" : !hal.buffer_view -> tensor<128x512xf16>
  %2 = hal.tensor.import %arg2 "input2" : !hal.buffer_view -> tensor<512x512xf16>
  %3 = linalg.matmul {compilation_info = #iree_codegen.compilation_info<lowering_config = #iree_codegen.lowering_config<tile_sizes = [[32, 32, 16]]>, translation_info = <pipeline = LLVMGPUMatmulTensorCore workgroup_size = [64, 2, 1], {pipeline_depth = 3 : i64, store_stage = 1 : i64}>>} ins(%0, %1 : tensor<512x128xf16>, tensor<128x512xf16>) outs(%2 : tensor<512x512xf16>) -> tensor<512x512xf16>
  %4 = hal.tensor.export %3 "output0" : tensor<512x512xf16> -> !hal.buffer_view
  util.return %4 : !hal.buffer_view
}

// -----// IR Dump After LinalgNamedOpConversionPass (linalg-named-op-conversion) //----- //
util.func public @matmul_accumulate_512x128xf16_times_128x512xf16_into_512x512xf16_for_LLVMGPUMatmulTensorCore_32_32_16_64_2_1(%arg0: !hal.buffer_view, %arg1: !hal.buffer_view, %arg2: !hal.buffer_view) -> !hal.buffer_view attributes {iree.abi.stub, iree.reflection = {iree.abi.declaration = "sync func @matmul_accumulate_512x128xf16_times_128x512xf16_into_512x512xf16_for_LLVMGPUMatmulTensorCore_32_32_16_64_2_1(%input0: tensor<512x128xf16>, %input1: tensor<128x512xf16>, %input2: tensor<512x512xf16>) -> (%output0: tensor<512x512xf16>)"}} {
  %0 = hal.tensor.import %arg0 "input0" : !hal.buffer_view -> tensor<512x128xf16>
  %1 = hal.tensor.import %arg1 "input1" : !hal.buffer_view -> tensor<128x512xf16>
  %2 = hal.tensor.import %arg2 "input2" : !hal.buffer_view -> tensor<512x512xf16>
  %3 = linalg.matmul {compilation_info = #iree_codegen.compilation_info<lowering_config = #iree_codegen.lowering_config<tile_sizes = [[32, 32, 16]]>, translation_info = <pipeline = LLVMGPUMatmulTensorCore workgroup_size = [64, 2, 1], {pipeline_depth = 3 : i64, store_stage = 1 : i64}>>} ins(%0, %1 : tensor<512x128xf16>, tensor<128x512xf16>) outs(%2 : tensor<512x512xf16>) -> tensor<512x512xf16>
  %4 = hal.tensor.export %3 "output0" : tensor<512x512xf16> -> !hal.buffer_view
  util.return %4 : !hal.buffer_view
}

// -----// IR Dump After EraseUnusedLinalgOperandsPass (iree-global-opt-erase-unused-linalg-operands) //----- //
#config = #iree_codegen.lowering_config<tile_sizes = [[32, 32, 16]]>
#executable_target_cuda_nvptx_fb = #hal.executable.target<"cuda", "cuda-nvptx-fb", {iree.gpu.target = #iree_gpu.target<arch = "sm_86", features = "+ptx76", wgp = <compute =  fp64|fp32|fp16|int64|int32|int16|int8, storage =  b64|b32|b16|b8, subgroup =  shuffle|arithmetic, dot =  dp4xi8toi32, mma = [<WMMA_F32_16x16x16_F16>, <WMMA_F16_16x16x16_F16>], subgroup_size_choices = [32], max_workgroup_sizes = [1024, 1024, 1024], max_thread_count_per_workgroup = 1024, max_workgroup_memory_bytes = 166912, max_workgroup_counts = [2147483647, 65535, 65535]>>}>
#translation = #iree_codegen.translation_info<pipeline = LLVMGPUMatmulTensorCore workgroup_size = [64, 2, 1], {pipeline_depth = 3 : i64, store_stage = 1 : i64}>
#compilation = #iree_codegen.compilation_info<lowering_config = #config, translation_info = #translation>
#device_target_cuda = #hal.device.target<"cuda", [#executable_target_cuda_nvptx_fb]> : !hal.device
module attributes {stream.affinity.default = #hal.device.affinity<@__device_0>} {
  util.global private @__device_0 = #device_target_cuda
  util.func public @matmul_accumulate_512x128xf16_times_128x512xf16_into_512x512xf16_for_LLVMGPUMatmulTensorCore_32_32_16_64_2_1(%arg0: !hal.buffer_view, %arg1: !hal.buffer_view, %arg2: !hal.buffer_view) -> !hal.buffer_view attributes {iree.abi.stub, iree.reflection = {iree.abi.declaration = "sync func @matmul_accumulate_512x128xf16_times_128x512xf16_into_512x512xf16_for_LLVMGPUMatmulTensorCore_32_32_16_64_2_1(%input0: tensor<512x128xf16>, %input1: tensor<128x512xf16>, %input2: tensor<512x512xf16>) -> (%output0: tensor<512x512xf16>)"}} {
    %0 = hal.tensor.import %arg0 "input0" : !hal.buffer_view -> tensor<512x128xf16>
    %1 = hal.tensor.import %arg1 "input1" : !hal.buffer_view -> tensor<128x512xf16>
    %2 = hal.tensor.import %arg2 "input2" : !hal.buffer_view -> tensor<512x512xf16>
    %3 = linalg.matmul {compilation_info = #compilation} ins(%0, %1 : tensor<512x128xf16>, tensor<128x512xf16>) outs(%2 : tensor<512x512xf16>) -> tensor<512x512xf16>
    %4 = hal.tensor.export %3 "output0" : tensor<512x512xf16> -> !hal.buffer_view
    util.return %4 : !hal.buffer_view
  }
}


// -----// IR Dump After ExpandTensorShapesPass (iree-global-opt-expand-tensor-shapes) //----- //
#config = #iree_codegen.lowering_config<tile_sizes = [[32, 32, 16]]>
#executable_target_cuda_nvptx_fb = #hal.executable.target<"cuda", "cuda-nvptx-fb", {iree.gpu.target = #iree_gpu.target<arch = "sm_86", features = "+ptx76", wgp = <compute =  fp64|fp32|fp16|int64|int32|int16|int8, storage =  b64|b32|b16|b8, subgroup =  shuffle|arithmetic, dot =  dp4xi8toi32, mma = [<WMMA_F32_16x16x16_F16>, <WMMA_F16_16x16x16_F16>], subgroup_size_choices = [32], max_workgroup_sizes = [1024, 1024, 1024], max_thread_count_per_workgroup = 1024, max_workgroup_memory_bytes = 166912, max_workgroup_counts = [2147483647, 65535, 65535]>>}>
#translation = #iree_codegen.translation_info<pipeline = LLVMGPUMatmulTensorCore workgroup_size = [64, 2, 1], {pipeline_depth = 3 : i64, store_stage = 1 : i64}>
#compilation = #iree_codegen.compilation_info<lowering_config = #config, translation_info = #translation>
#device_target_cuda = #hal.device.target<"cuda", [#executable_target_cuda_nvptx_fb]> : !hal.device
module attributes {stream.affinity.default = #hal.device.affinity<@__device_0>} {
  util.global private @__device_0 = #device_target_cuda
  util.func public @matmul_accumulate_512x128xf16_times_128x512xf16_into_512x512xf16_for_LLVMGPUMatmulTensorCore_32_32_16_64_2_1(%arg0: !hal.buffer_view, %arg1: !hal.buffer_view, %arg2: !hal.buffer_view) -> !hal.buffer_view attributes {iree.abi.stub, iree.reflection = {iree.abi.declaration = "sync func @matmul_accumulate_512x128xf16_times_128x512xf16_into_512x512xf16_for_LLVMGPUMatmulTensorCore_32_32_16_64_2_1(%input0: tensor<512x128xf16>, %input1: tensor<128x512xf16>, %input2: tensor<512x512xf16>) -> (%output0: tensor<512x512xf16>)"}} {
    %0 = hal.tensor.import %arg0 "input0" : !hal.buffer_view -> tensor<512x128xf16>
    %1 = hal.tensor.import %arg1 "input1" : !hal.buffer_view -> tensor<128x512xf16>
    %2 = hal.tensor.import %arg2 "input2" : !hal.buffer_view -> tensor<512x512xf16>
    %3 = linalg.matmul {compilation_info = #compilation} ins(%0, %1 : tensor<512x128xf16>, tensor<128x512xf16>) outs(%2 : tensor<512x512xf16>) -> tensor<512x512xf16>
    %4 = hal.tensor.export %3 "output0" : tensor<512x512xf16> -> !hal.buffer_view
    util.return %4 : !hal.buffer_view
  }
}


// -----// IR Dump After ConvertElementwiseToLinalgPass (convert-elementwise-to-linalg) //----- //
util.func public @matmul_accumulate_512x128xf16_times_128x512xf16_into_512x512xf16_for_LLVMGPUMatmulTensorCore_32_32_16_64_2_1(%arg0: !hal.buffer_view, %arg1: !hal.buffer_view, %arg2: !hal.buffer_view) -> !hal.buffer_view attributes {iree.abi.stub, iree.reflection = {iree.abi.declaration = "sync func @matmul_accumulate_512x128xf16_times_128x512xf16_into_512x512xf16_for_LLVMGPUMatmulTensorCore_32_32_16_64_2_1(%input0: tensor<512x128xf16>, %input1: tensor<128x512xf16>, %input2: tensor<512x512xf16>) -> (%output0: tensor<512x512xf16>)"}} {
  %0 = hal.tensor.import %arg0 "input0" : !hal.buffer_view -> tensor<512x128xf16>
  %1 = hal.tensor.import %arg1 "input1" : !hal.buffer_view -> tensor<128x512xf16>
  %2 = hal.tensor.import %arg2 "input2" : !hal.buffer_view -> tensor<512x512xf16>
  %3 = linalg.matmul {compilation_info = #iree_codegen.compilation_info<lowering_config = #iree_codegen.lowering_config<tile_sizes = [[32, 32, 16]]>, translation_info = <pipeline = LLVMGPUMatmulTensorCore workgroup_size = [64, 2, 1], {pipeline_depth = 3 : i64, store_stage = 1 : i64}>>} ins(%0, %1 : tensor<512x128xf16>, tensor<128x512xf16>) outs(%2 : tensor<512x512xf16>) -> tensor<512x512xf16>
  %4 = hal.tensor.export %3 "output0" : tensor<512x512xf16> -> !hal.buffer_view
  util.return %4 : !hal.buffer_view
}

// -----// IR Dump After RaiseSpecialOpsPass (iree-global-opt-raise-special-ops) //----- //
util.func public @matmul_accumulate_512x128xf16_times_128x512xf16_into_512x512xf16_for_LLVMGPUMatmulTensorCore_32_32_16_64_2_1(%arg0: !hal.buffer_view, %arg1: !hal.buffer_view, %arg2: !hal.buffer_view) -> !hal.buffer_view attributes {iree.abi.stub, iree.reflection = {iree.abi.declaration = "sync func @matmul_accumulate_512x128xf16_times_128x512xf16_into_512x512xf16_for_LLVMGPUMatmulTensorCore_32_32_16_64_2_1(%input0: tensor<512x128xf16>, %input1: tensor<128x512xf16>, %input2: tensor<512x512xf16>) -> (%output0: tensor<512x512xf16>)"}} {
  %0 = hal.tensor.import %arg0 "input0" : !hal.buffer_view -> tensor<512x128xf16>
  %1 = hal.tensor.import %arg1 "input1" : !hal.buffer_view -> tensor<128x512xf16>
  %2 = hal.tensor.import %arg2 "input2" : !hal.buffer_view -> tensor<512x512xf16>
  %3 = linalg.matmul {compilation_info = #iree_codegen.compilation_info<lowering_config = #iree_codegen.lowering_config<tile_sizes = [[32, 32, 16]]>, translation_info = <pipeline = LLVMGPUMatmulTensorCore workgroup_size = [64, 2, 1], {pipeline_depth = 3 : i64, store_stage = 1 : i64}>>} ins(%0, %1 : tensor<512x128xf16>, tensor<128x512xf16>) outs(%2 : tensor<512x512xf16>) -> tensor<512x512xf16>
  %4 = hal.tensor.export %3 "output0" : tensor<512x512xf16> -> !hal.buffer_view
  util.return %4 : !hal.buffer_view
}

// -----// IR Dump After DecomposeConcatPass (iree-global-opt-decompose-concat) //----- //
util.func public @matmul_accumulate_512x128xf16_times_128x512xf16_into_512x512xf16_for_LLVMGPUMatmulTensorCore_32_32_16_64_2_1(%arg0: !hal.buffer_view, %arg1: !hal.buffer_view, %arg2: !hal.buffer_view) -> !hal.buffer_view attributes {iree.abi.stub, iree.reflection = {iree.abi.declaration = "sync func @matmul_accumulate_512x128xf16_times_128x512xf16_into_512x512xf16_for_LLVMGPUMatmulTensorCore_32_32_16_64_2_1(%input0: tensor<512x128xf16>, %input1: tensor<128x512xf16>, %input2: tensor<512x512xf16>) -> (%output0: tensor<512x512xf16>)"}} {
  %0 = hal.tensor.import %arg0 "input0" : !hal.buffer_view -> tensor<512x128xf16>
  %1 = hal.tensor.import %arg1 "input1" : !hal.buffer_view -> tensor<128x512xf16>
  %2 = hal.tensor.import %arg2 "input2" : !hal.buffer_view -> tensor<512x512xf16>
  %3 = linalg.matmul {compilation_info = #iree_codegen.compilation_info<lowering_config = #iree_codegen.lowering_config<tile_sizes = [[32, 32, 16]]>, translation_info = <pipeline = LLVMGPUMatmulTensorCore workgroup_size = [64, 2, 1], {pipeline_depth = 3 : i64, store_stage = 1 : i64}>>} ins(%0, %1 : tensor<512x128xf16>, tensor<128x512xf16>) outs(%2 : tensor<512x512xf16>) -> tensor<512x512xf16>
  %4 = hal.tensor.export %3 "output0" : tensor<512x512xf16> -> !hal.buffer_view
  util.return %4 : !hal.buffer_view
}

// -----// IR Dump After GeneralizeLinalgNamedOpsPass (iree-global-opt-generalize-linalg-named-ops) //----- //
util.func public @matmul_accumulate_512x128xf16_times_128x512xf16_into_512x512xf16_for_LLVMGPUMatmulTensorCore_32_32_16_64_2_1(%arg0: !hal.buffer_view, %arg1: !hal.buffer_view, %arg2: !hal.buffer_view) -> !hal.buffer_view attributes {iree.abi.stub, iree.reflection = {iree.abi.declaration = "sync func @matmul_accumulate_512x128xf16_times_128x512xf16_into_512x512xf16_for_LLVMGPUMatmulTensorCore_32_32_16_64_2_1(%input0: tensor<512x128xf16>, %input1: tensor<128x512xf16>, %input2: tensor<512x512xf16>) -> (%output0: tensor<512x512xf16>)"}} {
  %0 = hal.tensor.import %arg0 "input0" : !hal.buffer_view -> tensor<512x128xf16>
  %1 = hal.tensor.import %arg1 "input1" : !hal.buffer_view -> tensor<128x512xf16>
  %2 = hal.tensor.import %arg2 "input2" : !hal.buffer_view -> tensor<512x512xf16>
  %3 = linalg.matmul {compilation_info = #iree_codegen.compilation_info<lowering_config = #iree_codegen.lowering_config<tile_sizes = [[32, 32, 16]]>, translation_info = <pipeline = LLVMGPUMatmulTensorCore workgroup_size = [64, 2, 1], {pipeline_depth = 3 : i64, store_stage = 1 : i64}>>} ins(%0, %1 : tensor<512x128xf16>, tensor<128x512xf16>) outs(%2 : tensor<512x512xf16>) -> tensor<512x512xf16>
  %4 = hal.tensor.export %3 "output0" : tensor<512x512xf16> -> !hal.buffer_view
  util.return %4 : !hal.buffer_view
}

// -----// IR Dump After FoldUnitExtentDimsPass (iree-dispatch-creation-fold-unit-extent-dims) //----- //
#config = #iree_codegen.lowering_config<tile_sizes = [[32, 32, 16]]>
#executable_target_cuda_nvptx_fb = #hal.executable.target<"cuda", "cuda-nvptx-fb", {iree.gpu.target = #iree_gpu.target<arch = "sm_86", features = "+ptx76", wgp = <compute =  fp64|fp32|fp16|int64|int32|int16|int8, storage =  b64|b32|b16|b8, subgroup =  shuffle|arithmetic, dot =  dp4xi8toi32, mma = [<WMMA_F32_16x16x16_F16>, <WMMA_F16_16x16x16_F16>], subgroup_size_choices = [32], max_workgroup_sizes = [1024, 1024, 1024], max_thread_count_per_workgroup = 1024, max_workgroup_memory_bytes = 166912, max_workgroup_counts = [2147483647, 65535, 65535]>>}>
#translation = #iree_codegen.translation_info<pipeline = LLVMGPUMatmulTensorCore workgroup_size = [64, 2, 1], {pipeline_depth = 3 : i64, store_stage = 1 : i64}>
#compilation = #iree_codegen.compilation_info<lowering_config = #config, translation_info = #translation>
#device_target_cuda = #hal.device.target<"cuda", [#executable_target_cuda_nvptx_fb]> : !hal.device
module attributes {stream.affinity.default = #hal.device.affinity<@__device_0>} {
  util.global private @__device_0 = #device_target_cuda
  util.func public @matmul_accumulate_512x128xf16_times_128x512xf16_into_512x512xf16_for_LLVMGPUMatmulTensorCore_32_32_16_64_2_1(%arg0: !hal.buffer_view, %arg1: !hal.buffer_view, %arg2: !hal.buffer_view) -> !hal.buffer_view attributes {iree.abi.stub, iree.reflection = {iree.abi.declaration = "sync func @matmul_accumulate_512x128xf16_times_128x512xf16_into_512x512xf16_for_LLVMGPUMatmulTensorCore_32_32_16_64_2_1(%input0: tensor<512x128xf16>, %input1: tensor<128x512xf16>, %input2: tensor<512x512xf16>) -> (%output0: tensor<512x512xf16>)"}} {
    %0 = hal.tensor.import %arg0 "input0" : !hal.buffer_view -> tensor<512x128xf16>
    %1 = hal.tensor.import %arg1 "input1" : !hal.buffer_view -> tensor<128x512xf16>
    %2 = hal.tensor.import %arg2 "input2" : !hal.buffer_view -> tensor<512x512xf16>
    %3 = linalg.matmul {compilation_info = #compilation} ins(%0, %1 : tensor<512x128xf16>, tensor<128x512xf16>) outs(%2 : tensor<512x512xf16>) -> tensor<512x512xf16>
    %4 = hal.tensor.export %3 "output0" : tensor<512x512xf16> -> !hal.buffer_view
    util.return %4 : !hal.buffer_view
  }
}


// -----// IR Dump After DemoteContractionInputsToBF16Pass (iree-global-opt-demote-contraction-inputs-to-bf16) //----- //
util.func public @matmul_accumulate_512x128xf16_times_128x512xf16_into_512x512xf16_for_LLVMGPUMatmulTensorCore_32_32_16_64_2_1(%arg0: !hal.buffer_view, %arg1: !hal.buffer_view, %arg2: !hal.buffer_view) -> !hal.buffer_view attributes {iree.abi.stub, iree.reflection = {iree.abi.declaration = "sync func @matmul_accumulate_512x128xf16_times_128x512xf16_into_512x512xf16_for_LLVMGPUMatmulTensorCore_32_32_16_64_2_1(%input0: tensor<512x128xf16>, %input1: tensor<128x512xf16>, %input2: tensor<512x512xf16>) -> (%output0: tensor<512x512xf16>)"}} {
  %0 = hal.tensor.import %arg0 "input0" : !hal.buffer_view -> tensor<512x128xf16>
  %1 = hal.tensor.import %arg1 "input1" : !hal.buffer_view -> tensor<128x512xf16>
  %2 = hal.tensor.import %arg2 "input2" : !hal.buffer_view -> tensor<512x512xf16>
  %3 = linalg.matmul {compilation_info = #iree_codegen.compilation_info<lowering_config = #iree_codegen.lowering_config<tile_sizes = [[32, 32, 16]]>, translation_info = <pipeline = LLVMGPUMatmulTensorCore workgroup_size = [64, 2, 1], {pipeline_depth = 3 : i64, store_stage = 1 : i64}>>} ins(%0, %1 : tensor<512x128xf16>, tensor<128x512xf16>) outs(%2 : tensor<512x512xf16>) -> tensor<512x512xf16>
  %4 = hal.tensor.export %3 "output0" : tensor<512x512xf16> -> !hal.buffer_view
  util.return %4 : !hal.buffer_view
}

// -----// IR Dump After CanonicalizerPass (iree-flow-canonicalize) //----- //
util.func public @matmul_accumulate_512x128xf16_times_128x512xf16_into_512x512xf16_for_LLVMGPUMatmulTensorCore_32_32_16_64_2_1(%arg0: !hal.buffer_view, %arg1: !hal.buffer_view, %arg2: !hal.buffer_view) -> !hal.buffer_view attributes {iree.abi.stub, iree.reflection = {iree.abi.declaration = "sync func @matmul_accumulate_512x128xf16_times_128x512xf16_into_512x512xf16_for_LLVMGPUMatmulTensorCore_32_32_16_64_2_1(%input0: tensor<512x128xf16>, %input1: tensor<128x512xf16>, %input2: tensor<512x512xf16>) -> (%output0: tensor<512x512xf16>)"}} {
  %0 = hal.tensor.import %arg0 "input0" : !hal.buffer_view -> tensor<512x128xf16>
  %1 = hal.tensor.import %arg1 "input1" : !hal.buffer_view -> tensor<128x512xf16>
  %2 = hal.tensor.import %arg2 "input2" : !hal.buffer_view -> tensor<512x512xf16>
  %3 = linalg.matmul {compilation_info = #iree_codegen.compilation_info<lowering_config = #iree_codegen.lowering_config<tile_sizes = [[32, 32, 16]]>, translation_info = <pipeline = LLVMGPUMatmulTensorCore workgroup_size = [64, 2, 1], {pipeline_depth = 3 : i64, store_stage = 1 : i64}>>} ins(%0, %1 : tensor<512x128xf16>, tensor<128x512xf16>) outs(%2 : tensor<512x512xf16>) -> tensor<512x512xf16>
  %4 = hal.tensor.export %3 "output0" : tensor<512x512xf16> -> !hal.buffer_view
  util.return %4 : !hal.buffer_view
}

// -----// IR Dump After CSE (cse) //----- //
util.func public @matmul_accumulate_512x128xf16_times_128x512xf16_into_512x512xf16_for_LLVMGPUMatmulTensorCore_32_32_16_64_2_1(%arg0: !hal.buffer_view, %arg1: !hal.buffer_view, %arg2: !hal.buffer_view) -> !hal.buffer_view attributes {iree.abi.stub, iree.reflection = {iree.abi.declaration = "sync func @matmul_accumulate_512x128xf16_times_128x512xf16_into_512x512xf16_for_LLVMGPUMatmulTensorCore_32_32_16_64_2_1(%input0: tensor<512x128xf16>, %input1: tensor<128x512xf16>, %input2: tensor<512x512xf16>) -> (%output0: tensor<512x512xf16>)"}} {
  %0 = hal.tensor.import %arg0 "input0" : !hal.buffer_view -> tensor<512x128xf16>
  %1 = hal.tensor.import %arg1 "input1" : !hal.buffer_view -> tensor<128x512xf16>
  %2 = hal.tensor.import %arg2 "input2" : !hal.buffer_view -> tensor<512x512xf16>
  %3 = linalg.matmul {compilation_info = #iree_codegen.compilation_info<lowering_config = #iree_codegen.lowering_config<tile_sizes = [[32, 32, 16]]>, translation_info = <pipeline = LLVMGPUMatmulTensorCore workgroup_size = [64, 2, 1], {pipeline_depth = 3 : i64, store_stage = 1 : i64}>>} ins(%0, %1 : tensor<512x128xf16>, tensor<128x512xf16>) outs(%2 : tensor<512x512xf16>) -> tensor<512x512xf16>
  %4 = hal.tensor.export %3 "output0" : tensor<512x512xf16> -> !hal.buffer_view
  util.return %4 : !hal.buffer_view
}

// -----// IR Dump After CanonicalizerPass (iree-flow-canonicalize) //----- //
util.func public @matmul_accumulate_512x128xf16_times_128x512xf16_into_512x512xf16_for_LLVMGPUMatmulTensorCore_32_32_16_64_2_1(%arg0: !hal.buffer_view, %arg1: !hal.buffer_view, %arg2: !hal.buffer_view) -> !hal.buffer_view attributes {iree.abi.stub, iree.reflection = {iree.abi.declaration = "sync func @matmul_accumulate_512x128xf16_times_128x512xf16_into_512x512xf16_for_LLVMGPUMatmulTensorCore_32_32_16_64_2_1(%input0: tensor<512x128xf16>, %input1: tensor<128x512xf16>, %input2: tensor<512x512xf16>) -> (%output0: tensor<512x512xf16>)"}} {
  %0 = hal.tensor.import %arg0 "input0" : !hal.buffer_view -> tensor<512x128xf16>
  %1 = hal.tensor.import %arg1 "input1" : !hal.buffer_view -> tensor<128x512xf16>
  %2 = hal.tensor.import %arg2 "input2" : !hal.buffer_view -> tensor<512x512xf16>
  %3 = linalg.matmul {compilation_info = #iree_codegen.compilation_info<lowering_config = #iree_codegen.lowering_config<tile_sizes = [[32, 32, 16]]>, translation_info = <pipeline = LLVMGPUMatmulTensorCore workgroup_size = [64, 2, 1], {pipeline_depth = 3 : i64, store_stage = 1 : i64}>>} ins(%0, %1 : tensor<512x128xf16>, tensor<128x512xf16>) outs(%2 : tensor<512x512xf16>) -> tensor<512x512xf16>
  %4 = hal.tensor.export %3 "output0" : tensor<512x512xf16> -> !hal.buffer_view
  util.return %4 : !hal.buffer_view
}

// -----// IR Dump After CSE (cse) //----- //
util.func public @matmul_accumulate_512x128xf16_times_128x512xf16_into_512x512xf16_for_LLVMGPUMatmulTensorCore_32_32_16_64_2_1(%arg0: !hal.buffer_view, %arg1: !hal.buffer_view, %arg2: !hal.buffer_view) -> !hal.buffer_view attributes {iree.abi.stub, iree.reflection = {iree.abi.declaration = "sync func @matmul_accumulate_512x128xf16_times_128x512xf16_into_512x512xf16_for_LLVMGPUMatmulTensorCore_32_32_16_64_2_1(%input0: tensor<512x128xf16>, %input1: tensor<128x512xf16>, %input2: tensor<512x512xf16>) -> (%output0: tensor<512x512xf16>)"}} {
  %0 = hal.tensor.import %arg0 "input0" : !hal.buffer_view -> tensor<512x128xf16>
  %1 = hal.tensor.import %arg1 "input1" : !hal.buffer_view -> tensor<128x512xf16>
  %2 = hal.tensor.import %arg2 "input2" : !hal.buffer_view -> tensor<512x512xf16>
  %3 = linalg.matmul {compilation_info = #iree_codegen.compilation_info<lowering_config = #iree_codegen.lowering_config<tile_sizes = [[32, 32, 16]]>, translation_info = <pipeline = LLVMGPUMatmulTensorCore workgroup_size = [64, 2, 1], {pipeline_depth = 3 : i64, store_stage = 1 : i64}>>} ins(%0, %1 : tensor<512x128xf16>, tensor<128x512xf16>) outs(%2 : tensor<512x512xf16>) -> tensor<512x512xf16>
  %4 = hal.tensor.export %3 "output0" : tensor<512x512xf16> -> !hal.buffer_view
  util.return %4 : !hal.buffer_view
}

// -----// IR Dump After SetEncodingPass (iree-dispatch-creation-set-encoding) //----- //
util.func public @matmul_accumulate_512x128xf16_times_128x512xf16_into_512x512xf16_for_LLVMGPUMatmulTensorCore_32_32_16_64_2_1(%arg0: !hal.buffer_view, %arg1: !hal.buffer_view, %arg2: !hal.buffer_view) -> !hal.buffer_view attributes {iree.abi.stub, iree.reflection = {iree.abi.declaration = "sync func @matmul_accumulate_512x128xf16_times_128x512xf16_into_512x512xf16_for_LLVMGPUMatmulTensorCore_32_32_16_64_2_1(%input0: tensor<512x128xf16>, %input1: tensor<128x512xf16>, %input2: tensor<512x512xf16>) -> (%output0: tensor<512x512xf16>)"}} {
  %0 = hal.tensor.import %arg0 "input0" : !hal.buffer_view -> tensor<512x128xf16>
  %1 = hal.tensor.import %arg1 "input1" : !hal.buffer_view -> tensor<128x512xf16>
  %2 = hal.tensor.import %arg2 "input2" : !hal.buffer_view -> tensor<512x512xf16>
  %3 = linalg.matmul {compilation_info = #iree_codegen.compilation_info<lowering_config = #iree_codegen.lowering_config<tile_sizes = [[32, 32, 16]]>, translation_info = <pipeline = LLVMGPUMatmulTensorCore workgroup_size = [64, 2, 1], {pipeline_depth = 3 : i64, store_stage = 1 : i64}>>} ins(%0, %1 : tensor<512x128xf16>, tensor<128x512xf16>) outs(%2 : tensor<512x512xf16>) -> tensor<512x512xf16>
  %4 = hal.tensor.export %3 "output0" : tensor<512x512xf16> -> !hal.buffer_view
  util.return %4 : !hal.buffer_view
}

// -----// IR Dump After MaterializeEncodingIntoNopPass (iree-codegen-materialize-encoding-into-nop) //----- //
util.func public @matmul_accumulate_512x128xf16_times_128x512xf16_into_512x512xf16_for_LLVMGPUMatmulTensorCore_32_32_16_64_2_1(%arg0: !hal.buffer_view, %arg1: !hal.buffer_view, %arg2: !hal.buffer_view) -> !hal.buffer_view attributes {iree.abi.stub, iree.reflection = {iree.abi.declaration = "sync func @matmul_accumulate_512x128xf16_times_128x512xf16_into_512x512xf16_for_LLVMGPUMatmulTensorCore_32_32_16_64_2_1(%input0: tensor<512x128xf16>, %input1: tensor<128x512xf16>, %input2: tensor<512x512xf16>) -> (%output0: tensor<512x512xf16>)"}} {
  %0 = hal.tensor.import %arg0 "input0" : !hal.buffer_view -> tensor<512x128xf16>
  %1 = hal.tensor.import %arg1 "input1" : !hal.buffer_view -> tensor<128x512xf16>
  %2 = hal.tensor.import %arg2 "input2" : !hal.buffer_view -> tensor<512x512xf16>
  %3 = linalg.matmul {compilation_info = #iree_codegen.compilation_info<lowering_config = #iree_codegen.lowering_config<tile_sizes = [[32, 32, 16]]>, translation_info = <pipeline = LLVMGPUMatmulTensorCore workgroup_size = [64, 2, 1], {pipeline_depth = 3 : i64, store_stage = 1 : i64}>>} ins(%0, %1 : tensor<512x128xf16>, tensor<128x512xf16>) outs(%2 : tensor<512x512xf16>) -> tensor<512x512xf16>
  %4 = hal.tensor.export %3 "output0" : tensor<512x512xf16> -> !hal.buffer_view
  util.return %4 : !hal.buffer_view
}

// -----// IR Dump After Canonicalizer (canonicalize) //----- //
util.func public @matmul_accumulate_512x128xf16_times_128x512xf16_into_512x512xf16_for_LLVMGPUMatmulTensorCore_32_32_16_64_2_1(%arg0: !hal.buffer_view, %arg1: !hal.buffer_view, %arg2: !hal.buffer_view) -> !hal.buffer_view attributes {iree.abi.stub, iree.reflection = {iree.abi.declaration = "sync func @matmul_accumulate_512x128xf16_times_128x512xf16_into_512x512xf16_for_LLVMGPUMatmulTensorCore_32_32_16_64_2_1(%input0: tensor<512x128xf16>, %input1: tensor<128x512xf16>, %input2: tensor<512x512xf16>) -> (%output0: tensor<512x512xf16>)"}} {
  %0 = hal.tensor.import %arg0 "input0" : !hal.buffer_view -> tensor<512x128xf16>
  %1 = hal.tensor.import %arg1 "input1" : !hal.buffer_view -> tensor<128x512xf16>
  %2 = hal.tensor.import %arg2 "input2" : !hal.buffer_view -> tensor<512x512xf16>
  %3 = linalg.matmul {compilation_info = #iree_codegen.compilation_info<lowering_config = #iree_codegen.lowering_config<tile_sizes = [[32, 32, 16]]>, translation_info = <pipeline = LLVMGPUMatmulTensorCore workgroup_size = [64, 2, 1], {pipeline_depth = 3 : i64, store_stage = 1 : i64}>>} ins(%0, %1 : tensor<512x128xf16>, tensor<128x512xf16>) outs(%2 : tensor<512x512xf16>) -> tensor<512x512xf16>
  %4 = hal.tensor.export %3 "output0" : tensor<512x512xf16> -> !hal.buffer_view
  util.return %4 : !hal.buffer_view
}

// -----// IR Dump After MaterializeHomogeneousEncodingsPass (iree-global-opt-materialize-homogeneous-encodings) //----- //
#config = #iree_codegen.lowering_config<tile_sizes = [[32, 32, 16]]>
#executable_target_cuda_nvptx_fb = #hal.executable.target<"cuda", "cuda-nvptx-fb", {iree.gpu.target = #iree_gpu.target<arch = "sm_86", features = "+ptx76", wgp = <compute =  fp64|fp32|fp16|int64|int32|int16|int8, storage =  b64|b32|b16|b8, subgroup =  shuffle|arithmetic, dot =  dp4xi8toi32, mma = [<WMMA_F32_16x16x16_F16>, <WMMA_F16_16x16x16_F16>], subgroup_size_choices = [32], max_workgroup_sizes = [1024, 1024, 1024], max_thread_count_per_workgroup = 1024, max_workgroup_memory_bytes = 166912, max_workgroup_counts = [2147483647, 65535, 65535]>>}>
#translation = #iree_codegen.translation_info<pipeline = LLVMGPUMatmulTensorCore workgroup_size = [64, 2, 1], {pipeline_depth = 3 : i64, store_stage = 1 : i64}>
#compilation = #iree_codegen.compilation_info<lowering_config = #config, translation_info = #translation>
#device_target_cuda = #hal.device.target<"cuda", [#executable_target_cuda_nvptx_fb]> : !hal.device
module attributes {stream.affinity.default = #hal.device.affinity<@__device_0>} {
  util.global private @__device_0 = #device_target_cuda
  util.func public @matmul_accumulate_512x128xf16_times_128x512xf16_into_512x512xf16_for_LLVMGPUMatmulTensorCore_32_32_16_64_2_1(%arg0: !hal.buffer_view, %arg1: !hal.buffer_view, %arg2: !hal.buffer_view) -> !hal.buffer_view attributes {iree.abi.stub, iree.reflection = {iree.abi.declaration = "sync func @matmul_accumulate_512x128xf16_times_128x512xf16_into_512x512xf16_for_LLVMGPUMatmulTensorCore_32_32_16_64_2_1(%input0: tensor<512x128xf16>, %input1: tensor<128x512xf16>, %input2: tensor<512x512xf16>) -> (%output0: tensor<512x512xf16>)"}} {
    %0 = hal.tensor.import %arg0 "input0" : !hal.buffer_view -> tensor<512x128xf16>
    %1 = hal.tensor.import %arg1 "input1" : !hal.buffer_view -> tensor<128x512xf16>
    %2 = hal.tensor.import %arg2 "input2" : !hal.buffer_view -> tensor<512x512xf16>
    %3 = linalg.matmul {compilation_info = #compilation} ins(%0, %1 : tensor<512x128xf16>, tensor<128x512xf16>) outs(%2 : tensor<512x512xf16>) -> tensor<512x512xf16>
    %4 = hal.tensor.export %3 "output0" : tensor<512x512xf16> -> !hal.buffer_view
    util.return %4 : !hal.buffer_view
  }
}


// -----// IR Dump After CanonicalizerPass (iree-flow-canonicalize) //----- //
#config = #iree_codegen.lowering_config<tile_sizes = [[32, 32, 16]]>
#executable_target_cuda_nvptx_fb = #hal.executable.target<"cuda", "cuda-nvptx-fb", {iree.gpu.target = #iree_gpu.target<arch = "sm_86", features = "+ptx76", wgp = <compute =  fp64|fp32|fp16|int64|int32|int16|int8, storage =  b64|b32|b16|b8, subgroup =  shuffle|arithmetic, dot =  dp4xi8toi32, mma = [<WMMA_F32_16x16x16_F16>, <WMMA_F16_16x16x16_F16>], subgroup_size_choices = [32], max_workgroup_sizes = [1024, 1024, 1024], max_thread_count_per_workgroup = 1024, max_workgroup_memory_bytes = 166912, max_workgroup_counts = [2147483647, 65535, 65535]>>}>
#translation = #iree_codegen.translation_info<pipeline = LLVMGPUMatmulTensorCore workgroup_size = [64, 2, 1], {pipeline_depth = 3 : i64, store_stage = 1 : i64}>
#compilation = #iree_codegen.compilation_info<lowering_config = #config, translation_info = #translation>
#device_target_cuda = #hal.device.target<"cuda", [#executable_target_cuda_nvptx_fb]> : !hal.device
module attributes {stream.affinity.default = #hal.device.affinity<@__device_0>} {
  util.global private @__device_0 = #device_target_cuda
  util.func public @matmul_accumulate_512x128xf16_times_128x512xf16_into_512x512xf16_for_LLVMGPUMatmulTensorCore_32_32_16_64_2_1(%arg0: !hal.buffer_view, %arg1: !hal.buffer_view, %arg2: !hal.buffer_view) -> !hal.buffer_view attributes {iree.abi.stub, iree.reflection = {iree.abi.declaration = "sync func @matmul_accumulate_512x128xf16_times_128x512xf16_into_512x512xf16_for_LLVMGPUMatmulTensorCore_32_32_16_64_2_1(%input0: tensor<512x128xf16>, %input1: tensor<128x512xf16>, %input2: tensor<512x512xf16>) -> (%output0: tensor<512x512xf16>)"}} {
    %0 = hal.tensor.import %arg0 "input0" : !hal.buffer_view -> tensor<512x128xf16>
    %1 = hal.tensor.import %arg1 "input1" : !hal.buffer_view -> tensor<128x512xf16>
    %2 = hal.tensor.import %arg2 "input2" : !hal.buffer_view -> tensor<512x512xf16>
    %3 = linalg.matmul {compilation_info = #compilation} ins(%0, %1 : tensor<512x128xf16>, tensor<128x512xf16>) outs(%2 : tensor<512x512xf16>) -> tensor<512x512xf16>
    %4 = hal.tensor.export %3 "output0" : tensor<512x512xf16> -> !hal.buffer_view
    util.return %4 : !hal.buffer_view
  }
}


// -----// IR Dump After CSE (cse) //----- //
#config = #iree_codegen.lowering_config<tile_sizes = [[32, 32, 16]]>
#executable_target_cuda_nvptx_fb = #hal.executable.target<"cuda", "cuda-nvptx-fb", {iree.gpu.target = #iree_gpu.target<arch = "sm_86", features = "+ptx76", wgp = <compute =  fp64|fp32|fp16|int64|int32|int16|int8, storage =  b64|b32|b16|b8, subgroup =  shuffle|arithmetic, dot =  dp4xi8toi32, mma = [<WMMA_F32_16x16x16_F16>, <WMMA_F16_16x16x16_F16>], subgroup_size_choices = [32], max_workgroup_sizes = [1024, 1024, 1024], max_thread_count_per_workgroup = 1024, max_workgroup_memory_bytes = 166912, max_workgroup_counts = [2147483647, 65535, 65535]>>}>
#translation = #iree_codegen.translation_info<pipeline = LLVMGPUMatmulTensorCore workgroup_size = [64, 2, 1], {pipeline_depth = 3 : i64, store_stage = 1 : i64}>
#compilation = #iree_codegen.compilation_info<lowering_config = #config, translation_info = #translation>
#device_target_cuda = #hal.device.target<"cuda", [#executable_target_cuda_nvptx_fb]> : !hal.device
module attributes {stream.affinity.default = #hal.device.affinity<@__device_0>} {
  util.global private @__device_0 = #device_target_cuda
  util.func public @matmul_accumulate_512x128xf16_times_128x512xf16_into_512x512xf16_for_LLVMGPUMatmulTensorCore_32_32_16_64_2_1(%arg0: !hal.buffer_view, %arg1: !hal.buffer_view, %arg2: !hal.buffer_view) -> !hal.buffer_view attributes {iree.abi.stub, iree.reflection = {iree.abi.declaration = "sync func @matmul_accumulate_512x128xf16_times_128x512xf16_into_512x512xf16_for_LLVMGPUMatmulTensorCore_32_32_16_64_2_1(%input0: tensor<512x128xf16>, %input1: tensor<128x512xf16>, %input2: tensor<512x512xf16>) -> (%output0: tensor<512x512xf16>)"}} {
    %0 = hal.tensor.import %arg0 "input0" : !hal.buffer_view -> tensor<512x128xf16>
    %1 = hal.tensor.import %arg1 "input1" : !hal.buffer_view -> tensor<128x512xf16>
    %2 = hal.tensor.import %arg2 "input2" : !hal.buffer_view -> tensor<512x512xf16>
    %3 = linalg.matmul {compilation_info = #compilation} ins(%0, %1 : tensor<512x128xf16>, tensor<128x512xf16>) outs(%2 : tensor<512x512xf16>) -> tensor<512x512xf16>
    %4 = hal.tensor.export %3 "output0" : tensor<512x512xf16> -> !hal.buffer_view
    util.return %4 : !hal.buffer_view
  }
}


// -----// IR Dump After SimplifyPackUnpackPass (iree-global-opt-simplify-pack-unpack) //----- //
#config = #iree_codegen.lowering_config<tile_sizes = [[32, 32, 16]]>
#executable_target_cuda_nvptx_fb = #hal.executable.target<"cuda", "cuda-nvptx-fb", {iree.gpu.target = #iree_gpu.target<arch = "sm_86", features = "+ptx76", wgp = <compute =  fp64|fp32|fp16|int64|int32|int16|int8, storage =  b64|b32|b16|b8, subgroup =  shuffle|arithmetic, dot =  dp4xi8toi32, mma = [<WMMA_F32_16x16x16_F16>, <WMMA_F16_16x16x16_F16>], subgroup_size_choices = [32], max_workgroup_sizes = [1024, 1024, 1024], max_thread_count_per_workgroup = 1024, max_workgroup_memory_bytes = 166912, max_workgroup_counts = [2147483647, 65535, 65535]>>}>
#translation = #iree_codegen.translation_info<pipeline = LLVMGPUMatmulTensorCore workgroup_size = [64, 2, 1], {pipeline_depth = 3 : i64, store_stage = 1 : i64}>
#compilation = #iree_codegen.compilation_info<lowering_config = #config, translation_info = #translation>
#device_target_cuda = #hal.device.target<"cuda", [#executable_target_cuda_nvptx_fb]> : !hal.device
module attributes {stream.affinity.default = #hal.device.affinity<@__device_0>} {
  util.global private @__device_0 = #device_target_cuda
  util.func public @matmul_accumulate_512x128xf16_times_128x512xf16_into_512x512xf16_for_LLVMGPUMatmulTensorCore_32_32_16_64_2_1(%arg0: !hal.buffer_view, %arg1: !hal.buffer_view, %arg2: !hal.buffer_view) -> !hal.buffer_view attributes {iree.abi.stub, iree.reflection = {iree.abi.declaration = "sync func @matmul_accumulate_512x128xf16_times_128x512xf16_into_512x512xf16_for_LLVMGPUMatmulTensorCore_32_32_16_64_2_1(%input0: tensor<512x128xf16>, %input1: tensor<128x512xf16>, %input2: tensor<512x512xf16>) -> (%output0: tensor<512x512xf16>)"}} {
    %0 = hal.tensor.import %arg0 "input0" : !hal.buffer_view -> tensor<512x128xf16>
    %1 = hal.tensor.import %arg1 "input1" : !hal.buffer_view -> tensor<128x512xf16>
    %2 = hal.tensor.import %arg2 "input2" : !hal.buffer_view -> tensor<512x512xf16>
    %3 = linalg.matmul {compilation_info = #compilation} ins(%0, %1 : tensor<512x128xf16>, tensor<128x512xf16>) outs(%2 : tensor<512x512xf16>) -> tensor<512x512xf16>
    %4 = hal.tensor.export %3 "output0" : tensor<512x512xf16> -> !hal.buffer_view
    util.return %4 : !hal.buffer_view
  }
}


// -----// IR Dump After DataLayoutPropagationPass (iree-global-opt-data-layout-propagation) //----- //
util.func public @matmul_accumulate_512x128xf16_times_128x512xf16_into_512x512xf16_for_LLVMGPUMatmulTensorCore_32_32_16_64_2_1(%arg0: !hal.buffer_view, %arg1: !hal.buffer_view, %arg2: !hal.buffer_view) -> !hal.buffer_view attributes {iree.abi.stub, iree.reflection = {iree.abi.declaration = "sync func @matmul_accumulate_512x128xf16_times_128x512xf16_into_512x512xf16_for_LLVMGPUMatmulTensorCore_32_32_16_64_2_1(%input0: tensor<512x128xf16>, %input1: tensor<128x512xf16>, %input2: tensor<512x512xf16>) -> (%output0: tensor<512x512xf16>)"}} {
  %0 = hal.tensor.import %arg0 "input0" : !hal.buffer_view -> tensor<512x128xf16>
  %1 = hal.tensor.import %arg1 "input1" : !hal.buffer_view -> tensor<128x512xf16>
  %2 = hal.tensor.import %arg2 "input2" : !hal.buffer_view -> tensor<512x512xf16>
  %3 = linalg.matmul {compilation_info = #iree_codegen.compilation_info<lowering_config = #iree_codegen.lowering_config<tile_sizes = [[32, 32, 16]]>, translation_info = <pipeline = LLVMGPUMatmulTensorCore workgroup_size = [64, 2, 1], {pipeline_depth = 3 : i64, store_stage = 1 : i64}>>} ins(%0, %1 : tensor<512x128xf16>, tensor<128x512xf16>) outs(%2 : tensor<512x512xf16>) -> tensor<512x512xf16>
  %4 = hal.tensor.export %3 "output0" : tensor<512x512xf16> -> !hal.buffer_view
  util.return %4 : !hal.buffer_view
}

// -----// IR Dump After GeneralizeLinalgNamedOpsPass (iree-global-opt-generalize-linalg-named-ops) //----- //
util.func public @matmul_accumulate_512x128xf16_times_128x512xf16_into_512x512xf16_for_LLVMGPUMatmulTensorCore_32_32_16_64_2_1(%arg0: !hal.buffer_view, %arg1: !hal.buffer_view, %arg2: !hal.buffer_view) -> !hal.buffer_view attributes {iree.abi.stub, iree.reflection = {iree.abi.declaration = "sync func @matmul_accumulate_512x128xf16_times_128x512xf16_into_512x512xf16_for_LLVMGPUMatmulTensorCore_32_32_16_64_2_1(%input0: tensor<512x128xf16>, %input1: tensor<128x512xf16>, %input2: tensor<512x512xf16>) -> (%output0: tensor<512x512xf16>)"}} {
  %0 = hal.tensor.import %arg0 "input0" : !hal.buffer_view -> tensor<512x128xf16>
  %1 = hal.tensor.import %arg1 "input1" : !hal.buffer_view -> tensor<128x512xf16>
  %2 = hal.tensor.import %arg2 "input2" : !hal.buffer_view -> tensor<512x512xf16>
  %3 = linalg.matmul {compilation_info = #iree_codegen.compilation_info<lowering_config = #iree_codegen.lowering_config<tile_sizes = [[32, 32, 16]]>, translation_info = <pipeline = LLVMGPUMatmulTensorCore workgroup_size = [64, 2, 1], {pipeline_depth = 3 : i64, store_stage = 1 : i64}>>} ins(%0, %1 : tensor<512x128xf16>, tensor<128x512xf16>) outs(%2 : tensor<512x512xf16>) -> tensor<512x512xf16>
  %4 = hal.tensor.export %3 "output0" : tensor<512x512xf16> -> !hal.buffer_view
  util.return %4 : !hal.buffer_view
}

// -----// IR Dump After GlobalLoopInvariantCodeMotionPass (iree-global-opt-loop-invariant-code-motion) //----- //
util.func public @matmul_accumulate_512x128xf16_times_128x512xf16_into_512x512xf16_for_LLVMGPUMatmulTensorCore_32_32_16_64_2_1(%arg0: !hal.buffer_view, %arg1: !hal.buffer_view, %arg2: !hal.buffer_view) -> !hal.buffer_view attributes {iree.abi.stub, iree.reflection = {iree.abi.declaration = "sync func @matmul_accumulate_512x128xf16_times_128x512xf16_into_512x512xf16_for_LLVMGPUMatmulTensorCore_32_32_16_64_2_1(%input0: tensor<512x128xf16>, %input1: tensor<128x512xf16>, %input2: tensor<512x512xf16>) -> (%output0: tensor<512x512xf16>)"}} {
  %0 = hal.tensor.import %arg0 "input0" : !hal.buffer_view -> tensor<512x128xf16>
  %1 = hal.tensor.import %arg1 "input1" : !hal.buffer_view -> tensor<128x512xf16>
  %2 = hal.tensor.import %arg2 "input2" : !hal.buffer_view -> tensor<512x512xf16>
  %3 = linalg.matmul {compilation_info = #iree_codegen.compilation_info<lowering_config = #iree_codegen.lowering_config<tile_sizes = [[32, 32, 16]]>, translation_info = <pipeline = LLVMGPUMatmulTensorCore workgroup_size = [64, 2, 1], {pipeline_depth = 3 : i64, store_stage = 1 : i64}>>} ins(%0, %1 : tensor<512x128xf16>, tensor<128x512xf16>) outs(%2 : tensor<512x512xf16>) -> tensor<512x512xf16>
  %4 = hal.tensor.export %3 "output0" : tensor<512x512xf16> -> !hal.buffer_view
  util.return %4 : !hal.buffer_view
}

// -----// IR Dump After CanonicalizerPass (iree-flow-canonicalize) //----- //
util.func public @matmul_accumulate_512x128xf16_times_128x512xf16_into_512x512xf16_for_LLVMGPUMatmulTensorCore_32_32_16_64_2_1(%arg0: !hal.buffer_view, %arg1: !hal.buffer_view, %arg2: !hal.buffer_view) -> !hal.buffer_view attributes {iree.abi.stub, iree.reflection = {iree.abi.declaration = "sync func @matmul_accumulate_512x128xf16_times_128x512xf16_into_512x512xf16_for_LLVMGPUMatmulTensorCore_32_32_16_64_2_1(%input0: tensor<512x128xf16>, %input1: tensor<128x512xf16>, %input2: tensor<512x512xf16>) -> (%output0: tensor<512x512xf16>)"}} {
  %0 = hal.tensor.import %arg0 "input0" : !hal.buffer_view -> tensor<512x128xf16>
  %1 = hal.tensor.import %arg1 "input1" : !hal.buffer_view -> tensor<128x512xf16>
  %2 = hal.tensor.import %arg2 "input2" : !hal.buffer_view -> tensor<512x512xf16>
  %3 = linalg.matmul {compilation_info = #iree_codegen.compilation_info<lowering_config = #iree_codegen.lowering_config<tile_sizes = [[32, 32, 16]]>, translation_info = <pipeline = LLVMGPUMatmulTensorCore workgroup_size = [64, 2, 1], {pipeline_depth = 3 : i64, store_stage = 1 : i64}>>} ins(%0, %1 : tensor<512x128xf16>, tensor<128x512xf16>) outs(%2 : tensor<512x512xf16>) -> tensor<512x512xf16>
  %4 = hal.tensor.export %3 "output0" : tensor<512x512xf16> -> !hal.buffer_view
  util.return %4 : !hal.buffer_view
}

// -----// IR Dump After CSE (cse) //----- //
util.func public @matmul_accumulate_512x128xf16_times_128x512xf16_into_512x512xf16_for_LLVMGPUMatmulTensorCore_32_32_16_64_2_1(%arg0: !hal.buffer_view, %arg1: !hal.buffer_view, %arg2: !hal.buffer_view) -> !hal.buffer_view attributes {iree.abi.stub, iree.reflection = {iree.abi.declaration = "sync func @matmul_accumulate_512x128xf16_times_128x512xf16_into_512x512xf16_for_LLVMGPUMatmulTensorCore_32_32_16_64_2_1(%input0: tensor<512x128xf16>, %input1: tensor<128x512xf16>, %input2: tensor<512x512xf16>) -> (%output0: tensor<512x512xf16>)"}} {
  %0 = hal.tensor.import %arg0 "input0" : !hal.buffer_view -> tensor<512x128xf16>
  %1 = hal.tensor.import %arg1 "input1" : !hal.buffer_view -> tensor<128x512xf16>
  %2 = hal.tensor.import %arg2 "input2" : !hal.buffer_view -> tensor<512x512xf16>
  %3 = linalg.matmul {compilation_info = #iree_codegen.compilation_info<lowering_config = #iree_codegen.lowering_config<tile_sizes = [[32, 32, 16]]>, translation_info = <pipeline = LLVMGPUMatmulTensorCore workgroup_size = [64, 2, 1], {pipeline_depth = 3 : i64, store_stage = 1 : i64}>>} ins(%0, %1 : tensor<512x128xf16>, tensor<128x512xf16>) outs(%2 : tensor<512x512xf16>) -> tensor<512x512xf16>
  %4 = hal.tensor.export %3 "output0" : tensor<512x512xf16> -> !hal.buffer_view
  util.return %4 : !hal.buffer_view
}

// -----// IR Dump After SimplifyGlobalAccesses (iree-util-simplify-global-accesses) //----- //
util.func public @matmul_accumulate_512x128xf16_times_128x512xf16_into_512x512xf16_for_LLVMGPUMatmulTensorCore_32_32_16_64_2_1(%arg0: !hal.buffer_view, %arg1: !hal.buffer_view, %arg2: !hal.buffer_view) -> !hal.buffer_view attributes {iree.abi.stub, iree.reflection = {iree.abi.declaration = "sync func @matmul_accumulate_512x128xf16_times_128x512xf16_into_512x512xf16_for_LLVMGPUMatmulTensorCore_32_32_16_64_2_1(%input0: tensor<512x128xf16>, %input1: tensor<128x512xf16>, %input2: tensor<512x512xf16>) -> (%output0: tensor<512x512xf16>)"}} {
  %0 = hal.tensor.import %arg0 "input0" : !hal.buffer_view -> tensor<512x128xf16>
  %1 = hal.tensor.import %arg1 "input1" : !hal.buffer_view -> tensor<128x512xf16>
  %2 = hal.tensor.import %arg2 "input2" : !hal.buffer_view -> tensor<512x512xf16>
  %3 = linalg.matmul {compilation_info = #iree_codegen.compilation_info<lowering_config = #iree_codegen.lowering_config<tile_sizes = [[32, 32, 16]]>, translation_info = <pipeline = LLVMGPUMatmulTensorCore workgroup_size = [64, 2, 1], {pipeline_depth = 3 : i64, store_stage = 1 : i64}>>} ins(%0, %1 : tensor<512x128xf16>, tensor<128x512xf16>) outs(%2 : tensor<512x512xf16>) -> tensor<512x512xf16>
  %4 = hal.tensor.export %3 "output0" : tensor<512x512xf16> -> !hal.buffer_view
  util.return %4 : !hal.buffer_view
}

// -----// IR Dump After ApplyPatterns (iree-util-apply-patterns) //----- //
util.func public @matmul_accumulate_512x128xf16_times_128x512xf16_into_512x512xf16_for_LLVMGPUMatmulTensorCore_32_32_16_64_2_1(%arg0: !hal.buffer_view, %arg1: !hal.buffer_view, %arg2: !hal.buffer_view) -> !hal.buffer_view attributes {iree.abi.stub, iree.reflection = {iree.abi.declaration = "sync func @matmul_accumulate_512x128xf16_times_128x512xf16_into_512x512xf16_for_LLVMGPUMatmulTensorCore_32_32_16_64_2_1(%input0: tensor<512x128xf16>, %input1: tensor<128x512xf16>, %input2: tensor<512x512xf16>) -> (%output0: tensor<512x512xf16>)"}} {
  %0 = hal.tensor.import %arg0 "input0" : !hal.buffer_view -> tensor<512x128xf16>
  %1 = hal.tensor.import %arg1 "input1" : !hal.buffer_view -> tensor<128x512xf16>
  %2 = hal.tensor.import %arg2 "input2" : !hal.buffer_view -> tensor<512x512xf16>
  %3 = linalg.matmul {compilation_info = #iree_codegen.compilation_info<lowering_config = #iree_codegen.lowering_config<tile_sizes = [[32, 32, 16]]>, translation_info = <pipeline = LLVMGPUMatmulTensorCore workgroup_size = [64, 2, 1], {pipeline_depth = 3 : i64, store_stage = 1 : i64}>>} ins(%0, %1 : tensor<512x128xf16>, tensor<128x512xf16>) outs(%2 : tensor<512x512xf16>) -> tensor<512x512xf16>
  %4 = hal.tensor.export %3 "output0" : tensor<512x512xf16> -> !hal.buffer_view
  util.return %4 : !hal.buffer_view
}

// -----// IR Dump After FoldGlobals (iree-util-fold-globals) //----- //
#config = #iree_codegen.lowering_config<tile_sizes = [[32, 32, 16]]>
#executable_target_cuda_nvptx_fb = #hal.executable.target<"cuda", "cuda-nvptx-fb", {iree.gpu.target = #iree_gpu.target<arch = "sm_86", features = "+ptx76", wgp = <compute =  fp64|fp32|fp16|int64|int32|int16|int8, storage =  b64|b32|b16|b8, subgroup =  shuffle|arithmetic, dot =  dp4xi8toi32, mma = [<WMMA_F32_16x16x16_F16>, <WMMA_F16_16x16x16_F16>], subgroup_size_choices = [32], max_workgroup_sizes = [1024, 1024, 1024], max_thread_count_per_workgroup = 1024, max_workgroup_memory_bytes = 166912, max_workgroup_counts = [2147483647, 65535, 65535]>>}>
#translation = #iree_codegen.translation_info<pipeline = LLVMGPUMatmulTensorCore workgroup_size = [64, 2, 1], {pipeline_depth = 3 : i64, store_stage = 1 : i64}>
#compilation = #iree_codegen.compilation_info<lowering_config = #config, translation_info = #translation>
#device_target_cuda = #hal.device.target<"cuda", [#executable_target_cuda_nvptx_fb]> : !hal.device
module attributes {stream.affinity.default = #hal.device.affinity<@__device_0>} {
  util.global private @__device_0 = #device_target_cuda
  util.func public @matmul_accumulate_512x128xf16_times_128x512xf16_into_512x512xf16_for_LLVMGPUMatmulTensorCore_32_32_16_64_2_1(%arg0: !hal.buffer_view, %arg1: !hal.buffer_view, %arg2: !hal.buffer_view) -> !hal.buffer_view attributes {iree.abi.stub, iree.reflection = {iree.abi.declaration = "sync func @matmul_accumulate_512x128xf16_times_128x512xf16_into_512x512xf16_for_LLVMGPUMatmulTensorCore_32_32_16_64_2_1(%input0: tensor<512x128xf16>, %input1: tensor<128x512xf16>, %input2: tensor<512x512xf16>) -> (%output0: tensor<512x512xf16>)"}} {
    %0 = hal.tensor.import %arg0 "input0" : !hal.buffer_view -> tensor<512x128xf16>
    %1 = hal.tensor.import %arg1 "input1" : !hal.buffer_view -> tensor<128x512xf16>
    %2 = hal.tensor.import %arg2 "input2" : !hal.buffer_view -> tensor<512x512xf16>
    %3 = linalg.matmul {compilation_info = #compilation} ins(%0, %1 : tensor<512x128xf16>, tensor<128x512xf16>) outs(%2 : tensor<512x512xf16>) -> tensor<512x512xf16>
    %4 = hal.tensor.export %3 "output0" : tensor<512x512xf16> -> !hal.buffer_view
    util.return %4 : !hal.buffer_view
  }
}


// -----// IR Dump After IPO (iree-util-ipo) //----- //
#config = #iree_codegen.lowering_config<tile_sizes = [[32, 32, 16]]>
#executable_target_cuda_nvptx_fb = #hal.executable.target<"cuda", "cuda-nvptx-fb", {iree.gpu.target = #iree_gpu.target<arch = "sm_86", features = "+ptx76", wgp = <compute =  fp64|fp32|fp16|int64|int32|int16|int8, storage =  b64|b32|b16|b8, subgroup =  shuffle|arithmetic, dot =  dp4xi8toi32, mma = [<WMMA_F32_16x16x16_F16>, <WMMA_F16_16x16x16_F16>], subgroup_size_choices = [32], max_workgroup_sizes = [1024, 1024, 1024], max_thread_count_per_workgroup = 1024, max_workgroup_memory_bytes = 166912, max_workgroup_counts = [2147483647, 65535, 65535]>>}>
#translation = #iree_codegen.translation_info<pipeline = LLVMGPUMatmulTensorCore workgroup_size = [64, 2, 1], {pipeline_depth = 3 : i64, store_stage = 1 : i64}>
#compilation = #iree_codegen.compilation_info<lowering_config = #config, translation_info = #translation>
#device_target_cuda = #hal.device.target<"cuda", [#executable_target_cuda_nvptx_fb]> : !hal.device
module attributes {stream.affinity.default = #hal.device.affinity<@__device_0>} {
  util.global private @__device_0 = #device_target_cuda
  util.func public @matmul_accumulate_512x128xf16_times_128x512xf16_into_512x512xf16_for_LLVMGPUMatmulTensorCore_32_32_16_64_2_1(%arg0: !hal.buffer_view, %arg1: !hal.buffer_view, %arg2: !hal.buffer_view) -> !hal.buffer_view attributes {iree.abi.stub, iree.reflection = {iree.abi.declaration = "sync func @matmul_accumulate_512x128xf16_times_128x512xf16_into_512x512xf16_for_LLVMGPUMatmulTensorCore_32_32_16_64_2_1(%input0: tensor<512x128xf16>, %input1: tensor<128x512xf16>, %input2: tensor<512x512xf16>) -> (%output0: tensor<512x512xf16>)"}} {
    %0 = hal.tensor.import %arg0 "input0" : !hal.buffer_view -> tensor<512x128xf16>
    %1 = hal.tensor.import %arg1 "input1" : !hal.buffer_view -> tensor<128x512xf16>
    %2 = hal.tensor.import %arg2 "input2" : !hal.buffer_view -> tensor<512x512xf16>
    %3 = linalg.matmul {compilation_info = #compilation} ins(%0, %1 : tensor<512x128xf16>, tensor<128x512xf16>) outs(%2 : tensor<512x512xf16>) -> tensor<512x512xf16>
    %4 = hal.tensor.export %3 "output0" : tensor<512x512xf16> -> !hal.buffer_view
    util.return %4 : !hal.buffer_view
  }
}


// -----// IR Dump After OptimizeIntArithmetic (iree-util-optimize-int-arithmetic) //----- //
util.func public @matmul_accumulate_512x128xf16_times_128x512xf16_into_512x512xf16_for_LLVMGPUMatmulTensorCore_32_32_16_64_2_1(%arg0: !hal.buffer_view, %arg1: !hal.buffer_view, %arg2: !hal.buffer_view) -> !hal.buffer_view attributes {iree.abi.stub, iree.reflection = {iree.abi.declaration = "sync func @matmul_accumulate_512x128xf16_times_128x512xf16_into_512x512xf16_for_LLVMGPUMatmulTensorCore_32_32_16_64_2_1(%input0: tensor<512x128xf16>, %input1: tensor<128x512xf16>, %input2: tensor<512x512xf16>) -> (%output0: tensor<512x512xf16>)"}} {
  %0 = hal.tensor.import %arg0 "input0" : !hal.buffer_view -> tensor<512x128xf16>
  %1 = hal.tensor.import %arg1 "input1" : !hal.buffer_view -> tensor<128x512xf16>
  %2 = hal.tensor.import %arg2 "input2" : !hal.buffer_view -> tensor<512x512xf16>
  %3 = linalg.matmul {compilation_info = #iree_codegen.compilation_info<lowering_config = #iree_codegen.lowering_config<tile_sizes = [[32, 32, 16]]>, translation_info = <pipeline = LLVMGPUMatmulTensorCore workgroup_size = [64, 2, 1], {pipeline_depth = 3 : i64, store_stage = 1 : i64}>>} ins(%0, %1 : tensor<512x128xf16>, tensor<128x512xf16>) outs(%2 : tensor<512x512xf16>) -> tensor<512x512xf16>
  %4 = hal.tensor.export %3 "output0" : tensor<512x512xf16> -> !hal.buffer_view
  util.return %4 : !hal.buffer_view
}

// -----// IR Dump After CanonicalizerPass (iree-flow-canonicalize) //----- //
util.func public @matmul_accumulate_512x128xf16_times_128x512xf16_into_512x512xf16_for_LLVMGPUMatmulTensorCore_32_32_16_64_2_1(%arg0: !hal.buffer_view, %arg1: !hal.buffer_view, %arg2: !hal.buffer_view) -> !hal.buffer_view attributes {iree.abi.stub, iree.reflection = {iree.abi.declaration = "sync func @matmul_accumulate_512x128xf16_times_128x512xf16_into_512x512xf16_for_LLVMGPUMatmulTensorCore_32_32_16_64_2_1(%input0: tensor<512x128xf16>, %input1: tensor<128x512xf16>, %input2: tensor<512x512xf16>) -> (%output0: tensor<512x512xf16>)"}} {
  %0 = hal.tensor.import %arg0 "input0" : !hal.buffer_view -> tensor<512x128xf16>
  %1 = hal.tensor.import %arg1 "input1" : !hal.buffer_view -> tensor<128x512xf16>
  %2 = hal.tensor.import %arg2 "input2" : !hal.buffer_view -> tensor<512x512xf16>
  %3 = linalg.matmul {compilation_info = #iree_codegen.compilation_info<lowering_config = #iree_codegen.lowering_config<tile_sizes = [[32, 32, 16]]>, translation_info = <pipeline = LLVMGPUMatmulTensorCore workgroup_size = [64, 2, 1], {pipeline_depth = 3 : i64, store_stage = 1 : i64}>>} ins(%0, %1 : tensor<512x128xf16>, tensor<128x512xf16>) outs(%2 : tensor<512x512xf16>) -> tensor<512x512xf16>
  %4 = hal.tensor.export %3 "output0" : tensor<512x512xf16> -> !hal.buffer_view
  util.return %4 : !hal.buffer_view
}

// -----// IR Dump After CSE (cse) //----- //
util.func public @matmul_accumulate_512x128xf16_times_128x512xf16_into_512x512xf16_for_LLVMGPUMatmulTensorCore_32_32_16_64_2_1(%arg0: !hal.buffer_view, %arg1: !hal.buffer_view, %arg2: !hal.buffer_view) -> !hal.buffer_view attributes {iree.abi.stub, iree.reflection = {iree.abi.declaration = "sync func @matmul_accumulate_512x128xf16_times_128x512xf16_into_512x512xf16_for_LLVMGPUMatmulTensorCore_32_32_16_64_2_1(%input0: tensor<512x128xf16>, %input1: tensor<128x512xf16>, %input2: tensor<512x512xf16>) -> (%output0: tensor<512x512xf16>)"}} {
  %0 = hal.tensor.import %arg0 "input0" : !hal.buffer_view -> tensor<512x128xf16>
  %1 = hal.tensor.import %arg1 "input1" : !hal.buffer_view -> tensor<128x512xf16>
  %2 = hal.tensor.import %arg2 "input2" : !hal.buffer_view -> tensor<512x512xf16>
  %3 = linalg.matmul {compilation_info = #iree_codegen.compilation_info<lowering_config = #iree_codegen.lowering_config<tile_sizes = [[32, 32, 16]]>, translation_info = <pipeline = LLVMGPUMatmulTensorCore workgroup_size = [64, 2, 1], {pipeline_depth = 3 : i64, store_stage = 1 : i64}>>} ins(%0, %1 : tensor<512x128xf16>, tensor<128x512xf16>) outs(%2 : tensor<512x512xf16>) -> tensor<512x512xf16>
  %4 = hal.tensor.export %3 "output0" : tensor<512x512xf16> -> !hal.buffer_view
  util.return %4 : !hal.buffer_view
}

// -----// IR Dump After HoistIntoGlobals (iree-util-hoist-into-globals) //----- //
#config = #iree_codegen.lowering_config<tile_sizes = [[32, 32, 16]]>
#executable_target_cuda_nvptx_fb = #hal.executable.target<"cuda", "cuda-nvptx-fb", {iree.gpu.target = #iree_gpu.target<arch = "sm_86", features = "+ptx76", wgp = <compute =  fp64|fp32|fp16|int64|int32|int16|int8, storage =  b64|b32|b16|b8, subgroup =  shuffle|arithmetic, dot =  dp4xi8toi32, mma = [<WMMA_F32_16x16x16_F16>, <WMMA_F16_16x16x16_F16>], subgroup_size_choices = [32], max_workgroup_sizes = [1024, 1024, 1024], max_thread_count_per_workgroup = 1024, max_workgroup_memory_bytes = 166912, max_workgroup_counts = [2147483647, 65535, 65535]>>}>
#translation = #iree_codegen.translation_info<pipeline = LLVMGPUMatmulTensorCore workgroup_size = [64, 2, 1], {pipeline_depth = 3 : i64, store_stage = 1 : i64}>
#compilation = #iree_codegen.compilation_info<lowering_config = #config, translation_info = #translation>
#device_target_cuda = #hal.device.target<"cuda", [#executable_target_cuda_nvptx_fb]> : !hal.device
module attributes {stream.affinity.default = #hal.device.affinity<@__device_0>} {
  util.global private @__device_0 = #device_target_cuda
  util.func public @matmul_accumulate_512x128xf16_times_128x512xf16_into_512x512xf16_for_LLVMGPUMatmulTensorCore_32_32_16_64_2_1(%arg0: !hal.buffer_view, %arg1: !hal.buffer_view, %arg2: !hal.buffer_view) -> !hal.buffer_view attributes {iree.abi.stub, iree.reflection = {iree.abi.declaration = "sync func @matmul_accumulate_512x128xf16_times_128x512xf16_into_512x512xf16_for_LLVMGPUMatmulTensorCore_32_32_16_64_2_1(%input0: tensor<512x128xf16>, %input1: tensor<128x512xf16>, %input2: tensor<512x512xf16>) -> (%output0: tensor<512x512xf16>)"}} {
    %0 = hal.tensor.import %arg0 "input0" : !hal.buffer_view -> tensor<512x128xf16>
    %1 = hal.tensor.import %arg1 "input1" : !hal.buffer_view -> tensor<128x512xf16>
    %2 = hal.tensor.import %arg2 "input2" : !hal.buffer_view -> tensor<512x512xf16>
    %3 = linalg.matmul {compilation_info = #compilation} ins(%0, %1 : tensor<512x128xf16>, tensor<128x512xf16>) outs(%2 : tensor<512x512xf16>) -> tensor<512x512xf16>
    %4 = hal.tensor.export %3 "output0" : tensor<512x512xf16> -> !hal.buffer_view
    util.return %4 : !hal.buffer_view
  }
}


// -----// IR Dump After JitGlobalsPass (iree-consteval-jit-globals) //----- //
#config = #iree_codegen.lowering_config<tile_sizes = [[32, 32, 16]]>
#executable_target_cuda_nvptx_fb = #hal.executable.target<"cuda", "cuda-nvptx-fb", {iree.gpu.target = #iree_gpu.target<arch = "sm_86", features = "+ptx76", wgp = <compute =  fp64|fp32|fp16|int64|int32|int16|int8, storage =  b64|b32|b16|b8, subgroup =  shuffle|arithmetic, dot =  dp4xi8toi32, mma = [<WMMA_F32_16x16x16_F16>, <WMMA_F16_16x16x16_F16>], subgroup_size_choices = [32], max_workgroup_sizes = [1024, 1024, 1024], max_thread_count_per_workgroup = 1024, max_workgroup_memory_bytes = 166912, max_workgroup_counts = [2147483647, 65535, 65535]>>}>
#translation = #iree_codegen.translation_info<pipeline = LLVMGPUMatmulTensorCore workgroup_size = [64, 2, 1], {pipeline_depth = 3 : i64, store_stage = 1 : i64}>
#compilation = #iree_codegen.compilation_info<lowering_config = #config, translation_info = #translation>
#device_target_cuda = #hal.device.target<"cuda", [#executable_target_cuda_nvptx_fb]> : !hal.device
module attributes {stream.affinity.default = #hal.device.affinity<@__device_0>} {
  util.global private @__device_0 = #device_target_cuda
  util.func public @matmul_accumulate_512x128xf16_times_128x512xf16_into_512x512xf16_for_LLVMGPUMatmulTensorCore_32_32_16_64_2_1(%arg0: !hal.buffer_view, %arg1: !hal.buffer_view, %arg2: !hal.buffer_view) -> !hal.buffer_view attributes {iree.abi.stub, iree.reflection = {iree.abi.declaration = "sync func @matmul_accumulate_512x128xf16_times_128x512xf16_into_512x512xf16_for_LLVMGPUMatmulTensorCore_32_32_16_64_2_1(%input0: tensor<512x128xf16>, %input1: tensor<128x512xf16>, %input2: tensor<512x512xf16>) -> (%output0: tensor<512x512xf16>)"}} {
    %0 = hal.tensor.import %arg0 "input0" : !hal.buffer_view -> tensor<512x128xf16>
    %1 = hal.tensor.import %arg1 "input1" : !hal.buffer_view -> tensor<128x512xf16>
    %2 = hal.tensor.import %arg2 "input2" : !hal.buffer_view -> tensor<512x512xf16>
    %3 = linalg.matmul {compilation_info = #compilation} ins(%0, %1 : tensor<512x128xf16>, tensor<128x512xf16>) outs(%2 : tensor<512x512xf16>) -> tensor<512x512xf16>
    %4 = hal.tensor.export %3 "output0" : tensor<512x512xf16> -> !hal.buffer_view
    util.return %4 : !hal.buffer_view
  }
}


// -----// IR Dump After CanonicalizerPass (iree-flow-canonicalize) //----- //
util.func public @matmul_accumulate_512x128xf16_times_128x512xf16_into_512x512xf16_for_LLVMGPUMatmulTensorCore_32_32_16_64_2_1(%arg0: !hal.buffer_view, %arg1: !hal.buffer_view, %arg2: !hal.buffer_view) -> !hal.buffer_view attributes {iree.abi.stub, iree.reflection = {iree.abi.declaration = "sync func @matmul_accumulate_512x128xf16_times_128x512xf16_into_512x512xf16_for_LLVMGPUMatmulTensorCore_32_32_16_64_2_1(%input0: tensor<512x128xf16>, %input1: tensor<128x512xf16>, %input2: tensor<512x512xf16>) -> (%output0: tensor<512x512xf16>)"}} {
  %0 = hal.tensor.import %arg0 "input0" : !hal.buffer_view -> tensor<512x128xf16>
  %1 = hal.tensor.import %arg1 "input1" : !hal.buffer_view -> tensor<128x512xf16>
  %2 = hal.tensor.import %arg2 "input2" : !hal.buffer_view -> tensor<512x512xf16>
  %3 = linalg.matmul {compilation_info = #iree_codegen.compilation_info<lowering_config = #iree_codegen.lowering_config<tile_sizes = [[32, 32, 16]]>, translation_info = <pipeline = LLVMGPUMatmulTensorCore workgroup_size = [64, 2, 1], {pipeline_depth = 3 : i64, store_stage = 1 : i64}>>} ins(%0, %1 : tensor<512x128xf16>, tensor<128x512xf16>) outs(%2 : tensor<512x512xf16>) -> tensor<512x512xf16>
  %4 = hal.tensor.export %3 "output0" : tensor<512x512xf16> -> !hal.buffer_view
  util.return %4 : !hal.buffer_view
}

// -----// IR Dump After CSE (cse) //----- //
util.func public @matmul_accumulate_512x128xf16_times_128x512xf16_into_512x512xf16_for_LLVMGPUMatmulTensorCore_32_32_16_64_2_1(%arg0: !hal.buffer_view, %arg1: !hal.buffer_view, %arg2: !hal.buffer_view) -> !hal.buffer_view attributes {iree.abi.stub, iree.reflection = {iree.abi.declaration = "sync func @matmul_accumulate_512x128xf16_times_128x512xf16_into_512x512xf16_for_LLVMGPUMatmulTensorCore_32_32_16_64_2_1(%input0: tensor<512x128xf16>, %input1: tensor<128x512xf16>, %input2: tensor<512x512xf16>) -> (%output0: tensor<512x512xf16>)"}} {
  %0 = hal.tensor.import %arg0 "input0" : !hal.buffer_view -> tensor<512x128xf16>
  %1 = hal.tensor.import %arg1 "input1" : !hal.buffer_view -> tensor<128x512xf16>
  %2 = hal.tensor.import %arg2 "input2" : !hal.buffer_view -> tensor<512x512xf16>
  %3 = linalg.matmul {compilation_info = #iree_codegen.compilation_info<lowering_config = #iree_codegen.lowering_config<tile_sizes = [[32, 32, 16]]>, translation_info = <pipeline = LLVMGPUMatmulTensorCore workgroup_size = [64, 2, 1], {pipeline_depth = 3 : i64, store_stage = 1 : i64}>>} ins(%0, %1 : tensor<512x128xf16>, tensor<128x512xf16>) outs(%2 : tensor<512x512xf16>) -> tensor<512x512xf16>
  %4 = hal.tensor.export %3 "output0" : tensor<512x512xf16> -> !hal.buffer_view
  util.return %4 : !hal.buffer_view
}

// -----// IR Dump After RaiseSpecialOpsPass (iree-global-opt-raise-special-ops) //----- //
util.func public @matmul_accumulate_512x128xf16_times_128x512xf16_into_512x512xf16_for_LLVMGPUMatmulTensorCore_32_32_16_64_2_1(%arg0: !hal.buffer_view, %arg1: !hal.buffer_view, %arg2: !hal.buffer_view) -> !hal.buffer_view attributes {iree.abi.stub, iree.reflection = {iree.abi.declaration = "sync func @matmul_accumulate_512x128xf16_times_128x512xf16_into_512x512xf16_for_LLVMGPUMatmulTensorCore_32_32_16_64_2_1(%input0: tensor<512x128xf16>, %input1: tensor<128x512xf16>, %input2: tensor<512x512xf16>) -> (%output0: tensor<512x512xf16>)"}} {
  %0 = hal.tensor.import %arg0 "input0" : !hal.buffer_view -> tensor<512x128xf16>
  %1 = hal.tensor.import %arg1 "input1" : !hal.buffer_view -> tensor<128x512xf16>
  %2 = hal.tensor.import %arg2 "input2" : !hal.buffer_view -> tensor<512x512xf16>
  %3 = linalg.matmul {compilation_info = #iree_codegen.compilation_info<lowering_config = #iree_codegen.lowering_config<tile_sizes = [[32, 32, 16]]>, translation_info = <pipeline = LLVMGPUMatmulTensorCore workgroup_size = [64, 2, 1], {pipeline_depth = 3 : i64, store_stage = 1 : i64}>>} ins(%0, %1 : tensor<512x128xf16>, tensor<128x512xf16>) outs(%2 : tensor<512x512xf16>) -> tensor<512x512xf16>
  %4 = hal.tensor.export %3 "output0" : tensor<512x512xf16> -> !hal.buffer_view
  util.return %4 : !hal.buffer_view
}

// -----// IR Dump After InjectTensorTracingPass (iree-flow-inject-tensor-tracing) //----- //
util.func public @matmul_accumulate_512x128xf16_times_128x512xf16_into_512x512xf16_for_LLVMGPUMatmulTensorCore_32_32_16_64_2_1(%arg0: !hal.buffer_view, %arg1: !hal.buffer_view, %arg2: !hal.buffer_view) -> !hal.buffer_view attributes {iree.abi.stub, iree.reflection = {iree.abi.declaration = "sync func @matmul_accumulate_512x128xf16_times_128x512xf16_into_512x512xf16_for_LLVMGPUMatmulTensorCore_32_32_16_64_2_1(%input0: tensor<512x128xf16>, %input1: tensor<128x512xf16>, %input2: tensor<512x512xf16>) -> (%output0: tensor<512x512xf16>)"}} {
  %0 = hal.tensor.import %arg0 "input0" : !hal.buffer_view -> tensor<512x128xf16>
  %1 = hal.tensor.import %arg1 "input1" : !hal.buffer_view -> tensor<128x512xf16>
  %2 = hal.tensor.import %arg2 "input2" : !hal.buffer_view -> tensor<512x512xf16>
  %3 = linalg.matmul {compilation_info = #iree_codegen.compilation_info<lowering_config = #iree_codegen.lowering_config<tile_sizes = [[32, 32, 16]]>, translation_info = <pipeline = LLVMGPUMatmulTensorCore workgroup_size = [64, 2, 1], {pipeline_depth = 3 : i64, store_stage = 1 : i64}>>} ins(%0, %1 : tensor<512x128xf16>, tensor<128x512xf16>) outs(%2 : tensor<512x512xf16>) -> tensor<512x512xf16>
  %4 = hal.tensor.export %3 "output0" : tensor<512x512xf16> -> !hal.buffer_view
  util.return %4 : !hal.buffer_view
}

// -----// IR Dump After TensorPadToTensorInsertSlicePass (iree-dispatch-creation-tensor-pad-to-tensor-insert-slice) //----- //
#config = #iree_codegen.lowering_config<tile_sizes = [[32, 32, 16]]>
#executable_target_cuda_nvptx_fb = #hal.executable.target<"cuda", "cuda-nvptx-fb", {iree.gpu.target = #iree_gpu.target<arch = "sm_86", features = "+ptx76", wgp = <compute =  fp64|fp32|fp16|int64|int32|int16|int8, storage =  b64|b32|b16|b8, subgroup =  shuffle|arithmetic, dot =  dp4xi8toi32, mma = [<WMMA_F32_16x16x16_F16>, <WMMA_F16_16x16x16_F16>], subgroup_size_choices = [32], max_workgroup_sizes = [1024, 1024, 1024], max_thread_count_per_workgroup = 1024, max_workgroup_memory_bytes = 166912, max_workgroup_counts = [2147483647, 65535, 65535]>>}>
#translation = #iree_codegen.translation_info<pipeline = LLVMGPUMatmulTensorCore workgroup_size = [64, 2, 1], {pipeline_depth = 3 : i64, store_stage = 1 : i64}>
#compilation = #iree_codegen.compilation_info<lowering_config = #config, translation_info = #translation>
#device_target_cuda = #hal.device.target<"cuda", [#executable_target_cuda_nvptx_fb]> : !hal.device
module attributes {stream.affinity.default = #hal.device.affinity<@__device_0>} {
  util.global private @__device_0 = #device_target_cuda
  util.func public @matmul_accumulate_512x128xf16_times_128x512xf16_into_512x512xf16_for_LLVMGPUMatmulTensorCore_32_32_16_64_2_1(%arg0: !hal.buffer_view, %arg1: !hal.buffer_view, %arg2: !hal.buffer_view) -> !hal.buffer_view attributes {iree.abi.stub, iree.reflection = {iree.abi.declaration = "sync func @matmul_accumulate_512x128xf16_times_128x512xf16_into_512x512xf16_for_LLVMGPUMatmulTensorCore_32_32_16_64_2_1(%input0: tensor<512x128xf16>, %input1: tensor<128x512xf16>, %input2: tensor<512x512xf16>) -> (%output0: tensor<512x512xf16>)"}} {
    %0 = hal.tensor.import %arg0 "input0" : !hal.buffer_view -> tensor<512x128xf16>
    %1 = hal.tensor.import %arg1 "input1" : !hal.buffer_view -> tensor<128x512xf16>
    %2 = hal.tensor.import %arg2 "input2" : !hal.buffer_view -> tensor<512x512xf16>
    %3 = linalg.matmul {compilation_info = #compilation} ins(%0, %1 : tensor<512x128xf16>, tensor<128x512xf16>) outs(%2 : tensor<512x512xf16>) -> tensor<512x512xf16>
    %4 = hal.tensor.export %3 "output0" : tensor<512x512xf16> -> !hal.buffer_view
    util.return %4 : !hal.buffer_view
  }
}


// -----// IR Dump After CanonicalizerPass (iree-flow-canonicalize) //----- //
util.func public @matmul_accumulate_512x128xf16_times_128x512xf16_into_512x512xf16_for_LLVMGPUMatmulTensorCore_32_32_16_64_2_1(%arg0: !hal.buffer_view, %arg1: !hal.buffer_view, %arg2: !hal.buffer_view) -> !hal.buffer_view attributes {iree.abi.stub, iree.reflection = {iree.abi.declaration = "sync func @matmul_accumulate_512x128xf16_times_128x512xf16_into_512x512xf16_for_LLVMGPUMatmulTensorCore_32_32_16_64_2_1(%input0: tensor<512x128xf16>, %input1: tensor<128x512xf16>, %input2: tensor<512x512xf16>) -> (%output0: tensor<512x512xf16>)"}} {
  %0 = hal.tensor.import %arg0 "input0" : !hal.buffer_view -> tensor<512x128xf16>
  %1 = hal.tensor.import %arg1 "input1" : !hal.buffer_view -> tensor<128x512xf16>
  %2 = hal.tensor.import %arg2 "input2" : !hal.buffer_view -> tensor<512x512xf16>
  %3 = linalg.matmul {compilation_info = #iree_codegen.compilation_info<lowering_config = #iree_codegen.lowering_config<tile_sizes = [[32, 32, 16]]>, translation_info = <pipeline = LLVMGPUMatmulTensorCore workgroup_size = [64, 2, 1], {pipeline_depth = 3 : i64, store_stage = 1 : i64}>>} ins(%0, %1 : tensor<512x128xf16>, tensor<128x512xf16>) outs(%2 : tensor<512x512xf16>) -> tensor<512x512xf16>
  %4 = hal.tensor.export %3 "output0" : tensor<512x512xf16> -> !hal.buffer_view
  util.return %4 : !hal.buffer_view
}

// -----// IR Dump After CSE (cse) //----- //
util.func public @matmul_accumulate_512x128xf16_times_128x512xf16_into_512x512xf16_for_LLVMGPUMatmulTensorCore_32_32_16_64_2_1(%arg0: !hal.buffer_view, %arg1: !hal.buffer_view, %arg2: !hal.buffer_view) -> !hal.buffer_view attributes {iree.abi.stub, iree.reflection = {iree.abi.declaration = "sync func @matmul_accumulate_512x128xf16_times_128x512xf16_into_512x512xf16_for_LLVMGPUMatmulTensorCore_32_32_16_64_2_1(%input0: tensor<512x128xf16>, %input1: tensor<128x512xf16>, %input2: tensor<512x512xf16>) -> (%output0: tensor<512x512xf16>)"}} {
  %0 = hal.tensor.import %arg0 "input0" : !hal.buffer_view -> tensor<512x128xf16>
  %1 = hal.tensor.import %arg1 "input1" : !hal.buffer_view -> tensor<128x512xf16>
  %2 = hal.tensor.import %arg2 "input2" : !hal.buffer_view -> tensor<512x512xf16>
  %3 = linalg.matmul {compilation_info = #iree_codegen.compilation_info<lowering_config = #iree_codegen.lowering_config<tile_sizes = [[32, 32, 16]]>, translation_info = <pipeline = LLVMGPUMatmulTensorCore workgroup_size = [64, 2, 1], {pipeline_depth = 3 : i64, store_stage = 1 : i64}>>} ins(%0, %1 : tensor<512x128xf16>, tensor<128x512xf16>) outs(%2 : tensor<512x512xf16>) -> tensor<512x512xf16>
  %4 = hal.tensor.export %3 "output0" : tensor<512x512xf16> -> !hal.buffer_view
  util.return %4 : !hal.buffer_view
}

// -----// IR Dump After SimplifyGlobalAccesses (iree-util-simplify-global-accesses) //----- //
util.func public @matmul_accumulate_512x128xf16_times_128x512xf16_into_512x512xf16_for_LLVMGPUMatmulTensorCore_32_32_16_64_2_1(%arg0: !hal.buffer_view, %arg1: !hal.buffer_view, %arg2: !hal.buffer_view) -> !hal.buffer_view attributes {iree.abi.stub, iree.reflection = {iree.abi.declaration = "sync func @matmul_accumulate_512x128xf16_times_128x512xf16_into_512x512xf16_for_LLVMGPUMatmulTensorCore_32_32_16_64_2_1(%input0: tensor<512x128xf16>, %input1: tensor<128x512xf16>, %input2: tensor<512x512xf16>) -> (%output0: tensor<512x512xf16>)"}} {
  %0 = hal.tensor.import %arg0 "input0" : !hal.buffer_view -> tensor<512x128xf16>
  %1 = hal.tensor.import %arg1 "input1" : !hal.buffer_view -> tensor<128x512xf16>
  %2 = hal.tensor.import %arg2 "input2" : !hal.buffer_view -> tensor<512x512xf16>
  %3 = linalg.matmul {compilation_info = #iree_codegen.compilation_info<lowering_config = #iree_codegen.lowering_config<tile_sizes = [[32, 32, 16]]>, translation_info = <pipeline = LLVMGPUMatmulTensorCore workgroup_size = [64, 2, 1], {pipeline_depth = 3 : i64, store_stage = 1 : i64}>>} ins(%0, %1 : tensor<512x128xf16>, tensor<128x512xf16>) outs(%2 : tensor<512x512xf16>) -> tensor<512x512xf16>
  %4 = hal.tensor.export %3 "output0" : tensor<512x512xf16> -> !hal.buffer_view
  util.return %4 : !hal.buffer_view
}

// -----// IR Dump After ApplyPatterns (iree-util-apply-patterns) //----- //
util.func public @matmul_accumulate_512x128xf16_times_128x512xf16_into_512x512xf16_for_LLVMGPUMatmulTensorCore_32_32_16_64_2_1(%arg0: !hal.buffer_view, %arg1: !hal.buffer_view, %arg2: !hal.buffer_view) -> !hal.buffer_view attributes {iree.abi.stub, iree.reflection = {iree.abi.declaration = "sync func @matmul_accumulate_512x128xf16_times_128x512xf16_into_512x512xf16_for_LLVMGPUMatmulTensorCore_32_32_16_64_2_1(%input0: tensor<512x128xf16>, %input1: tensor<128x512xf16>, %input2: tensor<512x512xf16>) -> (%output0: tensor<512x512xf16>)"}} {
  %0 = hal.tensor.import %arg0 "input0" : !hal.buffer_view -> tensor<512x128xf16>
  %1 = hal.tensor.import %arg1 "input1" : !hal.buffer_view -> tensor<128x512xf16>
  %2 = hal.tensor.import %arg2 "input2" : !hal.buffer_view -> tensor<512x512xf16>
  %3 = linalg.matmul {compilation_info = #iree_codegen.compilation_info<lowering_config = #iree_codegen.lowering_config<tile_sizes = [[32, 32, 16]]>, translation_info = <pipeline = LLVMGPUMatmulTensorCore workgroup_size = [64, 2, 1], {pipeline_depth = 3 : i64, store_stage = 1 : i64}>>} ins(%0, %1 : tensor<512x128xf16>, tensor<128x512xf16>) outs(%2 : tensor<512x512xf16>) -> tensor<512x512xf16>
  %4 = hal.tensor.export %3 "output0" : tensor<512x512xf16> -> !hal.buffer_view
  util.return %4 : !hal.buffer_view
}

// -----// IR Dump After FoldGlobals (iree-util-fold-globals) //----- //
#config = #iree_codegen.lowering_config<tile_sizes = [[32, 32, 16]]>
#executable_target_cuda_nvptx_fb = #hal.executable.target<"cuda", "cuda-nvptx-fb", {iree.gpu.target = #iree_gpu.target<arch = "sm_86", features = "+ptx76", wgp = <compute =  fp64|fp32|fp16|int64|int32|int16|int8, storage =  b64|b32|b16|b8, subgroup =  shuffle|arithmetic, dot =  dp4xi8toi32, mma = [<WMMA_F32_16x16x16_F16>, <WMMA_F16_16x16x16_F16>], subgroup_size_choices = [32], max_workgroup_sizes = [1024, 1024, 1024], max_thread_count_per_workgroup = 1024, max_workgroup_memory_bytes = 166912, max_workgroup_counts = [2147483647, 65535, 65535]>>}>
#translation = #iree_codegen.translation_info<pipeline = LLVMGPUMatmulTensorCore workgroup_size = [64, 2, 1], {pipeline_depth = 3 : i64, store_stage = 1 : i64}>
#compilation = #iree_codegen.compilation_info<lowering_config = #config, translation_info = #translation>
#device_target_cuda = #hal.device.target<"cuda", [#executable_target_cuda_nvptx_fb]> : !hal.device
module attributes {iree.fixedpoint.iteration = 0 : index, stream.affinity.default = #hal.device.affinity<@__device_0>} {
  util.global private @__device_0 = #device_target_cuda
  util.func public @matmul_accumulate_512x128xf16_times_128x512xf16_into_512x512xf16_for_LLVMGPUMatmulTensorCore_32_32_16_64_2_1(%arg0: !hal.buffer_view, %arg1: !hal.buffer_view, %arg2: !hal.buffer_view) -> !hal.buffer_view attributes {iree.abi.stub, iree.reflection = {iree.abi.declaration = "sync func @matmul_accumulate_512x128xf16_times_128x512xf16_into_512x512xf16_for_LLVMGPUMatmulTensorCore_32_32_16_64_2_1(%input0: tensor<512x128xf16>, %input1: tensor<128x512xf16>, %input2: tensor<512x512xf16>) -> (%output0: tensor<512x512xf16>)"}} {
    %0 = hal.tensor.import %arg0 "input0" : !hal.buffer_view -> tensor<512x128xf16>
    %1 = hal.tensor.import %arg1 "input1" : !hal.buffer_view -> tensor<128x512xf16>
    %2 = hal.tensor.import %arg2 "input2" : !hal.buffer_view -> tensor<512x512xf16>
    %3 = linalg.matmul {compilation_info = #compilation} ins(%0, %1 : tensor<512x128xf16>, tensor<128x512xf16>) outs(%2 : tensor<512x512xf16>) -> tensor<512x512xf16>
    %4 = hal.tensor.export %3 "output0" : tensor<512x512xf16> -> !hal.buffer_view
    util.return %4 : !hal.buffer_view
  }
}


// -----// IR Dump After FuseGlobals (iree-util-fuse-globals) //----- //
#config = #iree_codegen.lowering_config<tile_sizes = [[32, 32, 16]]>
#executable_target_cuda_nvptx_fb = #hal.executable.target<"cuda", "cuda-nvptx-fb", {iree.gpu.target = #iree_gpu.target<arch = "sm_86", features = "+ptx76", wgp = <compute =  fp64|fp32|fp16|int64|int32|int16|int8, storage =  b64|b32|b16|b8, subgroup =  shuffle|arithmetic, dot =  dp4xi8toi32, mma = [<WMMA_F32_16x16x16_F16>, <WMMA_F16_16x16x16_F16>], subgroup_size_choices = [32], max_workgroup_sizes = [1024, 1024, 1024], max_thread_count_per_workgroup = 1024, max_workgroup_memory_bytes = 166912, max_workgroup_counts = [2147483647, 65535, 65535]>>}>
#translation = #iree_codegen.translation_info<pipeline = LLVMGPUMatmulTensorCore workgroup_size = [64, 2, 1], {pipeline_depth = 3 : i64, store_stage = 1 : i64}>
#compilation = #iree_codegen.compilation_info<lowering_config = #config, translation_info = #translation>
#device_target_cuda = #hal.device.target<"cuda", [#executable_target_cuda_nvptx_fb]> : !hal.device
module attributes {iree.fixedpoint.iteration = 0 : index, stream.affinity.default = #hal.device.affinity<@__device_0>} {
  util.global private @__device_0 = #device_target_cuda
  util.func public @matmul_accumulate_512x128xf16_times_128x512xf16_into_512x512xf16_for_LLVMGPUMatmulTensorCore_32_32_16_64_2_1(%arg0: !hal.buffer_view, %arg1: !hal.buffer_view, %arg2: !hal.buffer_view) -> !hal.buffer_view attributes {iree.abi.stub, iree.reflection = {iree.abi.declaration = "sync func @matmul_accumulate_512x128xf16_times_128x512xf16_into_512x512xf16_for_LLVMGPUMatmulTensorCore_32_32_16_64_2_1(%input0: tensor<512x128xf16>, %input1: tensor<128x512xf16>, %input2: tensor<512x512xf16>) -> (%output0: tensor<512x512xf16>)"}} {
    %0 = hal.tensor.import %arg0 "input0" : !hal.buffer_view -> tensor<512x128xf16>
    %1 = hal.tensor.import %arg1 "input1" : !hal.buffer_view -> tensor<128x512xf16>
    %2 = hal.tensor.import %arg2 "input2" : !hal.buffer_view -> tensor<512x512xf16>
    %3 = linalg.matmul {compilation_info = #compilation} ins(%0, %1 : tensor<512x128xf16>, tensor<128x512xf16>) outs(%2 : tensor<512x512xf16>) -> tensor<512x512xf16>
    %4 = hal.tensor.export %3 "output0" : tensor<512x512xf16> -> !hal.buffer_view
    util.return %4 : !hal.buffer_view
  }
}


// -----// IR Dump After IPO (iree-util-ipo) //----- //
#config = #iree_codegen.lowering_config<tile_sizes = [[32, 32, 16]]>
#executable_target_cuda_nvptx_fb = #hal.executable.target<"cuda", "cuda-nvptx-fb", {iree.gpu.target = #iree_gpu.target<arch = "sm_86", features = "+ptx76", wgp = <compute =  fp64|fp32|fp16|int64|int32|int16|int8, storage =  b64|b32|b16|b8, subgroup =  shuffle|arithmetic, dot =  dp4xi8toi32, mma = [<WMMA_F32_16x16x16_F16>, <WMMA_F16_16x16x16_F16>], subgroup_size_choices = [32], max_workgroup_sizes = [1024, 1024, 1024], max_thread_count_per_workgroup = 1024, max_workgroup_memory_bytes = 166912, max_workgroup_counts = [2147483647, 65535, 65535]>>}>
#translation = #iree_codegen.translation_info<pipeline = LLVMGPUMatmulTensorCore workgroup_size = [64, 2, 1], {pipeline_depth = 3 : i64, store_stage = 1 : i64}>
#compilation = #iree_codegen.compilation_info<lowering_config = #config, translation_info = #translation>
#device_target_cuda = #hal.device.target<"cuda", [#executable_target_cuda_nvptx_fb]> : !hal.device
module attributes {iree.fixedpoint.iteration = 0 : index, stream.affinity.default = #hal.device.affinity<@__device_0>} {
  util.global private @__device_0 = #device_target_cuda
  util.func public @matmul_accumulate_512x128xf16_times_128x512xf16_into_512x512xf16_for_LLVMGPUMatmulTensorCore_32_32_16_64_2_1(%arg0: !hal.buffer_view, %arg1: !hal.buffer_view, %arg2: !hal.buffer_view) -> !hal.buffer_view attributes {iree.abi.stub, iree.reflection = {iree.abi.declaration = "sync func @matmul_accumulate_512x128xf16_times_128x512xf16_into_512x512xf16_for_LLVMGPUMatmulTensorCore_32_32_16_64_2_1(%input0: tensor<512x128xf16>, %input1: tensor<128x512xf16>, %input2: tensor<512x512xf16>) -> (%output0: tensor<512x512xf16>)"}} {
    %0 = hal.tensor.import %arg0 "input0" : !hal.buffer_view -> tensor<512x128xf16>
    %1 = hal.tensor.import %arg1 "input1" : !hal.buffer_view -> tensor<128x512xf16>
    %2 = hal.tensor.import %arg2 "input2" : !hal.buffer_view -> tensor<512x512xf16>
    %3 = linalg.matmul {compilation_info = #compilation} ins(%0, %1 : tensor<512x128xf16>, tensor<128x512xf16>) outs(%2 : tensor<512x512xf16>) -> tensor<512x512xf16>
    %4 = hal.tensor.export %3 "output0" : tensor<512x512xf16> -> !hal.buffer_view
    util.return %4 : !hal.buffer_view
  }
}


// -----// IR Dump After FixedPointIterator (iree-util-fixed-point-iterator) //----- //
#config = #iree_codegen.lowering_config<tile_sizes = [[32, 32, 16]]>
#executable_target_cuda_nvptx_fb = #hal.executable.target<"cuda", "cuda-nvptx-fb", {iree.gpu.target = #iree_gpu.target<arch = "sm_86", features = "+ptx76", wgp = <compute =  fp64|fp32|fp16|int64|int32|int16|int8, storage =  b64|b32|b16|b8, subgroup =  shuffle|arithmetic, dot =  dp4xi8toi32, mma = [<WMMA_F32_16x16x16_F16>, <WMMA_F16_16x16x16_F16>], subgroup_size_choices = [32], max_workgroup_sizes = [1024, 1024, 1024], max_thread_count_per_workgroup = 1024, max_workgroup_memory_bytes = 166912, max_workgroup_counts = [2147483647, 65535, 65535]>>}>
#translation = #iree_codegen.translation_info<pipeline = LLVMGPUMatmulTensorCore workgroup_size = [64, 2, 1], {pipeline_depth = 3 : i64, store_stage = 1 : i64}>
#compilation = #iree_codegen.compilation_info<lowering_config = #config, translation_info = #translation>
#device_target_cuda = #hal.device.target<"cuda", [#executable_target_cuda_nvptx_fb]> : !hal.device
module attributes {stream.affinity.default = #hal.device.affinity<@__device_0>} {
  util.global private @__device_0 = #device_target_cuda
  util.func public @matmul_accumulate_512x128xf16_times_128x512xf16_into_512x512xf16_for_LLVMGPUMatmulTensorCore_32_32_16_64_2_1(%arg0: !hal.buffer_view, %arg1: !hal.buffer_view, %arg2: !hal.buffer_view) -> !hal.buffer_view attributes {iree.abi.stub, iree.reflection = {iree.abi.declaration = "sync func @matmul_accumulate_512x128xf16_times_128x512xf16_into_512x512xf16_for_LLVMGPUMatmulTensorCore_32_32_16_64_2_1(%input0: tensor<512x128xf16>, %input1: tensor<128x512xf16>, %input2: tensor<512x512xf16>) -> (%output0: tensor<512x512xf16>)"}} {
    %0 = hal.tensor.import %arg0 "input0" : !hal.buffer_view -> tensor<512x128xf16>
    %1 = hal.tensor.import %arg1 "input1" : !hal.buffer_view -> tensor<128x512xf16>
    %2 = hal.tensor.import %arg2 "input2" : !hal.buffer_view -> tensor<512x512xf16>
    %3 = linalg.matmul {compilation_info = #compilation} ins(%0, %1 : tensor<512x128xf16>, tensor<128x512xf16>) outs(%2 : tensor<512x512xf16>) -> tensor<512x512xf16>
    %4 = hal.tensor.export %3 "output0" : tensor<512x512xf16> -> !hal.buffer_view
    util.return %4 : !hal.buffer_view
  }
}


// -----// IR Dump After FusionPreprocessingPass (iree-dispatch-creation-fusion-preprocessing) //----- //
util.func public @matmul_accumulate_512x128xf16_times_128x512xf16_into_512x512xf16_for_LLVMGPUMatmulTensorCore_32_32_16_64_2_1(%arg0: !hal.buffer_view, %arg1: !hal.buffer_view, %arg2: !hal.buffer_view) -> !hal.buffer_view attributes {iree.abi.stub, iree.reflection = {iree.abi.declaration = "sync func @matmul_accumulate_512x128xf16_times_128x512xf16_into_512x512xf16_for_LLVMGPUMatmulTensorCore_32_32_16_64_2_1(%input0: tensor<512x128xf16>, %input1: tensor<128x512xf16>, %input2: tensor<512x512xf16>) -> (%output0: tensor<512x512xf16>)"}} {
  %0 = hal.tensor.import %arg0 "input0" : !hal.buffer_view -> tensor<512x128xf16>
  %1 = hal.tensor.import %arg1 "input1" : !hal.buffer_view -> tensor<128x512xf16>
  %2 = hal.tensor.import %arg2 "input2" : !hal.buffer_view -> tensor<512x512xf16>
  %3 = linalg.matmul {compilation_info = #iree_codegen.compilation_info<lowering_config = #iree_codegen.lowering_config<tile_sizes = [[32, 32, 16]]>, translation_info = <pipeline = LLVMGPUMatmulTensorCore workgroup_size = [64, 2, 1], {pipeline_depth = 3 : i64, store_stage = 1 : i64}>>} ins(%0, %1 : tensor<512x128xf16>, tensor<128x512xf16>) outs(%2 : tensor<512x512xf16>) -> tensor<512x512xf16>
  %4 = hal.tensor.export %3 "output0" : tensor<512x512xf16> -> !hal.buffer_view
  util.return %4 : !hal.buffer_view
}

// -----// IR Dump After CanonicalizerPass (iree-flow-canonicalize) //----- //
util.func public @matmul_accumulate_512x128xf16_times_128x512xf16_into_512x512xf16_for_LLVMGPUMatmulTensorCore_32_32_16_64_2_1(%arg0: !hal.buffer_view, %arg1: !hal.buffer_view, %arg2: !hal.buffer_view) -> !hal.buffer_view attributes {iree.abi.stub, iree.reflection = {iree.abi.declaration = "sync func @matmul_accumulate_512x128xf16_times_128x512xf16_into_512x512xf16_for_LLVMGPUMatmulTensorCore_32_32_16_64_2_1(%input0: tensor<512x128xf16>, %input1: tensor<128x512xf16>, %input2: tensor<512x512xf16>) -> (%output0: tensor<512x512xf16>)"}} {
  %0 = hal.tensor.import %arg0 "input0" : !hal.buffer_view -> tensor<512x128xf16>
  %1 = hal.tensor.import %arg1 "input1" : !hal.buffer_view -> tensor<128x512xf16>
  %2 = hal.tensor.import %arg2 "input2" : !hal.buffer_view -> tensor<512x512xf16>
  %3 = linalg.matmul {compilation_info = #iree_codegen.compilation_info<lowering_config = #iree_codegen.lowering_config<tile_sizes = [[32, 32, 16]]>, translation_info = <pipeline = LLVMGPUMatmulTensorCore workgroup_size = [64, 2, 1], {pipeline_depth = 3 : i64, store_stage = 1 : i64}>>} ins(%0, %1 : tensor<512x128xf16>, tensor<128x512xf16>) outs(%2 : tensor<512x512xf16>) -> tensor<512x512xf16>
  %4 = hal.tensor.export %3 "output0" : tensor<512x512xf16> -> !hal.buffer_view
  util.return %4 : !hal.buffer_view
}

// -----// IR Dump After CSE (cse) //----- //
util.func public @matmul_accumulate_512x128xf16_times_128x512xf16_into_512x512xf16_for_LLVMGPUMatmulTensorCore_32_32_16_64_2_1(%arg0: !hal.buffer_view, %arg1: !hal.buffer_view, %arg2: !hal.buffer_view) -> !hal.buffer_view attributes {iree.abi.stub, iree.reflection = {iree.abi.declaration = "sync func @matmul_accumulate_512x128xf16_times_128x512xf16_into_512x512xf16_for_LLVMGPUMatmulTensorCore_32_32_16_64_2_1(%input0: tensor<512x128xf16>, %input1: tensor<128x512xf16>, %input2: tensor<512x512xf16>) -> (%output0: tensor<512x512xf16>)"}} {
  %0 = hal.tensor.import %arg0 "input0" : !hal.buffer_view -> tensor<512x128xf16>
  %1 = hal.tensor.import %arg1 "input1" : !hal.buffer_view -> tensor<128x512xf16>
  %2 = hal.tensor.import %arg2 "input2" : !hal.buffer_view -> tensor<512x512xf16>
  %3 = linalg.matmul {compilation_info = #iree_codegen.compilation_info<lowering_config = #iree_codegen.lowering_config<tile_sizes = [[32, 32, 16]]>, translation_info = <pipeline = LLVMGPUMatmulTensorCore workgroup_size = [64, 2, 1], {pipeline_depth = 3 : i64, store_stage = 1 : i64}>>} ins(%0, %1 : tensor<512x128xf16>, tensor<128x512xf16>) outs(%2 : tensor<512x512xf16>) -> tensor<512x512xf16>
  %4 = hal.tensor.export %3 "output0" : tensor<512x512xf16> -> !hal.buffer_view
  util.return %4 : !hal.buffer_view
}

// -----// IR Dump After ElementwiseOpFusionPass (iree-dispatch-creation-elementwise-op-fusion) //----- //
util.func public @matmul_accumulate_512x128xf16_times_128x512xf16_into_512x512xf16_for_LLVMGPUMatmulTensorCore_32_32_16_64_2_1(%arg0: !hal.buffer_view, %arg1: !hal.buffer_view, %arg2: !hal.buffer_view) -> !hal.buffer_view attributes {iree.abi.stub, iree.reflection = {iree.abi.declaration = "sync func @matmul_accumulate_512x128xf16_times_128x512xf16_into_512x512xf16_for_LLVMGPUMatmulTensorCore_32_32_16_64_2_1(%input0: tensor<512x128xf16>, %input1: tensor<128x512xf16>, %input2: tensor<512x512xf16>) -> (%output0: tensor<512x512xf16>)"}} {
  %0 = hal.tensor.import %arg0 "input0" : !hal.buffer_view -> tensor<512x128xf16>
  %1 = hal.tensor.import %arg1 "input1" : !hal.buffer_view -> tensor<128x512xf16>
  %2 = hal.tensor.import %arg2 "input2" : !hal.buffer_view -> tensor<512x512xf16>
  %3 = linalg.matmul {compilation_info = #iree_codegen.compilation_info<lowering_config = #iree_codegen.lowering_config<tile_sizes = [[32, 32, 16]]>, translation_info = <pipeline = LLVMGPUMatmulTensorCore workgroup_size = [64, 2, 1], {pipeline_depth = 3 : i64, store_stage = 1 : i64}>>} ins(%0, %1 : tensor<512x128xf16>, tensor<128x512xf16>) outs(%2 : tensor<512x512xf16>) -> tensor<512x512xf16>
  %4 = hal.tensor.export %3 "output0" : tensor<512x512xf16> -> !hal.buffer_view
  util.return %4 : !hal.buffer_view
}

// -----// IR Dump After CanonicalizerPass (iree-flow-canonicalize) //----- //
util.func public @matmul_accumulate_512x128xf16_times_128x512xf16_into_512x512xf16_for_LLVMGPUMatmulTensorCore_32_32_16_64_2_1(%arg0: !hal.buffer_view, %arg1: !hal.buffer_view, %arg2: !hal.buffer_view) -> !hal.buffer_view attributes {iree.abi.stub, iree.reflection = {iree.abi.declaration = "sync func @matmul_accumulate_512x128xf16_times_128x512xf16_into_512x512xf16_for_LLVMGPUMatmulTensorCore_32_32_16_64_2_1(%input0: tensor<512x128xf16>, %input1: tensor<128x512xf16>, %input2: tensor<512x512xf16>) -> (%output0: tensor<512x512xf16>)"}} {
  %0 = hal.tensor.import %arg0 "input0" : !hal.buffer_view -> tensor<512x128xf16>
  %1 = hal.tensor.import %arg1 "input1" : !hal.buffer_view -> tensor<128x512xf16>
  %2 = hal.tensor.import %arg2 "input2" : !hal.buffer_view -> tensor<512x512xf16>
  %3 = linalg.matmul {compilation_info = #iree_codegen.compilation_info<lowering_config = #iree_codegen.lowering_config<tile_sizes = [[32, 32, 16]]>, translation_info = <pipeline = LLVMGPUMatmulTensorCore workgroup_size = [64, 2, 1], {pipeline_depth = 3 : i64, store_stage = 1 : i64}>>} ins(%0, %1 : tensor<512x128xf16>, tensor<128x512xf16>) outs(%2 : tensor<512x512xf16>) -> tensor<512x512xf16>
  %4 = hal.tensor.export %3 "output0" : tensor<512x512xf16> -> !hal.buffer_view
  util.return %4 : !hal.buffer_view
}

// -----// IR Dump After CSE (cse) //----- //
util.func public @matmul_accumulate_512x128xf16_times_128x512xf16_into_512x512xf16_for_LLVMGPUMatmulTensorCore_32_32_16_64_2_1(%arg0: !hal.buffer_view, %arg1: !hal.buffer_view, %arg2: !hal.buffer_view) -> !hal.buffer_view attributes {iree.abi.stub, iree.reflection = {iree.abi.declaration = "sync func @matmul_accumulate_512x128xf16_times_128x512xf16_into_512x512xf16_for_LLVMGPUMatmulTensorCore_32_32_16_64_2_1(%input0: tensor<512x128xf16>, %input1: tensor<128x512xf16>, %input2: tensor<512x512xf16>) -> (%output0: tensor<512x512xf16>)"}} {
  %0 = hal.tensor.import %arg0 "input0" : !hal.buffer_view -> tensor<512x128xf16>
  %1 = hal.tensor.import %arg1 "input1" : !hal.buffer_view -> tensor<128x512xf16>
  %2 = hal.tensor.import %arg2 "input2" : !hal.buffer_view -> tensor<512x512xf16>
  %3 = linalg.matmul {compilation_info = #iree_codegen.compilation_info<lowering_config = #iree_codegen.lowering_config<tile_sizes = [[32, 32, 16]]>, translation_info = <pipeline = LLVMGPUMatmulTensorCore workgroup_size = [64, 2, 1], {pipeline_depth = 3 : i64, store_stage = 1 : i64}>>} ins(%0, %1 : tensor<512x128xf16>, tensor<128x512xf16>) outs(%2 : tensor<512x512xf16>) -> tensor<512x512xf16>
  %4 = hal.tensor.export %3 "output0" : tensor<512x512xf16> -> !hal.buffer_view
  util.return %4 : !hal.buffer_view
}

// -----// IR Dump After BubbleUpExpandShapesPass (iree-dispatch-creation-bubble-up-expand-shapes) //----- //
util.func public @matmul_accumulate_512x128xf16_times_128x512xf16_into_512x512xf16_for_LLVMGPUMatmulTensorCore_32_32_16_64_2_1(%arg0: !hal.buffer_view, %arg1: !hal.buffer_view, %arg2: !hal.buffer_view) -> !hal.buffer_view attributes {iree.abi.stub, iree.reflection = {iree.abi.declaration = "sync func @matmul_accumulate_512x128xf16_times_128x512xf16_into_512x512xf16_for_LLVMGPUMatmulTensorCore_32_32_16_64_2_1(%input0: tensor<512x128xf16>, %input1: tensor<128x512xf16>, %input2: tensor<512x512xf16>) -> (%output0: tensor<512x512xf16>)"}} {
  %0 = hal.tensor.import %arg0 "input0" : !hal.buffer_view -> tensor<512x128xf16>
  %1 = hal.tensor.import %arg1 "input1" : !hal.buffer_view -> tensor<128x512xf16>
  %2 = hal.tensor.import %arg2 "input2" : !hal.buffer_view -> tensor<512x512xf16>
  %3 = linalg.matmul {compilation_info = #iree_codegen.compilation_info<lowering_config = #iree_codegen.lowering_config<tile_sizes = [[32, 32, 16]]>, translation_info = <pipeline = LLVMGPUMatmulTensorCore workgroup_size = [64, 2, 1], {pipeline_depth = 3 : i64, store_stage = 1 : i64}>>} ins(%0, %1 : tensor<512x128xf16>, tensor<128x512xf16>) outs(%2 : tensor<512x512xf16>) -> tensor<512x512xf16>
  %4 = hal.tensor.export %3 "output0" : tensor<512x512xf16> -> !hal.buffer_view
  util.return %4 : !hal.buffer_view
}

// -----// IR Dump After BubbleUpExtractSlicesPass (iree-dispatch-creation-bubble-up-extract-slices) //----- //
util.func public @matmul_accumulate_512x128xf16_times_128x512xf16_into_512x512xf16_for_LLVMGPUMatmulTensorCore_32_32_16_64_2_1(%arg0: !hal.buffer_view, %arg1: !hal.buffer_view, %arg2: !hal.buffer_view) -> !hal.buffer_view attributes {iree.abi.stub, iree.reflection = {iree.abi.declaration = "sync func @matmul_accumulate_512x128xf16_times_128x512xf16_into_512x512xf16_for_LLVMGPUMatmulTensorCore_32_32_16_64_2_1(%input0: tensor<512x128xf16>, %input1: tensor<128x512xf16>, %input2: tensor<512x512xf16>) -> (%output0: tensor<512x512xf16>)"}} {
  %0 = hal.tensor.import %arg0 "input0" : !hal.buffer_view -> tensor<512x128xf16>
  %1 = hal.tensor.import %arg1 "input1" : !hal.buffer_view -> tensor<128x512xf16>
  %2 = hal.tensor.import %arg2 "input2" : !hal.buffer_view -> tensor<512x512xf16>
  %3 = linalg.matmul {compilation_info = #iree_codegen.compilation_info<lowering_config = #iree_codegen.lowering_config<tile_sizes = [[32, 32, 16]]>, translation_info = <pipeline = LLVMGPUMatmulTensorCore workgroup_size = [64, 2, 1], {pipeline_depth = 3 : i64, store_stage = 1 : i64}>>} ins(%0, %1 : tensor<512x128xf16>, tensor<128x512xf16>) outs(%2 : tensor<512x512xf16>) -> tensor<512x512xf16>
  %4 = hal.tensor.export %3 "output0" : tensor<512x512xf16> -> !hal.buffer_view
  util.return %4 : !hal.buffer_view
}

// -----// IR Dump After CanonicalizerPass (iree-flow-canonicalize) //----- //
util.func public @matmul_accumulate_512x128xf16_times_128x512xf16_into_512x512xf16_for_LLVMGPUMatmulTensorCore_32_32_16_64_2_1(%arg0: !hal.buffer_view, %arg1: !hal.buffer_view, %arg2: !hal.buffer_view) -> !hal.buffer_view attributes {iree.abi.stub, iree.reflection = {iree.abi.declaration = "sync func @matmul_accumulate_512x128xf16_times_128x512xf16_into_512x512xf16_for_LLVMGPUMatmulTensorCore_32_32_16_64_2_1(%input0: tensor<512x128xf16>, %input1: tensor<128x512xf16>, %input2: tensor<512x512xf16>) -> (%output0: tensor<512x512xf16>)"}} {
  %0 = hal.tensor.import %arg0 "input0" : !hal.buffer_view -> tensor<512x128xf16>
  %1 = hal.tensor.import %arg1 "input1" : !hal.buffer_view -> tensor<128x512xf16>
  %2 = hal.tensor.import %arg2 "input2" : !hal.buffer_view -> tensor<512x512xf16>
  %3 = linalg.matmul {compilation_info = #iree_codegen.compilation_info<lowering_config = #iree_codegen.lowering_config<tile_sizes = [[32, 32, 16]]>, translation_info = <pipeline = LLVMGPUMatmulTensorCore workgroup_size = [64, 2, 1], {pipeline_depth = 3 : i64, store_stage = 1 : i64}>>} ins(%0, %1 : tensor<512x128xf16>, tensor<128x512xf16>) outs(%2 : tensor<512x512xf16>) -> tensor<512x512xf16>
  %4 = hal.tensor.export %3 "output0" : tensor<512x512xf16> -> !hal.buffer_view
  util.return %4 : !hal.buffer_view
}

// -----// IR Dump After CSE (cse) //----- //
util.func public @matmul_accumulate_512x128xf16_times_128x512xf16_into_512x512xf16_for_LLVMGPUMatmulTensorCore_32_32_16_64_2_1(%arg0: !hal.buffer_view, %arg1: !hal.buffer_view, %arg2: !hal.buffer_view) -> !hal.buffer_view attributes {iree.abi.stub, iree.reflection = {iree.abi.declaration = "sync func @matmul_accumulate_512x128xf16_times_128x512xf16_into_512x512xf16_for_LLVMGPUMatmulTensorCore_32_32_16_64_2_1(%input0: tensor<512x128xf16>, %input1: tensor<128x512xf16>, %input2: tensor<512x512xf16>) -> (%output0: tensor<512x512xf16>)"}} {
  %0 = hal.tensor.import %arg0 "input0" : !hal.buffer_view -> tensor<512x128xf16>
  %1 = hal.tensor.import %arg1 "input1" : !hal.buffer_view -> tensor<128x512xf16>
  %2 = hal.tensor.import %arg2 "input2" : !hal.buffer_view -> tensor<512x512xf16>
  %3 = linalg.matmul {compilation_info = #iree_codegen.compilation_info<lowering_config = #iree_codegen.lowering_config<tile_sizes = [[32, 32, 16]]>, translation_info = <pipeline = LLVMGPUMatmulTensorCore workgroup_size = [64, 2, 1], {pipeline_depth = 3 : i64, store_stage = 1 : i64}>>} ins(%0, %1 : tensor<512x128xf16>, tensor<128x512xf16>) outs(%2 : tensor<512x512xf16>) -> tensor<512x512xf16>
  %4 = hal.tensor.export %3 "output0" : tensor<512x512xf16> -> !hal.buffer_view
  util.return %4 : !hal.buffer_view
}

// -----// IR Dump After ElementwiseOpFusionPass (iree-dispatch-creation-elementwise-op-fusion) //----- //
util.func public @matmul_accumulate_512x128xf16_times_128x512xf16_into_512x512xf16_for_LLVMGPUMatmulTensorCore_32_32_16_64_2_1(%arg0: !hal.buffer_view, %arg1: !hal.buffer_view, %arg2: !hal.buffer_view) -> !hal.buffer_view attributes {iree.abi.stub, iree.reflection = {iree.abi.declaration = "sync func @matmul_accumulate_512x128xf16_times_128x512xf16_into_512x512xf16_for_LLVMGPUMatmulTensorCore_32_32_16_64_2_1(%input0: tensor<512x128xf16>, %input1: tensor<128x512xf16>, %input2: tensor<512x512xf16>) -> (%output0: tensor<512x512xf16>)"}} {
  %0 = hal.tensor.import %arg0 "input0" : !hal.buffer_view -> tensor<512x128xf16>
  %1 = hal.tensor.import %arg1 "input1" : !hal.buffer_view -> tensor<128x512xf16>
  %2 = hal.tensor.import %arg2 "input2" : !hal.buffer_view -> tensor<512x512xf16>
  %3 = linalg.matmul {compilation_info = #iree_codegen.compilation_info<lowering_config = #iree_codegen.lowering_config<tile_sizes = [[32, 32, 16]]>, translation_info = <pipeline = LLVMGPUMatmulTensorCore workgroup_size = [64, 2, 1], {pipeline_depth = 3 : i64, store_stage = 1 : i64}>>} ins(%0, %1 : tensor<512x128xf16>, tensor<128x512xf16>) outs(%2 : tensor<512x512xf16>) -> tensor<512x512xf16>
  %4 = hal.tensor.export %3 "output0" : tensor<512x512xf16> -> !hal.buffer_view
  util.return %4 : !hal.buffer_view
}

// -----// IR Dump After CanonicalizerPass (iree-flow-canonicalize) //----- //
util.func public @matmul_accumulate_512x128xf16_times_128x512xf16_into_512x512xf16_for_LLVMGPUMatmulTensorCore_32_32_16_64_2_1(%arg0: !hal.buffer_view, %arg1: !hal.buffer_view, %arg2: !hal.buffer_view) -> !hal.buffer_view attributes {iree.abi.stub, iree.reflection = {iree.abi.declaration = "sync func @matmul_accumulate_512x128xf16_times_128x512xf16_into_512x512xf16_for_LLVMGPUMatmulTensorCore_32_32_16_64_2_1(%input0: tensor<512x128xf16>, %input1: tensor<128x512xf16>, %input2: tensor<512x512xf16>) -> (%output0: tensor<512x512xf16>)"}} {
  %0 = hal.tensor.import %arg0 "input0" : !hal.buffer_view -> tensor<512x128xf16>
  %1 = hal.tensor.import %arg1 "input1" : !hal.buffer_view -> tensor<128x512xf16>
  %2 = hal.tensor.import %arg2 "input2" : !hal.buffer_view -> tensor<512x512xf16>
  %3 = linalg.matmul {compilation_info = #iree_codegen.compilation_info<lowering_config = #iree_codegen.lowering_config<tile_sizes = [[32, 32, 16]]>, translation_info = <pipeline = LLVMGPUMatmulTensorCore workgroup_size = [64, 2, 1], {pipeline_depth = 3 : i64, store_stage = 1 : i64}>>} ins(%0, %1 : tensor<512x128xf16>, tensor<128x512xf16>) outs(%2 : tensor<512x512xf16>) -> tensor<512x512xf16>
  %4 = hal.tensor.export %3 "output0" : tensor<512x512xf16> -> !hal.buffer_view
  util.return %4 : !hal.buffer_view
}

// -----// IR Dump After CSE (cse) //----- //
util.func public @matmul_accumulate_512x128xf16_times_128x512xf16_into_512x512xf16_for_LLVMGPUMatmulTensorCore_32_32_16_64_2_1(%arg0: !hal.buffer_view, %arg1: !hal.buffer_view, %arg2: !hal.buffer_view) -> !hal.buffer_view attributes {iree.abi.stub, iree.reflection = {iree.abi.declaration = "sync func @matmul_accumulate_512x128xf16_times_128x512xf16_into_512x512xf16_for_LLVMGPUMatmulTensorCore_32_32_16_64_2_1(%input0: tensor<512x128xf16>, %input1: tensor<128x512xf16>, %input2: tensor<512x512xf16>) -> (%output0: tensor<512x512xf16>)"}} {
  %0 = hal.tensor.import %arg0 "input0" : !hal.buffer_view -> tensor<512x128xf16>
  %1 = hal.tensor.import %arg1 "input1" : !hal.buffer_view -> tensor<128x512xf16>
  %2 = hal.tensor.import %arg2 "input2" : !hal.buffer_view -> tensor<512x512xf16>
  %3 = linalg.matmul {compilation_info = #iree_codegen.compilation_info<lowering_config = #iree_codegen.lowering_config<tile_sizes = [[32, 32, 16]]>, translation_info = <pipeline = LLVMGPUMatmulTensorCore workgroup_size = [64, 2, 1], {pipeline_depth = 3 : i64, store_stage = 1 : i64}>>} ins(%0, %1 : tensor<512x128xf16>, tensor<128x512xf16>) outs(%2 : tensor<512x512xf16>) -> tensor<512x512xf16>
  %4 = hal.tensor.export %3 "output0" : tensor<512x512xf16> -> !hal.buffer_view
  util.return %4 : !hal.buffer_view
}

// -----// IR Dump After SinkReshapesPass (iree-dispatch-creation-sink-reshapes) //----- //
util.func public @matmul_accumulate_512x128xf16_times_128x512xf16_into_512x512xf16_for_LLVMGPUMatmulTensorCore_32_32_16_64_2_1(%arg0: !hal.buffer_view, %arg1: !hal.buffer_view, %arg2: !hal.buffer_view) -> !hal.buffer_view attributes {iree.abi.stub, iree.reflection = {iree.abi.declaration = "sync func @matmul_accumulate_512x128xf16_times_128x512xf16_into_512x512xf16_for_LLVMGPUMatmulTensorCore_32_32_16_64_2_1(%input0: tensor<512x128xf16>, %input1: tensor<128x512xf16>, %input2: tensor<512x512xf16>) -> (%output0: tensor<512x512xf16>)"}} {
  %0 = hal.tensor.import %arg0 "input0" : !hal.buffer_view -> tensor<512x128xf16>
  %1 = hal.tensor.import %arg1 "input1" : !hal.buffer_view -> tensor<128x512xf16>
  %2 = hal.tensor.import %arg2 "input2" : !hal.buffer_view -> tensor<512x512xf16>
  %3 = linalg.matmul {compilation_info = #iree_codegen.compilation_info<lowering_config = #iree_codegen.lowering_config<tile_sizes = [[32, 32, 16]]>, translation_info = <pipeline = LLVMGPUMatmulTensorCore workgroup_size = [64, 2, 1], {pipeline_depth = 3 : i64, store_stage = 1 : i64}>>} ins(%0, %1 : tensor<512x128xf16>, tensor<128x512xf16>) outs(%2 : tensor<512x512xf16>) -> tensor<512x512xf16>
  %4 = hal.tensor.export %3 "output0" : tensor<512x512xf16> -> !hal.buffer_view
  util.return %4 : !hal.buffer_view
}

// -----// IR Dump After CanonicalizerPass (iree-flow-canonicalize) //----- //
util.func public @matmul_accumulate_512x128xf16_times_128x512xf16_into_512x512xf16_for_LLVMGPUMatmulTensorCore_32_32_16_64_2_1(%arg0: !hal.buffer_view, %arg1: !hal.buffer_view, %arg2: !hal.buffer_view) -> !hal.buffer_view attributes {iree.abi.stub, iree.reflection = {iree.abi.declaration = "sync func @matmul_accumulate_512x128xf16_times_128x512xf16_into_512x512xf16_for_LLVMGPUMatmulTensorCore_32_32_16_64_2_1(%input0: tensor<512x128xf16>, %input1: tensor<128x512xf16>, %input2: tensor<512x512xf16>) -> (%output0: tensor<512x512xf16>)"}} {
  %0 = hal.tensor.import %arg0 "input0" : !hal.buffer_view -> tensor<512x128xf16>
  %1 = hal.tensor.import %arg1 "input1" : !hal.buffer_view -> tensor<128x512xf16>
  %2 = hal.tensor.import %arg2 "input2" : !hal.buffer_view -> tensor<512x512xf16>
  %3 = linalg.matmul {compilation_info = #iree_codegen.compilation_info<lowering_config = #iree_codegen.lowering_config<tile_sizes = [[32, 32, 16]]>, translation_info = <pipeline = LLVMGPUMatmulTensorCore workgroup_size = [64, 2, 1], {pipeline_depth = 3 : i64, store_stage = 1 : i64}>>} ins(%0, %1 : tensor<512x128xf16>, tensor<128x512xf16>) outs(%2 : tensor<512x512xf16>) -> tensor<512x512xf16>
  %4 = hal.tensor.export %3 "output0" : tensor<512x512xf16> -> !hal.buffer_view
  util.return %4 : !hal.buffer_view
}

// -----// IR Dump After CSE (cse) //----- //
util.func public @matmul_accumulate_512x128xf16_times_128x512xf16_into_512x512xf16_for_LLVMGPUMatmulTensorCore_32_32_16_64_2_1(%arg0: !hal.buffer_view, %arg1: !hal.buffer_view, %arg2: !hal.buffer_view) -> !hal.buffer_view attributes {iree.abi.stub, iree.reflection = {iree.abi.declaration = "sync func @matmul_accumulate_512x128xf16_times_128x512xf16_into_512x512xf16_for_LLVMGPUMatmulTensorCore_32_32_16_64_2_1(%input0: tensor<512x128xf16>, %input1: tensor<128x512xf16>, %input2: tensor<512x512xf16>) -> (%output0: tensor<512x512xf16>)"}} {
  %0 = hal.tensor.import %arg0 "input0" : !hal.buffer_view -> tensor<512x128xf16>
  %1 = hal.tensor.import %arg1 "input1" : !hal.buffer_view -> tensor<128x512xf16>
  %2 = hal.tensor.import %arg2 "input2" : !hal.buffer_view -> tensor<512x512xf16>
  %3 = linalg.matmul {compilation_info = #iree_codegen.compilation_info<lowering_config = #iree_codegen.lowering_config<tile_sizes = [[32, 32, 16]]>, translation_info = <pipeline = LLVMGPUMatmulTensorCore workgroup_size = [64, 2, 1], {pipeline_depth = 3 : i64, store_stage = 1 : i64}>>} ins(%0, %1 : tensor<512x128xf16>, tensor<128x512xf16>) outs(%2 : tensor<512x512xf16>) -> tensor<512x512xf16>
  %4 = hal.tensor.export %3 "output0" : tensor<512x512xf16> -> !hal.buffer_view
  util.return %4 : !hal.buffer_view
}

// -----// IR Dump After FuseMultiUseElementwiseProducerPass (iree-dispatch-creation-fuse-multi-use-elementwise-producer) //----- //
util.func public @matmul_accumulate_512x128xf16_times_128x512xf16_into_512x512xf16_for_LLVMGPUMatmulTensorCore_32_32_16_64_2_1(%arg0: !hal.buffer_view, %arg1: !hal.buffer_view, %arg2: !hal.buffer_view) -> !hal.buffer_view attributes {iree.abi.stub, iree.reflection = {iree.abi.declaration = "sync func @matmul_accumulate_512x128xf16_times_128x512xf16_into_512x512xf16_for_LLVMGPUMatmulTensorCore_32_32_16_64_2_1(%input0: tensor<512x128xf16>, %input1: tensor<128x512xf16>, %input2: tensor<512x512xf16>) -> (%output0: tensor<512x512xf16>)"}} {
  %0 = hal.tensor.import %arg0 "input0" : !hal.buffer_view -> tensor<512x128xf16>
  %1 = hal.tensor.import %arg1 "input1" : !hal.buffer_view -> tensor<128x512xf16>
  %2 = hal.tensor.import %arg2 "input2" : !hal.buffer_view -> tensor<512x512xf16>
  %3 = linalg.matmul {compilation_info = #iree_codegen.compilation_info<lowering_config = #iree_codegen.lowering_config<tile_sizes = [[32, 32, 16]]>, translation_info = <pipeline = LLVMGPUMatmulTensorCore workgroup_size = [64, 2, 1], {pipeline_depth = 3 : i64, store_stage = 1 : i64}>>} ins(%0, %1 : tensor<512x128xf16>, tensor<128x512xf16>) outs(%2 : tensor<512x512xf16>) -> tensor<512x512xf16>
  %4 = hal.tensor.export %3 "output0" : tensor<512x512xf16> -> !hal.buffer_view
  util.return %4 : !hal.buffer_view
}

// -----// IR Dump After CanonicalizerPass (iree-flow-canonicalize) //----- //
util.func public @matmul_accumulate_512x128xf16_times_128x512xf16_into_512x512xf16_for_LLVMGPUMatmulTensorCore_32_32_16_64_2_1(%arg0: !hal.buffer_view, %arg1: !hal.buffer_view, %arg2: !hal.buffer_view) -> !hal.buffer_view attributes {iree.abi.stub, iree.reflection = {iree.abi.declaration = "sync func @matmul_accumulate_512x128xf16_times_128x512xf16_into_512x512xf16_for_LLVMGPUMatmulTensorCore_32_32_16_64_2_1(%input0: tensor<512x128xf16>, %input1: tensor<128x512xf16>, %input2: tensor<512x512xf16>) -> (%output0: tensor<512x512xf16>)"}} {
  %0 = hal.tensor.import %arg0 "input0" : !hal.buffer_view -> tensor<512x128xf16>
  %1 = hal.tensor.import %arg1 "input1" : !hal.buffer_view -> tensor<128x512xf16>
  %2 = hal.tensor.import %arg2 "input2" : !hal.buffer_view -> tensor<512x512xf16>
  %3 = linalg.matmul {compilation_info = #iree_codegen.compilation_info<lowering_config = #iree_codegen.lowering_config<tile_sizes = [[32, 32, 16]]>, translation_info = <pipeline = LLVMGPUMatmulTensorCore workgroup_size = [64, 2, 1], {pipeline_depth = 3 : i64, store_stage = 1 : i64}>>} ins(%0, %1 : tensor<512x128xf16>, tensor<128x512xf16>) outs(%2 : tensor<512x512xf16>) -> tensor<512x512xf16>
  %4 = hal.tensor.export %3 "output0" : tensor<512x512xf16> -> !hal.buffer_view
  util.return %4 : !hal.buffer_view
}

// -----// IR Dump After CSE (cse) //----- //
util.func public @matmul_accumulate_512x128xf16_times_128x512xf16_into_512x512xf16_for_LLVMGPUMatmulTensorCore_32_32_16_64_2_1(%arg0: !hal.buffer_view, %arg1: !hal.buffer_view, %arg2: !hal.buffer_view) -> !hal.buffer_view attributes {iree.abi.stub, iree.reflection = {iree.abi.declaration = "sync func @matmul_accumulate_512x128xf16_times_128x512xf16_into_512x512xf16_for_LLVMGPUMatmulTensorCore_32_32_16_64_2_1(%input0: tensor<512x128xf16>, %input1: tensor<128x512xf16>, %input2: tensor<512x512xf16>) -> (%output0: tensor<512x512xf16>)"}} {
  %0 = hal.tensor.import %arg0 "input0" : !hal.buffer_view -> tensor<512x128xf16>
  %1 = hal.tensor.import %arg1 "input1" : !hal.buffer_view -> tensor<128x512xf16>
  %2 = hal.tensor.import %arg2 "input2" : !hal.buffer_view -> tensor<512x512xf16>
  %3 = linalg.matmul {compilation_info = #iree_codegen.compilation_info<lowering_config = #iree_codegen.lowering_config<tile_sizes = [[32, 32, 16]]>, translation_info = <pipeline = LLVMGPUMatmulTensorCore workgroup_size = [64, 2, 1], {pipeline_depth = 3 : i64, store_stage = 1 : i64}>>} ins(%0, %1 : tensor<512x128xf16>, tensor<128x512xf16>) outs(%2 : tensor<512x512xf16>) -> tensor<512x512xf16>
  %4 = hal.tensor.export %3 "output0" : tensor<512x512xf16> -> !hal.buffer_view
  util.return %4 : !hal.buffer_view
}

// -----// IR Dump After SplitReductionPass (iree-dispatch-creation-split-reduction-ops) //----- //
util.func public @matmul_accumulate_512x128xf16_times_128x512xf16_into_512x512xf16_for_LLVMGPUMatmulTensorCore_32_32_16_64_2_1(%arg0: !hal.buffer_view, %arg1: !hal.buffer_view, %arg2: !hal.buffer_view) -> !hal.buffer_view attributes {iree.abi.stub, iree.reflection = {iree.abi.declaration = "sync func @matmul_accumulate_512x128xf16_times_128x512xf16_into_512x512xf16_for_LLVMGPUMatmulTensorCore_32_32_16_64_2_1(%input0: tensor<512x128xf16>, %input1: tensor<128x512xf16>, %input2: tensor<512x512xf16>) -> (%output0: tensor<512x512xf16>)"}} {
  %0 = hal.tensor.import %arg0 "input0" : !hal.buffer_view -> tensor<512x128xf16>
  %1 = hal.tensor.import %arg1 "input1" : !hal.buffer_view -> tensor<128x512xf16>
  %2 = hal.tensor.import %arg2 "input2" : !hal.buffer_view -> tensor<512x512xf16>
  %3 = linalg.matmul {compilation_info = #iree_codegen.compilation_info<lowering_config = #iree_codegen.lowering_config<tile_sizes = [[32, 32, 16]]>, translation_info = <pipeline = LLVMGPUMatmulTensorCore workgroup_size = [64, 2, 1], {pipeline_depth = 3 : i64, store_stage = 1 : i64}>>} ins(%0, %1 : tensor<512x128xf16>, tensor<128x512xf16>) outs(%2 : tensor<512x512xf16>) -> tensor<512x512xf16>
  %4 = hal.tensor.export %3 "output0" : tensor<512x512xf16> -> !hal.buffer_view
  util.return %4 : !hal.buffer_view
}

// -----// IR Dump After TransposeGenericOpsPass (iree-dispatch-creation-transpose-generic-ops) //----- //
util.func public @matmul_accumulate_512x128xf16_times_128x512xf16_into_512x512xf16_for_LLVMGPUMatmulTensorCore_32_32_16_64_2_1(%arg0: !hal.buffer_view, %arg1: !hal.buffer_view, %arg2: !hal.buffer_view) -> !hal.buffer_view attributes {iree.abi.stub, iree.reflection = {iree.abi.declaration = "sync func @matmul_accumulate_512x128xf16_times_128x512xf16_into_512x512xf16_for_LLVMGPUMatmulTensorCore_32_32_16_64_2_1(%input0: tensor<512x128xf16>, %input1: tensor<128x512xf16>, %input2: tensor<512x512xf16>) -> (%output0: tensor<512x512xf16>)"}} {
  %0 = hal.tensor.import %arg0 "input0" : !hal.buffer_view -> tensor<512x128xf16>
  %1 = hal.tensor.import %arg1 "input1" : !hal.buffer_view -> tensor<128x512xf16>
  %2 = hal.tensor.import %arg2 "input2" : !hal.buffer_view -> tensor<512x512xf16>
  %3 = linalg.matmul {compilation_info = #iree_codegen.compilation_info<lowering_config = #iree_codegen.lowering_config<tile_sizes = [[32, 32, 16]]>, translation_info = <pipeline = LLVMGPUMatmulTensorCore workgroup_size = [64, 2, 1], {pipeline_depth = 3 : i64, store_stage = 1 : i64}>>} ins(%0, %1 : tensor<512x128xf16>, tensor<128x512xf16>) outs(%2 : tensor<512x512xf16>) -> tensor<512x512xf16>
  %4 = hal.tensor.export %3 "output0" : tensor<512x512xf16> -> !hal.buffer_view
  util.return %4 : !hal.buffer_view
}

// -----// IR Dump After FormScalarDispatchesPass (iree-dispatch-creation-form-scalar-dispatches) //----- //
util.func public @matmul_accumulate_512x128xf16_times_128x512xf16_into_512x512xf16_for_LLVMGPUMatmulTensorCore_32_32_16_64_2_1(%arg0: !hal.buffer_view, %arg1: !hal.buffer_view, %arg2: !hal.buffer_view) -> !hal.buffer_view attributes {iree.abi.stub, iree.reflection = {iree.abi.declaration = "sync func @matmul_accumulate_512x128xf16_times_128x512xf16_into_512x512xf16_for_LLVMGPUMatmulTensorCore_32_32_16_64_2_1(%input0: tensor<512x128xf16>, %input1: tensor<128x512xf16>, %input2: tensor<512x512xf16>) -> (%output0: tensor<512x512xf16>)"}} {
  %0 = hal.tensor.import %arg0 "input0" : !hal.buffer_view -> tensor<512x128xf16>
  %1 = hal.tensor.import %arg1 "input1" : !hal.buffer_view -> tensor<128x512xf16>
  %2 = hal.tensor.import %arg2 "input2" : !hal.buffer_view -> tensor<512x512xf16>
  %3 = linalg.matmul {compilation_info = #iree_codegen.compilation_info<lowering_config = #iree_codegen.lowering_config<tile_sizes = [[32, 32, 16]]>, translation_info = <pipeline = LLVMGPUMatmulTensorCore workgroup_size = [64, 2, 1], {pipeline_depth = 3 : i64, store_stage = 1 : i64}>>} ins(%0, %1 : tensor<512x128xf16>, tensor<128x512xf16>) outs(%2 : tensor<512x512xf16>) -> tensor<512x512xf16>
  %4 = hal.tensor.export %3 "output0" : tensor<512x512xf16> -> !hal.buffer_view
  util.return %4 : !hal.buffer_view
}

// -----// IR Dump After FormDispatchRegionsPass (iree-dispatch-creation-form-dispatch-regions) //----- //
util.func public @matmul_accumulate_512x128xf16_times_128x512xf16_into_512x512xf16_for_LLVMGPUMatmulTensorCore_32_32_16_64_2_1(%arg0: !hal.buffer_view, %arg1: !hal.buffer_view, %arg2: !hal.buffer_view) -> !hal.buffer_view attributes {iree.abi.stub, iree.reflection = {iree.abi.declaration = "sync func @matmul_accumulate_512x128xf16_times_128x512xf16_into_512x512xf16_for_LLVMGPUMatmulTensorCore_32_32_16_64_2_1(%input0: tensor<512x128xf16>, %input1: tensor<128x512xf16>, %input2: tensor<512x512xf16>) -> (%output0: tensor<512x512xf16>)"}} {
  %0 = hal.tensor.import %arg0 "input0" : !hal.buffer_view -> tensor<512x128xf16>
  %1 = hal.tensor.import %arg1 "input1" : !hal.buffer_view -> tensor<128x512xf16>
  %2 = hal.tensor.import %arg2 "input2" : !hal.buffer_view -> tensor<512x512xf16>
  %3 = flow.dispatch.region -> (tensor<512x512xf16>) {
    %5 = linalg.matmul {compilation_info = #iree_codegen.compilation_info<lowering_config = #iree_codegen.lowering_config<tile_sizes = [[32, 32, 16]]>, translation_info = <pipeline = LLVMGPUMatmulTensorCore workgroup_size = [64, 2, 1], {pipeline_depth = 3 : i64, store_stage = 1 : i64}>>} ins(%0, %1 : tensor<512x128xf16>, tensor<128x512xf16>) outs(%2 : tensor<512x512xf16>) -> tensor<512x512xf16>
    flow.return %5 : tensor<512x512xf16>
  }
  %4 = hal.tensor.export %3 "output0" : tensor<512x512xf16> -> !hal.buffer_view
  util.return %4 : !hal.buffer_view
}

// -----// IR Dump After CloneProducersIntoDispatchRegionsPass (iree-dispatch-creation-clone-producers-into-dispatch-regions) //----- //
util.func public @matmul_accumulate_512x128xf16_times_128x512xf16_into_512x512xf16_for_LLVMGPUMatmulTensorCore_32_32_16_64_2_1(%arg0: !hal.buffer_view, %arg1: !hal.buffer_view, %arg2: !hal.buffer_view) -> !hal.buffer_view attributes {iree.abi.stub, iree.reflection = {iree.abi.declaration = "sync func @matmul_accumulate_512x128xf16_times_128x512xf16_into_512x512xf16_for_LLVMGPUMatmulTensorCore_32_32_16_64_2_1(%input0: tensor<512x128xf16>, %input1: tensor<128x512xf16>, %input2: tensor<512x512xf16>) -> (%output0: tensor<512x512xf16>)"}} {
  %0 = hal.tensor.import %arg0 "input0" : !hal.buffer_view -> tensor<512x128xf16>
…
  vm.rodata private @matmul_accumulate_512x128xf16_times_128x512xf16_into_512x512xf16_for_LLVMGPUMatmulTensorCore_32_32_16_64_2_1_dispatch_0_cuda_nvptx_fb {alignment = 16 : i64} dense_resource<__elided__> : vector<7136xi8>
  vm.global.ref private mutable @__device_0_executable_0_matmul_accumulate_512x128xf16_times_128x512xf16_into_512x512xf16_for_LLVMGPUMatmulTensorCore_32_32_16_64_2_1_dispatch_0 : !vm.ref<!hal.executable>
  vm.func private @__matmul_accumulate_512x128xf16_times_128x512xf16_into_512x512xf16_for_LLVMGPUMatmulTensorCore_32_32_16_64_2_1_memoize_apply() -> !vm.ref<!hal.command_buffer> attributes {inlining_policy = #util.inline.never} {
    %c13 = vm.const.i32 13
    %c28 = vm.const.i32 28
    %c2 = vm.const.i32 2
    %null = vm.const.ref.zero : !vm.ref<!hal.buffer>
    %c1 = vm.const.i32 1
    %c16 = vm.const.i32 16
    %c3 = vm.const.i32 3
    %zero = vm.const.i32.zero
    %c524288 = vm.const.i64 524288
    %c131072 = vm.const.i64 131072
    %zero_0 = vm.const.i64.zero
    %c-1 = vm.const.i64 -1
    %__device_0 = vm.global.load.ref @__device_0 : !vm.ref<!hal.device>
    %__device_0_executable_0_matmul_accumulate_512x128xf16_times_128x512xf16_into_512x512xf16_for_LLVMGPUMatmulTensorCore_32_32_16_64_2_1_dispatch_0 = vm.global.load.ref @__device_0_executable_0_matmul_accumulate_512x128xf16_times_128x512xf16_into_512x512xf16_for_LLVMGPUMatmulTensorCore_32_32_16_64_2_1_dispatch_0 : !vm.ref<!hal.executable>
    %ref = vm.call @hal.command_buffer.create(%__device_0, %zero, %c3, %c-1, %c3) : (!vm.ref<!hal.device>, i32, i32, i64, i32) -> !vm.ref<!hal.command_buffer>
    vm.call.variadic @hal.command_buffer.dispatch(%ref, %__device_0_executable_0_matmul_accumulate_512x128xf16_times_128x512xf16_into_512x512xf16_for_LLVMGPUMatmulTensorCore_32_32_16_64_2_1_dispatch_0, %zero, %c16, %c16, %c1, %zero_0, [], [(%zero, %zero, %null, %zero_0, %c131072), (%zero, %c1, %null, %zero_0, %c131072), (%zero, %c2, %null, %zero_0, %c524288)]) : (!vm.ref<!hal.command_buffer>, !vm.ref<!hal.executable>, i32, i32, i32, i32, i64, i32 ..., tuple<i32, i32, !vm.ref<!hal.buffer>, i64, i64> ...)
    vm.call @hal.command_buffer.execution_barrier(%ref, %c28, %c13, %zero) : (!vm.ref<!hal.command_buffer>, i32, i32, i32) -> ()
    vm.call @hal.command_buffer.finalize(%ref) : (!vm.ref<!hal.command_buffer>) -> ()
    vm.return %ref : !vm.ref<!hal.command_buffer>
  }
  vm.global.ref private mutable @__matmul_accumulate_512x128xf16_times_128x512xf16_into_512x512xf16_for_LLVMGPUMatmulTensorCore_32_32_16_64_2_1_memoize_result_0_device_0 : !vm.ref<!hal.command_buffer>
  vm.import private @hal.buffer.assert(%buffer : !vm.ref<!hal.buffer>, %message : !vm.buffer, %allocator : !vm.ref<!hal.allocator>, %minimum_length : i64, %memory_types : i32, %buffer_usage : i32)
  vm.import private @hal.buffer_view.create(%buffer : !vm.ref<!hal.buffer>, %source_offset : i64, %source_length : i64, %element_type : i32, %encoding_type : i32, %shape : i64 ...) -> !vm.ref<!hal.buffer_view> attributes {nosideeffects}
  vm.import private @hal.buffer_view.assert(%buffer_view : !vm.ref<!hal.buffer_view>, %message : !vm.buffer, %element_type : i32, %encoding_type : i32, %shape : i64 ...)
  vm.import private @hal.buffer_view.buffer(%buffer_view : !vm.ref<!hal.buffer_view>) -> !vm.ref<!hal.buffer> attributes {nosideeffects}
  vm.import private @hal.command_buffer.create(%device : !vm.ref<!hal.device>, %modes : i32, %command_categories : i32, %queue_affinity : i64, %binding_capacity : i32) -> !vm.ref<!hal.command_buffer> attributes {minimum_version = 5 : i32}
  vm.import private @hal.command_buffer.finalize(%command_buffer : !vm.ref<!hal.command_buffer>)
  vm.import private @hal.command_buffer.execution_barrier(%command_buffer : !vm.ref<!hal.command_buffer>, %source_stage_mask : i32, %target_stage_mask : i32, %flags : i32)
  vm.import private @hal.command_buffer.dispatch(%command_buffer : !vm.ref<!hal.command_buffer>, %executable : !vm.ref<!hal.executable>, %entry_point : i32, %workgroup_x : i32, %workgroup_y : i32, %workgroup_z : i32, %flags : i64, %constants : i32 ..., %bindings : tuple<i32, i32, !vm.ref<!hal.buffer>, i64, i64> ...)
  vm.import private @hal.device.allocator(%device : !vm.ref<!hal.device>) -> !vm.ref<!hal.allocator> attributes {nosideeffects}
  vm.import private @hal.device.query.i64(%device : !vm.ref<!hal.device>, %category : !vm.buffer, %key : !vm.buffer) -> (i32, i64) attributes {nosideeffects}
  vm.import private @hal.device.queue.execute.indirect(%device : !vm.ref<!hal.device>, %queue_affinity : i64, %wait_fence : !vm.ref<!hal.fence>, %signal_fence : !vm.ref<!hal.fence>, %command_buffer : !vm.ref<!hal.command_buffer>, %binding_table : tuple<!vm.ref<!hal.buffer>, i64, i64> ...)
  vm.import private @hal.devices.count() -> i32 attributes {nosideeffects}
  vm.import private @hal.devices.get(%index : i32) -> !vm.ref<!hal.device> attributes {nosideeffects}
  vm.import private @hal.executable.create(%device : !vm.ref<!hal.device>, %executable_format : !vm.buffer, %executable_data : !vm.buffer, %constants : !vm.buffer) -> !vm.ref<!hal.executable> attributes {nosideeffects}
  vm.import private @hal.fence.create(%device : !vm.ref<!hal.device>, %flags : i32) -> !vm.ref<!hal.fence>
  vm.import private @hal.fence.await(%timeout_millis : i32, %fences : !vm.ref<!hal.fence> ...) -> i32 attributes {vm.yield}
  vm.rodata private @_utf8_input0_F74E046E5FFA3735 {alignment = 1 : i64} "input0"
  vm.rodata private @_utf8_tensor_3C6209B4FD120BDC {alignment = 1 : i64} "tensor"
  vm.rodata private @_utf8_input1_E2E5222C371315B9 {alignment = 1 : i64} "input1"
  vm.rodata private @_utf8_input2_18A68D379CE18F1A {alignment = 1 : i64} "input2"
  vm.func private @matmul_accumulate_512x128xf16_times_128x512xf16_into_512x512xf16_for_LLVMGPUMatmulTensorCore_32_32_16_64_2_1(%arg0: !vm.ref<!hal.buffer_view>, %arg1: !vm.ref<!hal.buffer_view>, %arg2: !vm.ref<!hal.buffer_view>) -> !vm.ref<!hal.buffer_view> attributes {iree.reflection = {iree.abi.declaration = "sync func @matmul_accumulate_512x128xf16_times_128x512xf16_into_512x512xf16_for_LLVMGPUMatmulTensorCore_32_32_16_64_2_1(%input0: tensor<512x128xf16>, %input1: tensor<128x512xf16>, %input2: tensor<512x512xf16>) -> (%output0: tensor<512x512xf16>)"}} {
    %zero = vm.const.i32.zero
    %c3075 = vm.const.i32 3075
    %c16 = vm.const.i32 16
    %c1 = vm.const.i32 1
    %c553648144 = vm.const.i32 553648144
    %c512 = vm.const.i64 512
    %c128 = vm.const.i64 128
    %zero_0 = vm.const.i64.zero
    %c131072 = vm.const.i64 131072
    %c524288 = vm.const.i64 524288
    %c-1 = vm.const.i64 -1
    %null = vm.const.ref.zero : !vm.ref<!hal.fence>
    %c-1_1 = vm.const.i32 -1
    %__device_0 = vm.global.load.ref @__device_0 : !vm.ref<!hal.device>
    %__matmul_accumulate_512x128xf16_times_128x512xf16_into_512x512xf16_for_LLVMGPUMatmulTensorCore_32_32_16_64_2_1_memoize_result_0_device_0 = vm.global.load.ref @__matmul_accumulate_512x128xf16_times_128x512xf16_into_512x512xf16_for_LLVMGPUMatmulTensorCore_32_32_16_64_2_1_memoize_result_0_device_0 : !vm.ref<!hal.command_buffer>
    %_utf8_input0_F74E046E5FFA3735 = vm.const.ref.rodata @_utf8_input0_F74E046E5FFA3735 : !vm.buffer
    vm.call.variadic @hal.buffer_view.assert(%arg0, %_utf8_input0_F74E046E5FFA3735, %c553648144, %c1, [%c512, %c128]) : (!vm.ref<!hal.buffer_view>, !vm.buffer, i32, i32, i64 ...)
    %ref = vm.call @hal.buffer_view.buffer(%arg0) {nosideeffects} : (!vm.ref<!hal.buffer_view>) -> !vm.ref<!hal.buffer>
    %ref_2 = vm.call @hal.device.allocator(%__device_0) {nosideeffects} : (!vm.ref<!hal.device>) -> !vm.ref<!hal.allocator>
    %_utf8_tensor_3C6209B4FD120BDC = vm.const.ref.rodata @_utf8_tensor_3C6209B4FD120BDC : !vm.buffer
    vm.call @hal.buffer.assert(%ref, %_utf8_tensor_3C6209B4FD120BDC, %ref_2, %c131072, %c16, %c3075) : (!vm.ref<!hal.buffer>, !vm.buffer, !vm.ref<!hal.allocator>, i64, i32, i32) -> ()
    %_utf8_input1_E2E5222C371315B9 = vm.const.ref.rodata @_utf8_input1_E2E5222C371315B9 : !vm.buffer
    vm.call.variadic @hal.buffer_view.assert(%arg1, %_utf8_input1_E2E5222C371315B9, %c553648144, %c1, [%c128, %c512]) : (!vm.ref<!hal.buffer_view>, !vm.buffer, i32, i32, i64 ...)
    %ref_3 = vm.call @hal.buffer_view.buffer(%arg1) {nosideeffects} : (!vm.ref<!hal.buffer_view>) -> !vm.ref<!hal.buffer>
    vm.call @hal.buffer.assert(%ref_3, %_utf8_tensor_3C6209B4FD120BDC, %ref_2, %c131072, %c16, %c3075) : (!vm.ref<!hal.buffer>, !vm.buffer, !vm.ref<!hal.allocator>, i64, i32, i32) -> ()
    %_utf8_input2_18A68D379CE18F1A = vm.const.ref.rodata @_utf8_input2_18A68D379CE18F1A : !vm.buffer
    vm.call.variadic @hal.buffer_view.assert(%arg2, %_utf8_input2_18A68D379CE18F1A, %c553648144, %c1, [%c512, %c512]) : (!vm.ref<!hal.buffer_view>, !vm.buffer, i32, i32, i64 ...)
    %ref_4 = vm.call @hal.buffer_view.buffer(%arg2) {nosideeffects} : (!vm.ref<!hal.buffer_view>) -> !vm.ref<!hal.buffer>
    vm.call @hal.buffer.assert(%ref_4, %_utf8_tensor_3C6209B4FD120BDC, %ref_2, %c524288, %c16, %c3075) : (!vm.ref<!hal.buffer>, !vm.buffer, !vm.ref<!hal.allocator>, i64, i32, i32) -> ()
    %ref_5 = vm.call @hal.fence.create(%__device_0, %zero) : (!vm.ref<!hal.device>, i32) -> !vm.ref<!hal.fence>
    vm.call.variadic @hal.device.queue.execute.indirect(%__device_0, %c-1, %null, %ref_5, %__matmul_accumulate_512x128xf16_times_128x512xf16_into_512x512xf16_for_LLVMGPUMatmulTensorCore_32_32_16_64_2_1_memoize_result_0_device_0, [(%ref, %zero_0, %c131072), (%ref_3, %zero_0, %c131072), (%ref_4, %zero_0, %c524288)]) : (!vm.ref<!hal.device>, i64, !vm.ref<!hal.fence>, !vm.ref<!hal.fence>, !vm.ref<!hal.command_buffer>, tuple<!vm.ref<!hal.buffer>, i64, i64> ...)
    %0 = vm.call.variadic @hal.fence.await(%c-1_1, [%ref_5]) : (i32, !vm.ref<!hal.fence> ...) -> i32
    vm.cond_br %0, ^bb2, ^bb1
  ^bb1:  // pred: ^bb0
    %ref_6 = vm.call.variadic @hal.buffer_view.create(%ref_4, %zero_0, %c524288, %c553648144, %c1, [%c512, %c512]) {nosideeffects} : (!vm.ref<!hal.buffer>, i64, i64, i32, i32, i64 ...) -> !vm.ref<!hal.buffer_view>
    vm.return %ref_6 : !vm.ref<!hal.buffer_view>
  ^bb2:  // pred: ^bb0
    vm.fail %0, "failed to wait on timepoint"
  }
  vm.export @matmul_accumulate_512x128xf16_times_128x512xf16_into_512x512xf16_for_LLVMGPUMatmulTensorCore_32_32_16_64_2_1 attributes {iree.abi.stub, iree.reflection = {iree.abi.declaration = "sync func @matmul_accumulate_512x128xf16_times_128x512xf16_into_512x512xf16_for_LLVMGPUMatmulTensorCore_32_32_16_64_2_1(%input0: tensor<512x128xf16>, %input1: tensor<128x512xf16>, %input2: tensor<512x512xf16>) -> (%output0: tensor<512x512xf16>)"}}
  vm.export @__init
  vm.func private @__init() {
    %c1 = vm.const.i32 1
    %null = vm.const.ref.zero : !vm.buffer
    %c14 = vm.const.i32 14
    %c-1 = vm.const.i64 -1
    %c18 = vm.const.i32 18
    %zero = vm.const.i32.zero
    %zero_0 = vm.const.i64.zero
    %c1_1 = vm.const.i64 1
    %null_2 = vm.const.ref.zero : !vm.ref<!hal.device>
    %0 = vm.call @hal.devices.count() {nosideeffects} : () -> i32
    %1 = vm.ext.i32.i64.s %0 : i32 -> i64
    vm.br ^bb1(%zero_0, %zero_0, %null_2 : i64, i64, !vm.ref<!hal.device>)
  ^bb1(%2: i64, %3: i64, %4: !vm.ref<!hal.device>):  // 2 preds: ^bb0, ^bb4
    %rnz = vm.cmp.nz.ref %4 : !vm.ref<!hal.device>
    %5 = vm.xor.i32 %rnz, %c1 : i32
    %slt = vm.cmp.lt.i64.s %2, %1 : i64
    %6 = vm.and.i32 %5, %slt : i32
    vm.cond_br %6, ^bb2, ^bb5
  ^bb2:  // pred: ^bb1
    %7 = vm.trunc.i64.i32 %2 : i64 -> i32
    %ref = vm.call @hal.devices.get(%7) {nosideeffects} : (i32) -> !vm.ref<!hal.device>
    %_utf8_hal_device_id_C1DCB7DBC4F49AE6 = vm.const.ref.rodata @_utf8_hal_device_id_C1DCB7DBC4F49AE6 : !vm.buffer
    %_utf8_cuda_EC9D846C9E731CDE = vm.const.ref.rodata @_utf8_cuda_EC9D846C9E731CDE : !vm.buffer
    %8:2 = vm.call @hal.device.query.i64(%ref, %_utf8_hal_device_id_C1DCB7DBC4F49AE6, %_utf8_cuda_EC9D846C9E731CDE) {nosideeffects} : (!vm.ref<!hal.device>, !vm.buffer, !vm.buffer) -> (i32, i64)
    %nz = vm.cmp.nz.i64 %8#1 : i64
    %9 = vm.select.i32 %8#0, %nz, %zero : i32
    vm.cond_br %9, ^bb3, ^bb4(%zero : i32)
  ^bb3:  // pred: ^bb2
    %_utf8_hal_executable_format_EAB228F999C2D3A1 = vm.const.ref.rodata @_utf8_hal_executable_format_EAB228F999C2D3A1 : !vm.buffer
    %_utf8_cuda_nvptx_fb_B15B42B96FDBACC = vm.const.ref.rodata @_utf8_cuda_nvptx_fb_B15B42B96FDBACC : !vm.buffer
    %10:2 = vm.call @hal.device.query.i64(%ref, %_utf8_hal_executable_format_EAB228F999C2D3A1, %_utf8_cuda_nvptx_fb_B15B42B96FDBACC) {nosideeffects} : (!vm.ref<!hal.device>, !vm.buffer, !vm.buffer) -> (i32, i64)
    %nz_3 = vm.cmp.nz.i64 %10#1 : i64
    %11 = vm.select.i32 %10#0, %nz_3, %zero : i32
    vm.br ^bb4(%11 : i32)
  ^bb4(%12: i32):  // 2 preds: ^bb2, ^bb3
    %eq = vm.cmp.eq.i64 %3, %zero_0 : i64
    %13 = vm.select.i64 %12, %c1_1, %zero_0 : i64
    %14 = vm.add.i64 %3, %13 : i64
    %15 = vm.and.i32 %12, %eq : i32
    %ref_4 = vm.select.ref %15, %ref, %null_2 : !vm.ref<!hal.device>
    %16 = vm.add.i64 %2, %c1_1 : i64
    vm.br ^bb1(%16, %14, %ref_4 : i64, i64, !vm.ref<!hal.device>)
  ^bb5:  // pred: ^bb1
    vm.cond_br %5, ^bb6, ^bb7
  ^bb6:  // pred: ^bb5
    vm.fail %c18, "HAL device `__device_0` not found or unavailable: #hal.device.target<\22cuda\22, [#hal.executable.target<\22cuda\22, \22cuda-nvptx-fb\22, {iree.gpu.target = #iree_gpu.target<arch = \22sm_86\22, features = \22+ptx76\22, wgp = <compute =  fp64|fp32|fp16|int64|int32|int16|int8, storage =  b64|b32|b16|b8, subgroup =  shuffle|arithmetic, dot =  dp4xi8toi32, mma = [<WMMA_F32_16x16x16_F16>, <WMMA_F16_16x16x16_F16>], subgroup_size_choices = [32], max_workgroup_sizes = [1024, 1024, 1024], max_thread_count_per_workgroup = 1024, max_workgroup_memory_bytes = 166912, max_workgroup_counts = [2147483647, 65535, 65535]>>}>]>"
  ^bb7:  // pred: ^bb5
    %_utf8_hal_executable_format_EAB228F999C2D3A1_5 = vm.const.ref.rodata @_utf8_hal_executable_format_EAB228F999C2D3A1 : !vm.buffer
    %_utf8_cuda_nvptx_fb_B15B42B96FDBACC_6 = vm.const.ref.rodata @_utf8_cuda_nvptx_fb_B15B42B96FDBACC : !vm.buffer
    %17:2 = vm.call @hal.device.query.i64(%4, %_utf8_hal_executable_format_EAB228F999C2D3A1_5, %_utf8_cuda_nvptx_fb_B15B42B96FDBACC_6) {nosideeffects} : (!vm.ref<!hal.device>, !vm.buffer, !vm.buffer) -> (i32, i64)
    %nz_7 = vm.cmp.nz.i64 %17#1 : i64
    %18 = vm.select.i32 %17#0, %nz_7, %zero : i32
    %19 = vm.select.i64 %18, %zero_0, %c-1 : i64
    %eq_8 = vm.cmp.eq.i64 %19, %zero_0 : i64
    vm.global.store.ref %4, @__device_0 : !vm.ref<!hal.device>
    vm.cond_br %eq_8, ^bb8, ^bb9
  ^bb8:  // pred: ^bb7
    %matmul_accumulate_512x128xf16_times_128x512xf16_into_512x512xf16_for_LLVMGPUMatmulTensorCore_32_32_16_64_2_1_dispatch_0_cuda_nvptx_fb = vm.const.ref.rodata @matmul_accumulate_512x128xf16_times_128x512xf16_into_512x512xf16_for_LLVMGPUMatmulTensorCore_32_32_16_64_2_1_dispatch_0_cuda_nvptx_fb : !vm.buffer
    %ref_9 = vm.call @hal.executable.create(%4, %_utf8_cuda_nvptx_fb_B15B42B96FDBACC_6, %matmul_accumulate_512x128xf16_times_128x512xf16_into_512x512xf16_for_LLVMGPUMatmulTensorCore_32_32_16_64_2_1_dispatch_0_cuda_nvptx_fb, %null) {nosideeffects} : (!vm.ref<!hal.device>, !vm.buffer, !vm.buffer, !vm.buffer) -> !vm.ref<!hal.executable>
    vm.global.store.ref %ref_9, @__device_0_executable_0_matmul_accumulate_512x128xf16_times_128x512xf16_into_512x512xf16_for_LLVMGPUMatmulTensorCore_32_32_16_64_2_1_dispatch_0 : !vm.ref<!hal.executable>
    %ref_10 = vm.call @__matmul_accumulate_512x128xf16_times_128x512xf16_into_512x512xf16_for_LLVMGPUMatmulTensorCore_32_32_16_64_2_1_memoize_apply() : () -> !vm.ref<!hal.command_buffer>
    vm.global.store.ref %ref_10, @__matmul_accumulate_512x128xf16_times_128x512xf16_into_512x512xf16_for_LLVMGPUMatmulTensorCore_32_32_16_64_2_1_memoize_result_0_device_0 : !vm.ref<!hal.command_buffer>
    vm.return
  ^bb9:  // pred: ^bb7
    vm.fail %c14, "HAL device `__device_0` does not support any variant of executable `matmul_accumulate_512x128xf16_times_128x512xf16_into_512x512xf16_for_LLVMGPUMatmulTensorCore_32_32_16_64_2_1_dispatch_0`; available formats: [cuda-nvptx-fb]"
  }
}

// -----// IR Dump After DropCompilerHints (iree-util-drop-compiler-hints) //----- //
vm.module public @module {
  vm.global.ref private mutable @__device_0 : !vm.ref<!hal.device>
  vm.rodata private @_utf8_hal_device_id_C1DCB7DBC4F49AE6 {alignment = 1 : i64} "hal.device.id"
  vm.rodata private @_utf8_cuda_EC9D846C9E731CDE {alignment = 1 : i64} "cuda"
  vm.rodata private @_utf8_hal_executable_format_EAB228F999C2D3A1 {alignment = 1 : i64} "hal.executable.format"
  vm.rodata private @_utf8_cuda_nvptx_fb_B15B42B96FDBACC {alignment = 1 : i64} "cuda-nvptx-fb"
  vm.rodata private @matmul_accumulate_512x128xf16_times_128x512xf16_into_512x512xf16_for_LLVMGPUMatmulTensorCore_32_32_16_64_2_1_dispatch_0_cuda_nvptx_fb {alignment = 16 : i64} dense_resource<__elided__> : vector<7136xi8>
  vm.global.ref private mutable @__device_0_executable_0_matmul_accumulate_512x128xf16_times_128x512xf16_into_512x512xf16_for_LLVMGPUMatmulTensorCore_32_32_16_64_2_1_dispatch_0 : !vm.ref<!hal.executable>
  vm.func private @__matmul_accumulate_512x128xf16_times_128x512xf16_into_512x512xf16_for_LLVMGPUMatmulTensorCore_32_32_16_64_2_1_memoize_apply() -> !vm.ref<!hal.command_buffer> attributes {inlining_policy = #util.inline.never} {
    %c13 = vm.const.i32 13
    %c28 = vm.const.i32 28
    %c2 = vm.const.i32 2
    %null = vm.const.ref.zero : !vm.ref<!hal.buffer>
    %c1 = vm.const.i32 1
    %c16 = vm.const.i32 16
    %c3 = vm.const.i32 3
    %zero = vm.const.i32.zero
    %c524288 = vm.const.i64 524288
    %c131072 = vm.const.i64 131072
    %zero_0 = vm.const.i64.zero
    %c-1 = vm.const.i64 -1
    %__device_0 = vm.global.load.ref @__device_0 : !vm.ref<!hal.device>
    %__device_0_executable_0_matmul_accumulate_512x128xf16_times_128x512xf16_into_512x512xf16_for_LLVMGPUMatmulTensorCore_32_32_16_64_2_1_dispatch_0 = vm.global.load.ref @__device_0_executable_0_matmul_accumulate_512x128xf16_times_128x512xf16_into_512x512xf16_for_LLVMGPUMatmulTensorCore_32_32_16_64_2_1_dispatch_0 : !vm.ref<!hal.executable>
    %ref = vm.call @hal.command_buffer.create(%__device_0, %zero, %c3, %c-1, %c3) : (!vm.ref<!hal.device>, i32, i32, i64, i32) -> !vm.ref<!hal.command_buffer>
    vm.call.variadic @hal.command_buffer.dispatch(%ref, %__device_0_executable_0_matmul_accumulate_512x128xf16_times_128x512xf16_into_512x512xf16_for_LLVMGPUMatmulTensorCore_32_32_16_64_2_1_dispatch_0, %zero, %c16, %c16, %c1, %zero_0, [], [(%zero, %zero, %null, %zero_0, %c131072), (%zero, %c1, %null, %zero_0, %c131072), (%zero, %c2, %null, %zero_0, %c524288)]) : (!vm.ref<!hal.command_buffer>, !vm.ref<!hal.executable>, i32, i32, i32, i32, i64, i32 ..., tuple<i32, i32, !vm.ref<!hal.buffer>, i64, i64> ...)
    vm.call @hal.command_buffer.execution_barrier(%ref, %c28, %c13, %zero) : (!vm.ref<!hal.command_buffer>, i32, i32, i32) -> ()
    vm.call @hal.command_buffer.finalize(%ref) : (!vm.ref<!hal.command_buffer>) -> ()
    vm.return %ref : !vm.ref<!hal.command_buffer>
  }
  vm.global.ref private mutable @__matmul_accumulate_512x128xf16_times_128x512xf16_into_512x512xf16_for_LLVMGPUMatmulTensorCore_32_32_16_64_2_1_memoize_result_0_device_0 : !vm.ref<!hal.command_buffer>
  vm.import private @hal.buffer.assert(%buffer : !vm.ref<!hal.buffer>, %message : !vm.buffer, %allocator : !vm.ref<!hal.allocator>, %minimum_length : i64, %memory_types : i32, %buffer_usage : i32)
  vm.import private @hal.buffer_view.create(%buffer : !vm.ref<!hal.buffer>, %source_offset : i64, %source_length : i64, %element_type : i32, %encoding_type : i32, %shape : i64 ...) -> !vm.ref<!hal.buffer_view> attributes {nosideeffects}
  vm.import private @hal.buffer_view.assert(%buffer_view : !vm.ref<!hal.buffer_view>, %message : !vm.buffer, %element_type : i32, %encoding_type : i32, %shape : i64 ...)
  vm.import private @hal.buffer_view.buffer(%buffer_view : !vm.ref<!hal.buffer_view>) -> !vm.ref<!hal.buffer> attributes {nosideeffects}
  vm.import private @hal.command_buffer.create(%device : !vm.ref<!hal.device>, %modes : i32, %command_categories : i32, %queue_affinity : i64, %binding_capacity : i32) -> !vm.ref<!hal.command_buffer> attributes {minimum_version = 5 : i32}
  vm.import private @hal.command_buffer.finalize(%command_buffer : !vm.ref<!hal.command_buffer>)
  vm.import private @hal.command_buffer.execution_barrier(%command_buffer : !vm.ref<!hal.command_buffer>, %source_stage_mask : i32, %target_stage_mask : i32, %flags : i32)
  vm.import private @hal.command_buffer.dispatch(%command_buffer : !vm.ref<!hal.command_buffer>, %executable : !vm.ref<!hal.executable>, %entry_point : i32, %workgroup_x : i32, %workgroup_y : i32, %workgroup_z : i32, %flags : i64, %constants : i32 ..., %bindings : tuple<i32, i32, !vm.ref<!hal.buffer>, i64, i64> ...)
  vm.import private @hal.device.allocator(%device : !vm.ref<!hal.device>) -> !vm.ref<!hal.allocator> attributes {nosideeffects}
  vm.import private @hal.device.query.i64(%device : !vm.ref<!hal.device>, %category : !vm.buffer, %key : !vm.buffer) -> (i32, i64) attributes {nosideeffects}
  vm.import private @hal.device.queue.execute.indirect(%device : !vm.ref<!hal.device>, %queue_affinity : i64, %wait_fence : !vm.ref<!hal.fence>, %signal_fence : !vm.ref<!hal.fence>, %command_buffer : !vm.ref<!hal.command_buffer>, %binding_table : tuple<!vm.ref<!hal.buffer>, i64, i64> ...)
  vm.import private @hal.devices.count() -> i32 attributes {nosideeffects}
  vm.import private @hal.devices.get(%index : i32) -> !vm.ref<!hal.device> attributes {nosideeffects}
  vm.import private @hal.executable.create(%device : !vm.ref<!hal.device>, %executable_format : !vm.buffer, %executable_data : !vm.buffer, %constants : !vm.buffer) -> !vm.ref<!hal.executable> attributes {nosideeffects}
  vm.import private @hal.fence.create(%device : !vm.ref<!hal.device>, %flags : i32) -> !vm.ref<!hal.fence>
  vm.import private @hal.fence.await(%timeout_millis : i32, %fences : !vm.ref<!hal.fence> ...) -> i32 attributes {vm.yield}
  vm.rodata private @_utf8_input0_F74E046E5FFA3735 {alignment = 1 : i64} "input0"
  vm.rodata private @_utf8_tensor_3C6209B4FD120BDC {alignment = 1 : i64} "tensor"
  vm.rodata private @_utf8_input1_E2E5222C371315B9 {alignment = 1 : i64} "input1"
  vm.rodata private @_utf8_input2_18A68D379CE18F1A {alignment = 1 : i64} "input2"
  vm.func private @matmul_accumulate_512x128xf16_times_128x512xf16_into_512x512xf16_for_LLVMGPUMatmulTensorCore_32_32_16_64_2_1(%arg0: !vm.ref<!hal.buffer_view>, %arg1: !vm.ref<!hal.buffer_view>, %arg2: !vm.ref<!hal.buffer_view>) -> !vm.ref<!hal.buffer_view> attributes {iree.reflection = {iree.abi.declaration = "sync func @matmul_accumulate_512x128xf16_times_128x512xf16_into_512x512xf16_for_LLVMGPUMatmulTensorCore_32_32_16_64_2_1(%input0: tensor<512x128xf16>, %input1: tensor<128x512xf16>, %input2: tensor<512x512xf16>) -> (%output0: tensor<512x512xf16>)"}} {
    %zero = vm.const.i32.zero
    %c3075 = vm.const.i32 3075
    %c16 = vm.const.i32 16
    %c1 = vm.const.i32 1
    %c553648144 = vm.const.i32 553648144
    %c512 = vm.const.i64 512
    %c128 = vm.const.i64 128
    %zero_0 = vm.const.i64.zero
    %c131072 = vm.const.i64 131072
    %c524288 = vm.const.i64 524288
    %c-1 = vm.const.i64 -1
    %null = vm.const.ref.zero : !vm.ref<!hal.fence>
    %c-1_1 = vm.const.i32 -1
    %__device_0 = vm.global.load.ref @__device_0 : !vm.ref<!hal.device>
    %__matmul_accumulate_512x128xf16_times_128x512xf16_into_512x512xf16_for_LLVMGPUMatmulTensorCore_32_32_16_64_2_1_memoize_result_0_device_0 = vm.global.load.ref @__matmul_accumulate_512x128xf16_times_128x512xf16_into_512x512xf16_for_LLVMGPUMatmulTensorCore_32_32_16_64_2_1_memoize_result_0_device_0 : !vm.ref<!hal.command_buffer>
    %_utf8_input0_F74E046E5FFA3735 = vm.const.ref.rodata @_utf8_input0_F74E046E5FFA3735 : !vm.buffer
    vm.call.variadic @hal.buffer_view.assert(%arg0, %_utf8_input0_F74E046E5FFA3735, %c553648144, %c1, [%c512, %c128]) : (!vm.ref<!hal.buffer_view>, !vm.buffer, i32, i32, i64 ...)
    %ref = vm.call @hal.buffer_view.buffer(%arg0) {nosideeffects} : (!vm.ref<!hal.buffer_view>) -> !vm.ref<!hal.buffer>
    %ref_2 = vm.call @hal.device.allocator(%__device_0) {nosideeffects} : (!vm.ref<!hal.device>) -> !vm.ref<!hal.allocator>
    %_utf8_tensor_3C6209B4FD120BDC = vm.const.ref.rodata @_utf8_tensor_3C6209B4FD120BDC : !vm.buffer
    vm.call @hal.buffer.assert(%ref, %_utf8_tensor_3C6209B4FD120BDC, %ref_2, %c131072, %c16, %c3075) : (!vm.ref<!hal.buffer>, !vm.buffer, !vm.ref<!hal.allocator>, i64, i32, i32) -> ()
    %_utf8_input1_E2E5222C371315B9 = vm.const.ref.rodata @_utf8_input1_E2E5222C371315B9 : !vm.buffer
    vm.call.variadic @hal.buffer_view.assert(%arg1, %_utf8_input1_E2E5222C371315B9, %c553648144, %c1, [%c128, %c512]) : (!vm.ref<!hal.buffer_view>, !vm.buffer, i32, i32, i64 ...)
    %ref_3 = vm.call @hal.buffer_view.buffer(%arg1) {nosideeffects} : (!vm.ref<!hal.buffer_view>) -> !vm.ref<!hal.buffer>
    vm.call @hal.buffer.assert(%ref_3, %_utf8_tensor_3C6209B4FD120BDC, %ref_2, %c131072, %c16, %c3075) : (!vm.ref<!hal.buffer>, !vm.buffer, !vm.ref<!hal.allocator>, i64, i32, i32) -> ()
    %_utf8_input2_18A68D379CE18F1A = vm.const.ref.rodata @_utf8_input2_18A68D379CE18F1A : !vm.buffer
    vm.call.variadic @hal.buffer_view.assert(%arg2, %_utf8_input2_18A68D379CE18F1A, %c553648144, %c1, [%c512, %c512]) : (!vm.ref<!hal.buffer_view>, !vm.buffer, i32, i32, i64 ...)
    %ref_4 = vm.call @hal.buffer_view.buffer(%arg2) {nosideeffects} : (!vm.ref<!hal.buffer_view>) -> !vm.ref<!hal.buffer>
    vm.call @hal.buffer.assert(%ref_4, %_utf8_tensor_3C6209B4FD120BDC, %ref_2, %c524288, %c16, %c3075) : (!vm.ref<!hal.buffer>, !vm.buffer, !vm.ref<!hal.allocator>, i64, i32, i32) -> ()
    %ref_5 = vm.call @hal.fence.create(%__device_0, %zero) : (!vm.ref<!hal.device>, i32) -> !vm.ref<!hal.fence>
    vm.call.variadic @hal.device.queue.execute.indirect(%__device_0, %c-1, %null, %ref_5, %__matmul_accumulate_512x128xf16_times_128x512xf16_into_512x512xf16_for_LLVMGPUMatmulTensorCore_32_32_16_64_2_1_memoize_result_0_device_0, [(%ref, %zero_0, %c131072), (%ref_3, %zero_0, %c131072), (%ref_4, %zero_0, %c524288)]) : (!vm.ref<!hal.device>, i64, !vm.ref<!hal.fence>, !vm.ref<!hal.fence>, !vm.ref<!hal.command_buffer>, tuple<!vm.ref<!hal.buffer>, i64, i64> ...)
    %0 = vm.call.variadic @hal.fence.await(%c-1_1, [%ref_5]) : (i32, !vm.ref<!hal.fence> ...) -> i32
    vm.cond_br %0, ^bb2, ^bb1
  ^bb1:  // pred: ^bb0
    %ref_6 = vm.call.variadic @hal.buffer_view.create(%ref_4, %zero_0, %c524288, %c553648144, %c1, [%c512, %c512]) {nosideeffects} : (!vm.ref<!hal.buffer>, i64, i64, i32, i32, i64 ...) -> !vm.ref<!hal.buffer_view>
    vm.return %ref_6 : !vm.ref<!hal.buffer_view>
  ^bb2:  // pred: ^bb0
    vm.fail %0, "failed to wait on timepoint"
  }
  vm.export @matmul_accumulate_512x128xf16_times_128x512xf16_into_512x512xf16_for_LLVMGPUMatmulTensorCore_32_32_16_64_2_1 attributes {iree.abi.stub, iree.reflection = {iree.abi.declaration = "sync func @matmul_accumulate_512x128xf16_times_128x512xf16_into_512x512xf16_for_LLVMGPUMatmulTensorCore_32_32_16_64_2_1(%input0: tensor<512x128xf16>, %input1: tensor<128x512xf16>, %input2: tensor<512x512xf16>) -> (%output0: tensor<512x512xf16>)"}}
  vm.export @__init
  vm.func private @__init() {
    %c1 = vm.const.i32 1
    %null = vm.const.ref.zero : !vm.buffer
    %c14 = vm.const.i32 14
    %c-1 = vm.const.i64 -1
    %c18 = vm.const.i32 18
    %zero = vm.const.i32.zero
    %zero_0 = vm.const.i64.zero
    %c1_1 = vm.const.i64 1
    %null_2 = vm.const.ref.zero : !vm.ref<!hal.device>
    %0 = vm.call @hal.devices.count() {nosideeffects} : () -> i32
    %1 = vm.ext.i32.i64.s %0 : i32 -> i64
    vm.br ^bb1(%zero_0, %zero_0, %null_2 : i64, i64, !vm.ref<!hal.device>)
  ^bb1(%2: i64, %3: i64, %4: !vm.ref<!hal.device>):  // 2 preds: ^bb0, ^bb4
    %rnz = vm.cmp.nz.ref %4 : !vm.ref<!hal.device>
    %5 = vm.xor.i32 %rnz, %c1 : i32
    %slt = vm.cmp.lt.i64.s %2, %1 : i64
    %6 = vm.and.i32 %5, %slt : i32
    vm.cond_br %6, ^bb2, ^bb5
  ^bb2:  // pred: ^bb1
    %7 = vm.trunc.i64.i32 %2 : i64 -> i32
    %ref = vm.call @hal.devices.get(%7) {nosideeffects} : (i32) -> !vm.ref<!hal.device>
    %_utf8_hal_device_id_C1DCB7DBC4F49AE6 = vm.const.ref.rodata @_utf8_hal_device_id_C1DCB7DBC4F49AE6 : !vm.buffer
    %_utf8_cuda_EC9D846C9E731CDE = vm.const.ref.rodata @_utf8_cuda_EC9D846C9E731CDE : !vm.buffer
    %8:2 = vm.call @hal.device.query.i64(%ref, %_utf8_hal_device_id_C1DCB7DBC4F49AE6, %_utf8_cuda_EC9D846C9E731CDE) {nosideeffects} : (!vm.ref<!hal.device>, !vm.buffer, !vm.buffer) -> (i32, i64)
    %nz = vm.cmp.nz.i64 %8#1 : i64
    %9 = vm.select.i32 %8#0, %nz, %zero : i32
    vm.cond_br %9, ^bb3, ^bb4(%zero : i32)
  ^bb3:  // pred: ^bb2
    %_utf8_hal_executable_format_EAB228F999C2D3A1 = vm.const.ref.rodata @_utf8_hal_executable_format_EAB228F999C2D3A1 : !vm.buffer
    %_utf8_cuda_nvptx_fb_B15B42B96FDBACC = vm.const.ref.rodata @_utf8_cuda_nvptx_fb_B15B42B96FDBACC : !vm.buffer
    %10:2 = vm.call @hal.device.query.i64(%ref, %_utf8_hal_executable_format_EAB228F999C2D3A1, %_utf8_cuda_nvptx_fb_B15B42B96FDBACC) {nosideeffects} : (!vm.ref<!hal.device>, !vm.buffer, !vm.buffer) -> (i32, i64)
    %nz_3 = vm.cmp.nz.i64 %10#1 : i64
    %11 = vm.select.i32 %10#0, %nz_3, %zero : i32
    vm.br ^bb4(%11 : i32)
  ^bb4(%12: i32):  // 2 preds: ^bb2, ^bb3
    %eq = vm.cmp.eq.i64 %3, %zero_0 : i64
    %13 = vm.select.i64 %12, %c1_1, %zero_0 : i64
    %14 = vm.add.i64 %3, %13 : i64
    %15 = vm.and.i32 %12, %eq : i32
    %ref_4 = vm.select.ref %15, %ref, %null_2 : !vm.ref<!hal.device>
    %16 = vm.add.i64 %2, %c1_1 : i64
    vm.br ^bb1(%16, %14, %ref_4 : i64, i64, !vm.ref<!hal.device>)
  ^bb5:  // pred: ^bb1
    vm.cond_br %5, ^bb6, ^bb7
  ^bb6:  // pred: ^bb5
    vm.fail %c18, "HAL device `__device_0` not found or unavailable: #hal.device.target<\22cuda\22, [#hal.executable.target<\22cuda\22, \22cuda-nvptx-fb\22, {iree.gpu.target = #iree_gpu.target<arch = \22sm_86\22, features = \22+ptx76\22, wgp = <compute =  fp64|fp32|fp16|int64|int32|int16|int8, storage =  b64|b32|b16|b8, subgroup =  shuffle|arithmetic, dot =  dp4xi8toi32, mma = [<WMMA_F32_16x16x16_F16>, <WMMA_F16_16x16x16_F16>], subgroup_size_choices = [32], max_workgroup_sizes = [1024, 1024, 1024], max_thread_count_per_workgroup = 1024, max_workgroup_memory_bytes = 166912, max_workgroup_counts = [2147483647, 65535, 65535]>>}>]>"
  ^bb7:  // pred: ^bb5
    %_utf8_hal_executable_format_EAB228F999C2D3A1_5 = vm.const.ref.rodata @_utf8_hal_executable_format_EAB228F999C2D3A1 : !vm.buffer
    %_utf8_cuda_nvptx_fb_B15B42B96FDBACC_6 = vm.const.ref.rodata @_utf8_cuda_nvptx_fb_B15B42B96FDBACC : !vm.buffer
    %17:2 = vm.call @hal.device.query.i64(%4, %_utf8_hal_executable_format_EAB228F999C2D3A1_5, %_utf8_cuda_nvptx_fb_B15B42B96FDBACC_6) {nosideeffects} : (!vm.ref<!hal.device>, !vm.buffer, !vm.buffer) -> (i32, i64)
    %nz_7 = vm.cmp.nz.i64 %17#1 : i64
    %18 = vm.select.i32 %17#0, %nz_7, %zero : i32
    %19 = vm.select.i64 %18, %zero_0, %c-1 : i64
    %eq_8 = vm.cmp.eq.i64 %19, %zero_0 : i64
    vm.global.store.ref %4, @__device_0 : !vm.ref<!hal.device>
    vm.cond_br %eq_8, ^bb8, ^bb9
  ^bb8:  // pred: ^bb7
    %matmul_accumulate_512x128xf16_times_128x512xf16_into_512x512xf16_for_LLVMGPUMatmulTensorCore_32_32_16_64_2_1_dispatch_0_cuda_nvptx_fb = vm.const.ref.rodata @matmul_accumulate_512x128xf16_times_128x512xf16_into_512x512xf16_for_LLVMGPUMatmulTensorCore_32_32_16_64_2_1_dispatch_0_cuda_nvptx_fb : !vm.buffer
    %ref_9 = vm.call @hal.executable.create(%4, %_utf8_cuda_nvptx_fb_B15B42B96FDBACC_6, %matmul_accumulate_512x128xf16_times_128x512xf16_into_512x512xf16_for_LLVMGPUMatmulTensorCore_32_32_16_64_2_1_dispatch_0_cuda_nvptx_fb, %null) {nosideeffects} : (!vm.ref<!hal.device>, !vm.buffer, !vm.buffer, !vm.buffer) -> !vm.ref<!hal.executable>
    vm.global.store.ref %ref_9, @__device_0_executable_0_matmul_accumulate_512x128xf16_times_128x512xf16_into_512x512xf16_for_LLVMGPUMatmulTensorCore_32_32_16_64_2_1_dispatch_0 : !vm.ref<!hal.executable>
    %ref_10 = vm.call @__matmul_accumulate_512x128xf16_times_128x512xf16_into_512x512xf16_for_LLVMGPUMatmulTensorCore_32_32_16_64_2_1_memoize_apply() : () -> !vm.ref<!hal.command_buffer>
    vm.global.store.ref %ref_10, @__matmul_accumulate_512x128xf16_times_128x512xf16_into_512x512xf16_for_LLVMGPUMatmulTensorCore_32_32_16_64_2_1_memoize_result_0_device_0 : !vm.ref<!hal.command_buffer>
    vm.return
  ^bb9:  // pred: ^bb7
    vm.fail %c14, "HAL device `__device_0` does not support any variant of executable `matmul_accumulate_512x128xf16_times_128x512xf16_into_512x512xf16_for_LLVMGPUMatmulTensorCore_32_32_16_64_2_1_dispatch_0`; available formats: [cuda-nvptx-fb]"
  }
}

// -----// IR Dump After mlir::iree_compiler::IREE::VM::OrdinalAllocationPass (iree-vm-ordinal-allocation) //----- //
vm.module public @module attributes {ordinal_counts = #vm.ordinal_counts<import_funcs = 16, export_funcs = 2, internal_funcs = 3, global_bytes = 0, global_refs = 3, rodatas = 9, rwdatas = 0>} {
  vm.global.ref private mutable @__device_0 {ordinal = 0 : i32} : !vm.ref<!hal.device>
  vm.rodata private @_utf8_hal_device_id_C1DCB7DBC4F49AE6 {alignment = 1 : i64, ordinal = 0 : i32} "hal.device.id"
  vm.rodata private @_utf8_cuda_EC9D846C9E731CDE {alignment = 1 : i64, ordinal = 1 : i32} "cuda"
  vm.rodata private @_utf8_hal_executable_format_EAB228F999C2D3A1 {alignment = 1 : i64, ordinal = 2 : i32} "hal.executable.format"
  vm.rodata private @_utf8_cuda_nvptx_fb_B15B42B96FDBACC {alignment = 1 : i64, ordinal = 3 : i32} "cuda-nvptx-fb"
  vm.rodata private @matmul_accumulate_512x128xf16_times_128x512xf16_into_512x512xf16_for_LLVMGPUMatmulTensorCore_32_32_16_64_2_1_dispatch_0_cuda_nvptx_fb {alignment = 16 : i64, ordinal = 4 : i32} dense_resource<__elided__> : vector<7136xi8>
  vm.global.ref private mutable @__device_0_executable_0_matmul_accumulate_512x128xf16_times_128x512xf16_into_512x512xf16_for_LLVMGPUMatmulTensorCore_32_32_16_64_2_1_dispatch_0 {ordinal = 1 : i32} : !vm.ref<!hal.executable>
  vm.func private @__matmul_accumulate_512x128xf16_times_128x512xf16_into_512x512xf16_for_LLVMGPUMatmulTensorCore_32_32_16_64_2_1_memoize_apply() -> !vm.ref<!hal.command_buffer> attributes {inlining_policy = #util.inline.never, ordinal = 0 : i32} {
    %c13 = vm.const.i32 13
    %c28 = vm.const.i32 28
    %c2 = vm.const.i32 2
    %null = vm.const.ref.zero : !vm.ref<!hal.buffer>
    %c1 = vm.const.i32 1
    %c16 = vm.const.i32 16
    %c3 = vm.const.i32 3
    %zero = vm.const.i32.zero
    %c524288 = vm.const.i64 524288
    %c131072 = vm.const.i64 131072
    %zero_0 = vm.const.i64.zero
    %c-1 = vm.const.i64 -1
    %__device_0 = vm.global.load.ref @__device_0 : !vm.ref<!hal.device>
    %__device_0_executable_0_matmul_accumulate_512x128xf16_times_128x512xf16_into_512x512xf16_for_LLVMGPUMatmulTensorCore_32_32_16_64_2_1_dispatch_0 = vm.global.load.ref @__device_0_executable_0_matmul_accumulate_512x128xf16_times_128x512xf16_into_512x512xf16_for_LLVMGPUMatmulTensorCore_32_32_16_64_2_1_dispatch_0 : !vm.ref<!hal.executable>
    %ref = vm.call @hal.command_buffer.create(%__device_0, %zero, %c3, %c-1, %c3) : (!vm.ref<!hal.device>, i32, i32, i64, i32) -> !vm.ref<!hal.command_buffer>
    vm.call.variadic @hal.command_buffer.dispatch(%ref, %__device_0_executable_0_matmul_accumulate_512x128xf16_times_128x512xf16_into_512x512xf16_for_LLVMGPUMatmulTensorCore_32_32_16_64_2_1_dispatch_0, %zero, %c16, %c16, %c1, %zero_0, [], [(%zero, %zero, %null, %zero_0, %c131072), (%zero, %c1, %null, %zero_0, %c131072), (%zero, %c2, %null, %zero_0, %c524288)]) : (!vm.ref<!hal.command_buffer>, !vm.ref<!hal.executable>, i32, i32, i32, i32, i64, i32 ..., tuple<i32, i32, !vm.ref<!hal.buffer>, i64, i64> ...)
    vm.call @hal.command_buffer.execution_barrier(%ref, %c28, %c13, %zero) : (!vm.ref<!hal.command_buffer>, i32, i32, i32) -> ()
    vm.call @hal.command_buffer.finalize(%ref) : (!vm.ref<!hal.command_buffer>) -> ()
    vm.return %ref : !vm.ref<!hal.command_buffer>
  }
  vm.global.ref private mutable @__matmul_accumulate_512x128xf16_times_128x512xf16_into_512x512xf16_for_LLVMGPUMatmulTensorCore_32_32_16_64_2_1_memoize_result_0_device_0 {ordinal = 2 : i32} : !vm.ref<!hal.command_buffer>
  vm.import private @hal.buffer.assert(%buffer : !vm.ref<!hal.buffer>, %message : !vm.buffer, %allocator : !vm.ref<!hal.allocator>, %minimum_length : i64, %memory_types : i32, %buffer_usage : i32) attributes {ordinal = 0 : i32}
  vm.import private @hal.buffer_view.create(%buffer : !vm.ref<!hal.buffer>, %source_offset : i64, %source_length : i64, %element_type : i32, %encoding_type : i32, %shape : i64 ...) -> !vm.ref<!hal.buffer_view> attributes {nosideeffects, ordinal = 1 : i32}
  vm.import private @hal.buffer_view.assert(%buffer_view : !vm.ref<!hal.buffer_view>, %message : !vm.buffer, %element_type : i32, %encoding_type : i32, %shape : i64 ...) attributes {ordinal = 2 : i32}
  vm.import private @hal.buffer_view.buffer(%buffer_view : !vm.ref<!hal.buffer_view>) -> !vm.ref<!hal.buffer> attributes {nosideeffects, ordinal = 3 : i32}
  vm.import private @hal.command_buffer.create(%device : !vm.ref<!hal.device>, %modes : i32, %command_categories : i32, %queue_affinity : i64, %binding_capacity : i32) -> !vm.ref<!hal.command_buffer> attributes {minimum_version = 5 : i32, ordinal = 4 : i32}
  vm.import private @hal.command_buffer.finalize(%command_buffer : !vm.ref<!hal.command_buffer>) attributes {ordinal = 5 : i32}
  vm.import private @hal.command_buffer.execution_barrier(%command_buffer : !vm.ref<!hal.command_buffer>, %source_stage_mask : i32, %target_stage_mask : i32, %flags : i32) attributes {ordinal = 6 : i32}
  vm.import private @hal.command_buffer.dispatch(%command_buffer : !vm.ref<!hal.command_buffer>, %executable : !vm.ref<!hal.executable>, %entry_point : i32, %workgroup_x : i32, %workgroup_y : i32, %workgroup_z : i32, %flags : i64, %constants : i32 ..., %bindings : tuple<i32, i32, !vm.ref<!hal.buffer>, i64, i64> ...) attributes {ordinal = 7 : i32}
  vm.import private @hal.device.allocator(%device : !vm.ref<!hal.device>) -> !vm.ref<!hal.allocator> attributes {nosideeffects, ordinal = 8 : i32}
  vm.import private @hal.device.query.i64(%device : !vm.ref<!hal.device>, %category : !vm.buffer, %key : !vm.buffer) -> (i32, i64) attributes {nosideeffects, ordinal = 9 : i32}
  vm.import private @hal.device.queue.execute.indirect(%device : !vm.ref<!hal.device>, %queue_affinity : i64, %wait_fence : !vm.ref<!hal.fence>, %signal_fence : !vm.ref<!hal.fence>, %command_buffer : !vm.ref<!hal.command_buffer>, %binding_table : tuple<!vm.ref<!hal.buffer>, i64, i64> ...) attributes {ordinal = 10 : i32}
  vm.import private @hal.devices.count() -> i32 attributes {nosideeffects, ordinal = 11 : i32}
  vm.import private @hal.devices.get(%index : i32) -> !vm.ref<!hal.device> attributes {nosideeffects, ordinal = 12 : i32}
  vm.import private @hal.executable.create(%device : !vm.ref<!hal.device>, %executable_format : !vm.buffer, %executable_data : !vm.buffer, %constants : !vm.buffer) -> !vm.ref<!hal.executable> attributes {nosideeffects, ordinal = 13 : i32}
  vm.import private @hal.fence.create(%device : !vm.ref<!hal.device>, %flags : i32) -> !vm.ref<!hal.fence> attributes {ordinal = 14 : i32}
  vm.import private @hal.fence.await(%timeout_millis : i32, %fences : !vm.ref<!hal.fence> ...) -> i32 attributes {ordinal = 15 : i32, vm.yield}
  vm.rodata private @_utf8_input0_F74E046E5FFA3735 {alignment = 1 : i64, ordinal = 5 : i32} "input0"
  vm.rodata private @_utf8_tensor_3C6209B4FD120BDC {alignment = 1 : i64, ordinal = 6 : i32} "tensor"
  vm.rodata private @_utf8_input1_E2E5222C371315B9 {alignment = 1 : i64, ordinal = 7 : i32} "input1"
  vm.rodata private @_utf8_input2_18A68D379CE18F1A {alignment = 1 : i64, ordinal = 8 : i32} "input2"
  vm.func private @matmul_accumulate_512x128xf16_times_128x512xf16_into_512x512xf16_for_LLVMGPUMatmulTensorCore_32_32_16_64_2_1(%arg0: !vm.ref<!hal.buffer_view>, %arg1: !vm.ref<!hal.buffer_view>, %arg2: !vm.ref<!hal.buffer_view>) -> !vm.ref<!hal.buffer_view> attributes {iree.reflection = {iree.abi.declaration = "sync func @matmul_accumulate_512x128xf16_times_128x512xf16_into_512x512xf16_for_LLVMGPUMatmulTensorCore_32_32_16_64_2_1(%input0: tensor<512x128xf16>, %input1: tensor<128x512xf16>, %input2: tensor<512x512xf16>) -> (%output0: tensor<512x512xf16>)"}, ordinal = 1 : i32} {
    %zero = vm.const.i32.zero
    %c3075 = vm.const.i32 3075
    %c16 = vm.const.i32 16
    %c1 = vm.const.i32 1
    %c553648144 = vm.const.i32 553648144
    %c512 = vm.const.i64 512
    %c128 = vm.const.i64 128
    %zero_0 = vm.const.i64.zero
    %c131072 = vm.const.i64 131072
    %c524288 = vm.const.i64 524288
    %c-1 = vm.const.i64 -1
    %null = vm.const.ref.zero : !vm.ref<!hal.fence>
    %c-1_1 = vm.const.i32 -1
    %__device_0 = vm.global.load.ref @__device_0 : !vm.ref<!hal.device>
    %__matmul_accumulate_512x128xf16_times_128x512xf16_into_512x512xf16_for_LLVMGPUMatmulTensorCore_32_32_16_64_2_1_memoize_result_0_device_0 = vm.global.load.ref @__matmul_accumulate_512x128xf16_times_128x512xf16_into_512x512xf16_for_LLVMGPUMatmulTensorCore_32_32_16_64_2_1_memoize_result_0_device_0 : !vm.ref<!hal.command_buffer>
    %_utf8_input0_F74E046E5FFA3735 = vm.const.ref.rodata @_utf8_input0_F74E046E5FFA3735 : !vm.buffer
    vm.call.variadic @hal.buffer_view.assert(%arg0, %_utf8_input0_F74E046E5FFA3735, %c553648144, %c1, [%c512, %c128]) : (!vm.ref<!hal.buffer_view>, !vm.buffer, i32, i32, i64 ...)
    %ref = vm.call @hal.buffer_view.buffer(%arg0) {nosideeffects} : (!vm.ref<!hal.buffer_view>) -> !vm.ref<!hal.buffer>
    %ref_2 = vm.call @hal.device.allocator(%__device_0) {nosideeffects} : (!vm.ref<!hal.device>) -> !vm.ref<!hal.allocator>
    %_utf8_tensor_3C6209B4FD120BDC = vm.const.ref.rodata @_utf8_tensor_3C6209B4FD120BDC : !vm.buffer
    vm.call @hal.buffer.assert(%ref, %_utf8_tensor_3C6209B4FD120BDC, %ref_2, %c131072, %c16, %c3075) : (!vm.ref<!hal.buffer>, !vm.buffer, !vm.ref<!hal.allocator>, i64, i32, i32) -> ()
    %_utf8_input1_E2E5222C371315B9 = vm.const.ref.rodata @_utf8_input1_E2E5222C371315B9 : !vm.buffer
    vm.call.variadic @hal.buffer_view.assert(%arg1, %_utf8_input1_E2E5222C371315B9, %c553648144, %c1, [%c128, %c512]) : (!vm.ref<!hal.buffer_view>, !vm.buffer, i32, i32, i64 ...)
    %ref_3 = vm.call @hal.buffer_view.buffer(%arg1) {nosideeffects} : (!vm.ref<!hal.buffer_view>) -> !vm.ref<!hal.buffer>
    vm.call @hal.buffer.assert(%ref_3, %_utf8_tensor_3C6209B4FD120BDC, %ref_2, %c131072, %c16, %c3075) : (!vm.ref<!hal.buffer>, !vm.buffer, !vm.ref<!hal.allocator>, i64, i32, i32) -> ()
    %_utf8_input2_18A68D379CE18F1A = vm.const.ref.rodata @_utf8_input2_18A68D379CE18F1A : !vm.buffer
    vm.call.variadic @hal.buffer_view.assert(%arg2, %_utf8_input2_18A68D379CE18F1A, %c553648144, %c1, [%c512, %c512]) : (!vm.ref<!hal.buffer_view>, !vm.buffer, i32, i32, i64 ...)
    %ref_4 = vm.call @hal.buffer_view.buffer(%arg2) {nosideeffects} : (!vm.ref<!hal.buffer_view>) -> !vm.ref<!hal.buffer>
    vm.call @hal.buffer.assert(%ref_4, %_utf8_tensor_3C6209B4FD120BDC, %ref_2, %c524288, %c16, %c3075) : (!vm.ref<!hal.buffer>, !vm.buffer, !vm.ref<!hal.allocator>, i64, i32, i32) -> ()
    %ref_5 = vm.call @hal.fence.create(%__device_0, %zero) : (!vm.ref<!hal.device>, i32) -> !vm.ref<!hal.fence>
    vm.call.variadic @hal.device.queue.execute.indirect(%__device_0, %c-1, %null, %ref_5, %__matmul_accumulate_512x128xf16_times_128x512xf16_into_512x512xf16_for_LLVMGPUMatmulTensorCore_32_32_16_64_2_1_memoize_result_0_device_0, [(%ref, %zero_0, %c131072), (%ref_3, %zero_0, %c131072), (%ref_4, %zero_0, %c524288)]) : (!vm.ref<!hal.device>, i64, !vm.ref<!hal.fence>, !vm.ref<!hal.fence>, !vm.ref<!hal.command_buffer>, tuple<!vm.ref<!hal.buffer>, i64, i64> ...)
    %0 = vm.call.variadic @hal.fence.await(%c-1_1, [%ref_5]) : (i32, !vm.ref<!hal.fence> ...) -> i32
    vm.cond_br %0, ^bb2, ^bb1
  ^bb1:  // pred: ^bb0
    %ref_6 = vm.call.variadic @hal.buffer_view.create(%ref_4, %zero_0, %c524288, %c553648144, %c1, [%c512, %c512]) {nosideeffects} : (!vm.ref<!hal.buffer>, i64, i64, i32, i32, i64 ...) -> !vm.ref<!hal.buffer_view>
    vm.return %ref_6 : !vm.ref<!hal.buffer_view>
  ^bb2:  // pred: ^bb0
    vm.fail %0, "failed to wait on timepoint"
  }
  vm.export @matmul_accumulate_512x128xf16_times_128x512xf16_into_512x512xf16_for_LLVMGPUMatmulTensorCore_32_32_16_64_2_1 attributes {iree.abi.stub, iree.reflection = {iree.abi.declaration = "sync func @matmul_accumulate_512x128xf16_times_128x512xf16_into_512x512xf16_for_LLVMGPUMatmulTensorCore_32_32_16_64_2_1(%input0: tensor<512x128xf16>, %input1: tensor<128x512xf16>, %input2: tensor<512x512xf16>) -> (%output0: tensor<512x512xf16>)"}, ordinal = 0 : i32}
  vm.export @__init attributes {ordinal = 1 : i32}
  vm.func private @__init() attributes {ordinal = 2 : i32} {
    %c1 = vm.const.i32 1
    %null = vm.const.ref.zero : !vm.buffer
    %c14 = vm.const.i32 14
    %c-1 = vm.const.i64 -1
    %c18 = vm.const.i32 18
    %zero = vm.const.i32.zero
    %zero_0 = vm.const.i64.zero
    %c1_1 = vm.const.i64 1
    %null_2 = vm.const.ref.zero : !vm.ref<!hal.device>
    %0 = vm.call @hal.devices.count() {nosideeffects} : () -> i32
    %1 = vm.ext.i32.i64.s %0 : i32 -> i64
    vm.br ^bb1(%zero_0, %zero_0, %null_2 : i64, i64, !vm.ref<!hal.device>)
  ^bb1(%2: i64, %3: i64, %4: !vm.ref<!hal.device>):  // 2 preds: ^bb0, ^bb4
    %rnz = vm.cmp.nz.ref %4 : !vm.ref<!hal.device>
    %5 = vm.xor.i32 %rnz, %c1 : i32
    %slt = vm.cmp.lt.i64.s %2, %1 : i64
    %6 = vm.and.i32 %5, %slt : i32
    vm.cond_br %6, ^bb2, ^bb5
  ^bb2:  // pred: ^bb1
    %7 = vm.trunc.i64.i32 %2 : i64 -> i32
    %ref = vm.call @hal.devices.get(%7) {nosideeffects} : (i32) -> !vm.ref<!hal.device>
    %_utf8_hal_device_id_C1DCB7DBC4F49AE6 = vm.const.ref.rodata @_utf8_hal_device_id_C1DCB7DBC4F49AE6 : !vm.buffer
    %_utf8_cuda_EC9D846C9E731CDE = vm.const.ref.rodata @_utf8_cuda_EC9D846C9E731CDE : !vm.buffer
    %8:2 = vm.call @hal.device.query.i64(%ref, %_utf8_hal_device_id_C1DCB7DBC4F49AE6, %_utf8_cuda_EC9D846C9E731CDE) {nosideeffects} : (!vm.ref<!hal.device>, !vm.buffer, !vm.buffer) -> (i32, i64)
    %nz = vm.cmp.nz.i64 %8#1 : i64
    %9 = vm.select.i32 %8#0, %nz, %zero : i32
    vm.cond_br %9, ^bb3, ^bb4(%zero : i32)
  ^bb3:  // pred: ^bb2
    %_utf8_hal_executable_format_EAB228F999C2D3A1 = vm.const.ref.rodata @_utf8_hal_executable_format_EAB228F999C2D3A1 : !vm.buffer
    %_utf8_cuda_nvptx_fb_B15B42B96FDBACC = vm.const.ref.rodata @_utf8_cuda_nvptx_fb_B15B42B96FDBACC : !vm.buffer
    %10:2 = vm.call @hal.device.query.i64(%ref, %_utf8_hal_executable_format_EAB228F999C2D3A1, %_utf8_cuda_nvptx_fb_B15B42B96FDBACC) {nosideeffects} : (!vm.ref<!hal.device>, !vm.buffer, !vm.buffer) -> (i32, i64)
    %nz_3 = vm.cmp.nz.i64 %10#1 : i64
    %11 = vm.select.i32 %10#0, %nz_3, %zero : i32
    vm.br ^bb4(%11 : i32)
  ^bb4(%12: i32):  // 2 preds: ^bb2, ^bb3
    %eq = vm.cmp.eq.i64 %3, %zero_0 : i64
    %13 = vm.select.i64 %12, %c1_1, %zero_0 : i64
    %14 = vm.add.i64 %3, %13 : i64
    %15 = vm.and.i32 %12, %eq : i32
    %ref_4 = vm.select.ref %15, %ref, %null_2 : !vm.ref<!hal.device>
    %16 = vm.add.i64 %2, %c1_1 : i64
    vm.br ^bb1(%16, %14, %ref_4 : i64, i64, !vm.ref<!hal.device>)
  ^bb5:  // pred: ^bb1
    vm.cond_br %5, ^bb6, ^bb7
  ^bb6:  // pred: ^bb5
    vm.fail %c18, "HAL device `__device_0` not found or unavailable: #hal.device.target<\22cuda\22, [#hal.executable.target<\22cuda\22, \22cuda-nvptx-fb\22, {iree.gpu.target = #iree_gpu.target<arch = \22sm_86\22, features = \22+ptx76\22, wgp = <compute =  fp64|fp32|fp16|int64|int32|int16|int8, storage =  b64|b32|b16|b8, subgroup =  shuffle|arithmetic, dot =  dp4xi8toi32, mma = [<WMMA_F32_16x16x16_F16>, <WMMA_F16_16x16x16_F16>], subgroup_size_choices = [32], max_workgroup_sizes = [1024, 1024, 1024], max_thread_count_per_workgroup = 1024, max_workgroup_memory_bytes = 166912, max_workgroup_counts = [2147483647, 65535, 65535]>>}>]>"
  ^bb7:  // pred: ^bb5
    %_utf8_hal_executable_format_EAB228F999C2D3A1_5 = vm.const.ref.rodata @_utf8_hal_executable_format_EAB228F999C2D3A1 : !vm.buffer
    %_utf8_cuda_nvptx_fb_B15B42B96FDBACC_6 = vm.const.ref.rodata @_utf8_cuda_nvptx_fb_B15B42B96FDBACC : !vm.buffer
    %17:2 = vm.call @hal.device.query.i64(%4, %_utf8_hal_executable_format_EAB228F999C2D3A1_5, %_utf8_cuda_nvptx_fb_B15B42B96FDBACC_6) {nosideeffects} : (!vm.ref<!hal.device>, !vm.buffer, !vm.buffer) -> (i32, i64)
    %nz_7 = vm.cmp.nz.i64 %17#1 : i64
    %18 = vm.select.i32 %17#0, %nz_7, %zero : i32
    %19 = vm.select.i64 %18, %zero_0, %c-1 : i64
    %eq_8 = vm.cmp.eq.i64 %19, %zero_0 : i64
    vm.global.store.ref %4, @__device_0 : !vm.ref<!hal.device>
    vm.cond_br %eq_8, ^bb8, ^bb9
  ^bb8:  // pred: ^bb7
    %matmul_accumulate_512x128xf16_times_128x512xf16_into_512x512xf16_for_LLVMGPUMatmulTensorCore_32_32_16_64_2_1_dispatch_0_cuda_nvptx_fb = vm.const.ref.rodata @matmul_accumulate_512x128xf16_times_128x512xf16_into_512x512xf16_for_LLVMGPUMatmulTensorCore_32_32_16_64_2_1_dispatch_0_cuda_nvptx_fb : !vm.buffer
    %ref_9 = vm.call @hal.executable.create(%4, %_utf8_cuda_nvptx_fb_B15B42B96FDBACC_6, %matmul_accumulate_512x128xf16_times_128x512xf16_into_512x512xf16_for_LLVMGPUMatmulTensorCore_32_32_16_64_2_1_dispatch_0_cuda_nvptx_fb, %null) {nosideeffects} : (!vm.ref<!hal.device>, !vm.buffer, !vm.buffer, !vm.buffer) -> !vm.ref<!hal.executable>
    vm.global.store.ref %ref_9, @__device_0_executable_0_matmul_accumulate_512x128xf16_times_128x512xf16_into_512x512xf16_for_LLVMGPUMatmulTensorCore_32_32_16_64_2_1_dispatch_0 : !vm.ref<!hal.executable>
    %ref_10 = vm.call @__matmul_accumulate_512x128xf16_times_128x512xf16_into_512x512xf16_for_LLVMGPUMatmulTensorCore_32_32_16_64_2_1_memoize_apply() : () -> !vm.ref<!hal.command_buffer>
    vm.global.store.ref %ref_10, @__matmul_accumulate_512x128xf16_times_128x512xf16_into_512x512xf16_for_LLVMGPUMatmulTensorCore_32_32_16_64_2_1_memoize_result_0_device_0 : !vm.ref<!hal.command_buffer>
    vm.return
  ^bb9:  // pred: ^bb7
    vm.fail %c14, "HAL device `__device_0` does not support any variant of executable `matmul_accumulate_512x128xf16_times_128x512xf16_into_512x512xf16_for_LLVMGPUMatmulTensorCore_32_32_16_64_2_1_dispatch_0`; available formats: [cuda-nvptx-fb]"
  }
}

